p1_navigation/checkpoint.pth (torch_old, 54572 bytes, 6 tensors)

fc1.weight f4 [128, 37]
0	0x3eef50a6	0.46741217
1	0xbf338e6d	-0.701392
2	0xbe9a36ac	-0.30119836
3	0xbd23da82	-0.040003307
4	0xbff86573	-1.940596
5	0xbca22e6a	-0.019797523
6	0xbcad40de	-0.021149095
7	0xbcec04dc	-0.02881091
8	0x3d97d36e	0.07413374
9	0xbcbe3760	-0.023219764
10	0x3dabc126	0.083864495
11	0x3dc89414	0.09793869
12	0x3d99e804	0.075149566
13	0x3db6c5e7	0.089244656
14	0x3bd95c81	0.006633342
15	0xbdafe87e	-0.08589266
16	0x3c64513d	0.013935384
17	0xbd351ded	-0.044217993
18	0x3d811259	0.06302328
19	0x3df7a3fd	0.12091825
20	0x3cc1214f	0.023575453
21	0x3da0cbeb	0.07851394
22	0xbcf509ff	-0.029911993
23	0x3d58d45e	0.052936904
24	0x3b729c49	0.0037019423
25	0xbd6b91da	-0.05751214
26	0xbdf1fa43	-0.11815312
27	0xbd8c9d4f	-0.06865942
28	0xbe07ce78	-0.13262355
29	0xbd947264	-0.07248381
30	0x3d455d95	0.04818495
31	0xbc931f1b	-0.017959168
32	0xbc71eb26	-0.014765536
33	0x3db79962	0.08964802
34	0x3dc9209a	0.098206714
35	0x3c993fbd	0.01870715
36	0x3c435f60	0.011924595
37	0xbe1029ab	-0.14078395
38	0xbe860487	-0.2617533
39	0x3e170434	0.14747697
40	0x3df3c1e5	0.11902217
41	0x3e0a09e3	0.13480334
42	0x3db10506	0.08643536
43	0xbe67b204	-0.22626501
44	0x3c0ce939	0.0086005265
45	0xbcc7db0e	-0.024396446
46	0xbea77a8c	-0.32710683
47	0xbe698d7c	-0.22807878
48	0x3e0bc0c7	0.13647757
49	0x3cad9de6	0.021193456
50	0xbda061a4	-0.078311235
51	0x3e8d4b26	0.27596396
52	0x3dbd4037	0.09240764
53	0xbe974244	-0.29542744
54	0x3cd49e40	0.025954366
55	0xbe846e45	-0.2586538
56	0xbe9df8fc	-0.30854023
57	0xbd9b0267	-0.075688176
58	0xbd84c206	-0.064823195
59	0xbe1ebcb4	-0.15501672
60	0x3e3ce3d9	0.18446292
61	0x3e6f1b79	0.23350324
62	0xbdd634d1	-0.10459293
63	0x3e38b6c4	0.1803847
64	0x3dbf2950	0.093340516
65	0x3d64fa2e	0.055902652
66	0xbd18398e	-0.037164263
67	0x3d136b49	0.035990987
68	0xbd87827d	-0.066166855
69	0xbe2bb8e6	-0.16769752
70	0xbcc72fab	-0.024314722
71	0x3dfd09dc	0.12355396
72	0xbe371670	-0.17879653
73	0xbd2e37aa	-0.042533554
74	0xbdc6502d	-0.09683261
75	0xbe879db5	-0.26487508
76	0x3e81ba89	0.25337628
77	0x3b8614d9	0.0040918407
78	0xbe34081c	-0.17581218
79	0xbefbdd6b	-0.49192366
80	0x3e039439	0.12849511
81	0x3e914de5	0.2837974
82	0xbeb9a9fd	-0.36262503
83	0xbfab8fcd	-1.340326
84	0xbd9c72f2	-0.076391116
85	0xbe8314d9	-0.25601843
86	0x3da5ac9e	0.08089565
87	0xbe7b2bdb	-0.24528448
88	0xbd2ad8c5	-0.041710634
89	0x3d78973e	0.06069111
90	0x3d775c03	0.060390484
91	0xba8ed5a0	-0.0010897405
92	0xbef30aab	-0.47469077
93	0x3d102e58	0.035200447
94	0xbe38dd95	-0.18053277
95	0xbe11ec43	-0.14250283
96	0xbd3212aa	-0.04347483
97	0xbedc3f79	-0.43017176
98	0xbe485bd7	-0.19566284
99	0xbc002b24	-0.0078227855
100	0xbe2b851d	-0.16749997
101	0x3e006249	0.12537493
102	0xbee21d86	-0.4416315
103	0xbecb02db	-0.39650616
104	0xbe34e394	-0.17664939
105	0xbe8af029	-0.27136353
106	0x3c0b380f	0.008497252
107	0xbe56e09c	-0.20984119
108	0xbf09e88d	-0.5387047
109	0x3da05910	0.07829487
110	0x3db0c373	0.08631029
111	0xbe2e9030	-0.1704719
112	0xbd9a4a12	-0.07533659
113	0x3e9450f8	0.28968024
114	0xbe1d1bdd	-0.1534266
115	0xbe3767c2	-0.17910674
116	0xbc6d80b5	-0.014496018
117	0xbddee9cc	-0.10884437
118	0xbd7bb15e	-0.061448447
119	0xbe459ce8	-0.19298136
120	0x3dbc8b9b	0.09206315
121	0xbe02c6af	-0.12771104
122	0xbca1eac3	-0.019765263
123	0xbe4d9496	-0.20076212
124	0x3ce2966a	0.027659614
125	0xbe947133	-0.28992614
126	0x3cb30a1c	0.021855406
127	0xbf2918d5	-0.66053516
128	0x3e75f4d6	0.24019179
129	0x3dca9c7b	0.098931275
130	0x3d010ef7	0.031508412
131	0x3e147bcb	0.14500348
132	0xbea9cb33	-0.3316284
133	0xbe93ad83	-0.28843316
134	0xbc6fa929	-0.014627733
135	0xbe757a37	-0.23972403
136	0x3e1d9b31	0.15391232
137	0xbe7b3dca	-0.2453529
138	0x3d3d043b	0.046146613
139	0xbea2e912	-0.31818444
140	0xbee34f2a	-0.44396335
141	0x3e042418	0.12904394
142	0xbf0448fe	-0.5167388
143	0xbed13479	-0.40860346
144	0xbecfaee0	-0.40563107
145	0x3ecb16bc	0.39665782
146	0xbd989be8	-0.07451612
147	0xbda34348	-0.07971817
148	0x3e1f729a	0.15571061
149	0x3dfc557f	0.123209946
150	0x3b94104f	0.0045185457
151	0x3b7b2c4a	0.003832596
152	0x3dc2fae2	0.09520508
153	0x3eae2af7	0.34017155
154	0x3e504501	0.20338823
155	0x3b8f23d9	0.004368287
156	0xbe318201	-0.17334749
157	0xbeba3ac0	-0.36372948
158	0x3e68ea6c	0.22745675
159	0x3dee7d90	0.11645043
160	0x3d4f0f02	0.050551422
161	0x3db5492f	0.08851849
162	0x3bd2ae28	0.0064294524
163	0x3de3dc41	0.111259945
164	0x3e5d969c	0.21639484
165	0x3dfd75b6	0.12375967
166	0x3e165045	0.14679058
167	0xbd2aa3e6	-0.041660212
168	0x3b6e4ce5	0.003636175
169	0x3df970e0	0.12179732
170	0xbd707df5	-0.058713872
171	0xbce325fd	-0.027728075
172	0x3df62498	0.120186985
173	0x3e14f07e	0.14544865
174	0x3e2e46aa	0.17019144
175	0x3e628298	0.2212013
176	0x3e4220a7	0.18957768
177	0xbccfcbca	-0.025365729
178	0x3ea3aa01	0.3196564
179	0x3d901467	0.070351414
180	0x3c5cb73c	0.013471421
181	0x3be2bc55	0.0069194236
182	0xbe0f5ce0	-0.14000273
183	0x3d67c85f	0.056587573
184	0xbb867725	-0.0041035586
185	0xbe0cb20f	-0.13739799
186	0x3cf03ac8	0.029324904
187	0xbe153294	-0.14570075
188	0x3d8d71e0	0.069064856
189	0xbe04d864	-0.12973171
190	0x3e24d007	0.16094981
191	0x3db57950	0.08861029
192	0xbe8f2b3b	-0.2796267
193	0x3c50e500	0.01274991
194	0xbe9aac3f	-0.30209538
195	0x3e888278	0.2666204
196	0xbe213342	-0.1574221
197	0x3e39f81a	0.1816105
198	0xbd8bddb6	-0.068293974
199	0xbf15573c	-0.58336234
200	0xbd6ff7fd	-0.05858611
201	0xbd495cfd	-0.049160946
202	0x3db43a53	0.08800187
203	0x3c91d5a7	0.017802073
204	0x3d51617f	0.05111837
205	0xbdabaa0a	-0.08382042
206	0xbe9341cc	-0.28761137
207	0x3dd56680	0.10419941
208	0xbca9be92	-0.020720754
209	0x3e95b9a2	0.2924319
210	0xbd8176de	-0.063215
211	0xbe303b71	-0.17210175
212	0x3da92bf0	0.082603335
213	0xbd91ec52	-0.07125153
214	0xbe0e288d	-0.13882656
215	0x3e28c4a2	0.1648126
216	0xbece76ad	-0.40324917
217	0x3da212c0	0.079137325
218	0x3e174f15	0.14776261
219	0x3deba581	0.11506177
220	0xbd9af38f	-0.07565986
221	0xbbd11635	-0.006380821
222	0xbd52b635	-0.051443297
223	0xbd5e1580	-0.054219723
224	0xbe8aebc4	-0.27133
225	0xbe858aa6	-0.26082343
226	0x3e3122a0	0.17298365
227	0xbdac6542	-0.08417751
228	0xbd48b036	-0.048996173
229	0x3e94a452	0.29031616
230	0xbd88d09d	-0.06680415
231	0x3cb44bcc	0.022008799
232	0x3d9ee47a	0.07758422
233	0x3d1f252b	0.038853806
234	0xbed8d9a5	-0.4235355
235	0xbdc07a11	-0.09398282
236	0xbf801a7a	-1.000808
237	0xbcfbecb9	-0.030752527
238	0x3df5e410	0.1200639
239	0xbe136b52	-0.14396408
240	0x3e3295f1	0.1744001
241	0x3e7e746e	0.24849102
242	0x3e4846dc	0.1955828
243	0xbea81836	-0.3283097
244	0xbe67a30e	-0.22620794
245	0xbe2d21cb	-0.16907422
246	0xbeb2dd5d	-0.34934512
247	0xbddde86d	-0.10835347
248	0xbe8ff743	-0.28118333
249	0x3da4690f	0.08027851
250	0x3e27177c	0.16317552
251	0xbdeedad1	-0.1166283
252	0xbdcaa284	-0.09894279
253	0xbe552b34	-0.20817262
254	0xbdad3f4a	-0.08459337
255	0x3dfa2779	0.1221456

fc1.bias f4 [128]
0	0x3d8fafe2	0.07015969
1	0xbda70034	-0.081543356
2	0xbd9a2590	-0.07526696
3	0xbe3990a5	-0.18121584
4	0x3e9cbfef	0.30615184
5	0x3d606d64	0.054791823
6	0x3d820ad0	0.063497186
7	0x3d92e827	0.07173186
8	0xbe2d64e2	-0.16933015
9	0xbdde8db3	-0.10866871
10	0xbe346834	-0.17617875
11	0x3e0f9935	0.14023288
12	0xbdb5c7ff	-0.08876037
13	0xbe485811	-0.19564845
14	0xbde0e454	-0.1098105
15	0x3d07bda8	0.033139855
16	0x3c1a99ed	0.009436113
17	0xbcc53123	-0.024071282
18	0xbe17261e	-0.14760634
19	0xbd6429a7	-0.055703785
20	0x3d87f513	0.06638541
21	0xbe818236	-0.25294656
22	0xbd69b30a	-0.05705551
23	0x3d4b96a9	0.049704228
24	0xbc37e28c	-0.011223447
25	0xbd86f49c	-0.06589624
26	0xbd8dd1db	-0.069247924
27	0xbd65e7d1	-0.05612928
28	0x3bcd385d	0.0062628225
29	0xbb47402a	-0.0030403235
30	0xbba24dfb	-0.0049531437
31	0xbd9d8d2b	-0.07692941
32	0xbdb7fe35	-0.08984033
33	0x3e0b5555	0.1360677
34	0xbe2c909f	-0.16852044
35	0x3d83c685	0.06434349
36	0x3cb289d9	0.021794247
37	0xbbf410fb	-0.0074483133
38	0x3db08f44	0.08621076
39	0xbbc95022	-0.006143586
40	0xbbe09b7f	-0.006854474
41	0x3db8ad41	0.090174206
42	0xbe49a98c	-0.19693583
43	0xbd814829	-0.063125916
44	0xbe3eb6e2	-0.18624452
45	0x3d8e81fb	0.069583856
46	0x3dd735ff	0.10508346
47	0xbd833433	-0.064064406
48	0x3cbc6cfd	0.023001188
49	0x3dda7962	0.10667683
50	0x3e3d7246	0.18500623
51	0x3e2e4838	0.17019737
52	0x3e186760	0.14883184
53	0xbdca949c	-0.09891626
54	0x3e03da1b	0.1287617
55	0xbd9ea83f	-0.07746934
56	0xbe277aa2	-0.16355374
57	0xbca8ca48	-0.020604268
58	0xbd2b8736	-0.041876994
59	0x3e0565f1	0.13027169
60	0x3dfe1de5	0.12408046
61	0xbd6f75a7	-0.05846181
62	0x3e091681	0.13387491
63	0xbd845bbe	-0.06462811
64	0xbd8af136	-0.067842886
65	0x3cbf457e	0.023348566
66	0xbd6f0294	-0.058352068
67	0x3d6d59b4	0.057946876
68	0xbdd5ecde	-0.104455695
69	0xbe3f8d26	-0.18706188
70	0xbe1ebcf7	-0.15501772
71	0xbb84a938	-0.0040484928
72	0xbdc384f2	-0.09546842
73	0xbd75e869	-0.060036097
74	0x3dcfdf81	0.10150052
75	0x3d6ff77e	0.058585636
76	0xbe1e2c67	-0.15446626
77	0xbd34c45e	-0.044132583
78	0xbe15667d	-0.14589877
79	0xbe182c54	-0.1486066
80	0x3e1695b9	0.14705552
81	0x3e94da9f	0.29073045
82	0xbe85b624	-0.26115525
83	0xbdf578ac	-0.11985907
84	0x3da7b670	0.08189094
85	0xbdedd17f	-0.11612224
86	0xbd21ff9a	-0.0395504
87	0xbd645ff1	-0.05575556
88	0xbdb534d8	-0.0884797
89	0x3d196fe3	0.03746022
90	0x3d777da3	0.06042255
91	0x3d3b2964	0.04569377
92	0xbc1ba39b	-0.009499456
93	0xbd3de088	-0.046356708
94	0xbcfc2e6b	-0.030783853
95	0x3d1fa851	0.03897888
96	0xbdfa757d	-0.1222944
97	0x3d4b7c7b	0.04967926
98	0xbe0fe885	-0.14053543
99	0xba9053e8	-0.0011011334
100	0xbd87762b	-0.066143356
101	0xbd64f9fb	-0.055902462
102	0xbe6c5c0c	-0.23081988
103	0x3e187c14	0.14891082
104	0x3d81995e	0.063280806
105	0x3d1dab99	0.038493726
106	0xbe46749a	-0.19380417
107	0x3d8bc200	0.06824112
108	0xbd7f4560	-0.06232202
109	0x3df129f3	0.11775579
110	0xbd6b1e5b	-0.057401996
111	0x3dcaec39	0.09908337
112	0x3d51e992	0.05124814
113	0xbe05fce3	-0.1308475
114	0xbd5942d6	-0.053042255
115	0x3d3ed144	0.04658629
116	0x3d38d191	0.045121733
117	0x3dac2dc8	0.084071696
118	0xbe14c0cb	-0.1452667
119	0xbdc37f8a	-0.095458105
120	0xbe03a5e3	-0.1285625
121	0x3e8ad03b	0.27111992
122	0xbdd0f25a	-0.10202475
123	0xbe0a5fa8	-0.13513052
124	0xbc4f1a39	-0.012640529
125	0xbdaa5916	-0.08317773
126	0x3d8630a1	0.06552244
127	0xbe067f34	-0.13134462

fc2.weight f4 [64, 128]
0	0xbec4739e	-0.3836946
1	0xbdf6a90a	-0.120439604
2	0x3e24367c	0.16036409
3	0x3a0a091b	0.0005265639
4	0x3d30859a	0.043096162
5	0x3dab42e9	0.083623715
6	0x3d3c655e	0.04599511
7	0x3d0d6720	0.034522176
8	0x3d4a95d3	0.04945929
9	0x3d57ba3b	0.052667838
10	0x3d231676	0.039816342
11	0x3d824e4a	0.06362589
12	0x3daed603	0.08536913
13	0x3e8fd857	0.28094742
14	0xbdb6414c	-0.08899173
15	0xbd60dd42	-0.054898508
16	0x3d7ebb06	0.06219008
17	0x3c6b0734	0.014344979
18	0xbc4ead45	-0.012614553
19	0x3d77ef7e	0.060531132
20	0x3d90ac66	0.070641324
21	0xbe030e0c	-0.12798327
22	0xbd837f7b	-0.06420799
23	0x3dd06aad	0.10176597
24	0x3c353c92	0.011061804
25	0xbe12ee15	-0.14348634
26	0xbd0f52f7	-0.03499123
27	0xbe1965df	-0.14980267
28	0xbc914eae	-0.017737713
29	0x3c3bfecd	0.011474323
30	0x3ce6d493	0.028177535
31	0x3de7489d	0.11293147
32	0xbe032ca1	-0.12809993
33	0xbdeecdc3	-0.1166034
34	0xbddeb6d7	-0.10874718
35	0xbe3bdf90	-0.18347001
36	0x3d009fb2	0.031402297
37	0xbdee0d2a	-0.116236046
38	0xbd07fc5a	-0.033199646
39	0xbdaf4a8e	-0.08559142
40	0xbd88631b	-0.06659528
41	0x3d5adda0	0.053434014
42	0xbdb09e09	-0.08623893
43	0xbde8d5eb	-0.113689266
44	0x3e1c6ce5	0.15275915
45	0x3decb0c7	0.11557155
46	0xbdd24473	-0.10266962
47	0xbdff6ba1	-0.124717005
48	0xbbaaf11d	-0.005216731
49	0x3e0ed278	0.13947475
50	0xbdea5b16	-0.114431545
51	0xbe203609	-0.15645613
52	0x3d760ebb	0.06007264
53	0xbdd1cbd1	-0.10243953
54	0x3e69ec35	0.22844012
55	0x3d8ffdb7	0.07030814
56	0xbd8411f0	-0.06448734
57	0xbd7b54bb	-0.061360102
58	0x3cc4c96b	0.024021825
59	0x3d268f0a	0.040663756
60	0x3e1219e9	0.14267696
61	0x3dae80fc	0.085206956
62	0xbbbcfe5d	-0.005767627
63	0xbdc3a38f	-0.09552681
64	0x3d8afbb8	0.06786293
65	0x3dfbafab	0.122893654
66	0xbe3a1450	-0.18171811
67	0xbdcb909a	-0.0993969
68	0x3e43105e	0.19049212
69	0x3d2ff13d	0.042954672
70	0xbe10c6d9	-0.14138354
71	0xbdc8c6b6	-0.09803526
72	0xbdd8f168	-0.105929196
73	0xbb3b58c2	-0.002858684
74	0x3dafa228	0.08575851
75	0xbd5f476d	-0.054511476
76	0x3dbaf509	0.09128768
77	0xbdcf3ead	-0.10119376
78	0x3daf5db5	0.08562795
79	0x3e52790b	0.20553987
80	0xbe1e4bdf	-0.1545863
81	0xbe290248	-0.16504776
82	0xbc15af08	-0.009135969
83	0xbdef1c5a	-0.116753295
84	0x3e1d9903	0.153904
85	0xbda47180	-0.08029461
86	0xbd697473	-0.05699582
87	0x3e05fc40	0.13084507
88	0xbd2701b8	-0.040773124
89	0xbd88168b	-0.06644925
90	0xbd5452be	-0.05183672
91	0x3c11d4ac	0.008900803
92	0x3d113386	0.035449527
93	0xbe181838	-0.14852989
94	0xbde0298e	-0.10945426
95	0xbe312c08	-0.17301953
96	0x3cc0bd88	0.023527876
97	0x3d9694a4	0.0735257
98	0x3dbbb0d0	0.09164584
99	0xbe478718	-0.19485128
100	0x3e048baa	0.12943903
101	0xbe116c6f	-0.1420152
102	0x3e4a5e23	0.19762473
103	0xbe24cbfa	-0.16093436
104	0xbcda50d5	-0.026649872
105	0xbe5944b7	-0.21217619
106	0x3d48aaac	0.04899089
107	0x3bc5cbc4	0.0060362536
108	0xbda3f0f0	-0.080049396
109	0x3cb01b8e	0.021497514
110	0xbe313d9e	-0.17308661
111	0x3da2a8ca	0.0794235
112	0xbd419313	-0.0472594
113	0xbe3f29bc	-0.18668264
114	0x3a39c53a	0.0007086579
115	0xbd2a3b7d	-0.04156064
116	0xbd88829b	-0.06665536
117	0x3d92a67d	0.07160661
118	0xbe186135	-0.14880832
119	0x3ccaa05f	0.024734674
120	0xba021c99	-0.0004963368
121	0xbd47b678	-0.048758
122	0xbe80911d	-0.25110713
123	0x3de6c171	0.11267365
124	0x3d037202	0.03209115
125	0x3e2eab3e	0.17057511
126	0x3e0ebaa8	0.13938391
127	0xbd4b6f9f	-0.049666997
128	0x3d932b3b	0.0718598
129	0xbe95919a	-0.29212648
130	0x3e017a41	0.12644292
131	0xbc1f9cfd	-0.009742019
132	0xbe83af09	-0.2571948
133	0xbd84831c	-0.0647032
134	0xbe406aee	-0.1879079
135	0xbd0e71a1	-0.034776334
136	0xbe241ab7	-0.16025816
137	0x3d99c388	0.07507998
138	0xbd9f1f08	-0.077695906
139	0xbd5afaf6	-0.05346199
140	0x3cec7354	0.028863586
141	0xbedadd46	-0.42746943
142	0xbda0d803	-0.07853701
143	0xbd929602	-0.07157518
144	0x3e1b7e46	0.15184888
145	0x3e5d300a	0.21600357
146	0xbe80d5c7	-0.251631
147	0x3e14a4ca	0.14515987
148	0xbea9bb5d	-0.3315076
149	0xbdb10d49	-0.08645112
150	0xbf085c0d	-0.5326546
151	0xbdd43e9b	-0.103635035
152	0xbdbb4d77	-0.091456346
153	0x3d2d0cc6	0.04224851
154	0xbdaf200b	-0.085510336
155	0x3e143208	0.1447221
156	0x3d6863f2	0.05673594
157	0xbd4951f7	-0.049150433
158	0xbdc67cf1	-0.096917994
159	0x3daa9a3c	0.08330199
160	0xbebc50b0	-0.3678031
161	0x3d8f842b	0.07007631
162	0x3db1e83a	0.08686872
163	0x3d9dea65	0.07710723
164	0xbd8b64aa	-0.068063095
165	0xbef27662	-0.47355944
166	0x3e2df561	0.16988136
167	0x3ceb8114	0.028748073
168	0xbec67d10	-0.3876729
169	0x3ec27e88	0.3798716
170	0xbd682efd	-0.056685437
171	0xbdd8e944	-0.10591367
172	0xbd94ddb6	-0.072688505
173	0xbe3e7277	-0.18598352
174	0xbea42801	-0.3206177
175	0xbe8abae6	-0.27095717
176	0x3e049c72	0.12950304
177	0x3e41c385	0.18922241
178	0x3e31727d	0.1732883
179	0xbd836cb3	-0.06417217
180	0xbdf7124f	-0.12064039
181	0xbdd421a8	-0.10357982
182	0xbdf4cfa1	-0.119536646
183	0xbbc8894b	-0.006119882
184	0x3cbe228d	0.023209834
185	0xbbf41c80	-0.0074496865
186	0xbde34e3d	-0.11098907
187	0x3db61251	0.08890212
188	0xbe8e2d00	-0.27768707
189	0x3e18f541	0.14937307
190	0x3d602c3a	0.054729678
191	0x3e988f79	0.2979696
192	0x3d8bd929	0.068285294
193	0xbe1e9a82	-0.15488628
194	0xbe0591a9	-0.13043846
195	0xbd13b185	-0.036057968
196	0x3e09f769	0.13473286
197	0x3deac539	0.114633985
198	0xbe02edce	-0.12786028
199	0xbd105e33	-0.035246085
200	0x3e4cba0b	0.19992845
201	0xbe7e5e18	-0.24840581
202	0x3eb4c7fe	0.35308832
203	0xbd3354e2	-0.043782122
204	0x3dd17112	0.102266446
205	0x3dcd19ee	0.10014711
206	0x3e0a77ad	0.13522215
207	0xbe33e228	-0.1756674
208	0xbdb250f2	-0.08706845
209	0xbe17e942	-0.14835075
210	0xbd515410	-0.05110556
211	0xbe5f897b	-0.21829788
212	0xbe4ef393	-0.20210104
213	0x3e7057b2	0.23470953
214	0xbe81b163	-0.25330648
215	0xbe079923	-0.13242011
216	0xbdf3f710	-0.11912358
217	0xbe883dab	-0.2660955
218	0xbe7461c6	-0.23865423
219	0xbe184fa0	-0.14874125
220	0x3e54653c	0.20741743
221	0xbdbc2719	-0.09187145
222	0xbd86ff0f	-0.06591617
223	0xbddb690b	-0.10713395
224	0x3e57eca3	0.21086363
225	0xbe4844bc	-0.1955747
226	0xbdd895db	-0.10575458
227	0xbe45c32d	-0.19312735
228	0xbdeb3950	-0.11485541
229	0x3e3633c4	0.17793185
230	0xbeb05881	-0.34442523
231	0xbd9b87c1	-0.075942524
232	0xbd722cfb	-0.059124928
233	0x3e051736	0.12997136
234	0xbd9dc59b	-0.07703706
235	0xbd981e93	-0.074277066
236	0xbe5110aa	-0.20416513
237	0xbe0ba7c1	-0.13638212
238	0x3eb118c7	0.34589216
239	0xbe568c00	-0.20951843
240	0x3e5314e3	0.20613436
241	0xbebc3df6	-0.36766022
242	0xbec1c3c8	-0.37844682
243	0x3d33bc1d	0.04388057
244	0xbe0f4af1	-0.13993432
245	0xbe34a86b	-0.17642371
246	0xbeec7509	-0.4618304
247	0xbec44059	-0.38330343
248	0xbe774532	-0.2414749
249	0x3ca5af8c	0.020225309
250	0x3ea91a43	0.3302785
251	0x3d48f2ef	0.049059805
252	0x3e23b86c	0.1598832
253	0xbc851fff	-0.016250608
254	0xbdde6ea4	-0.10860947
255	0xbee79a45	-0.45234886

fc2.bias f4 [64]
0	0xbd991016	-0.07473771
1	0xbd1fcac7	-0.039011743
2	0x3e3d82f0	0.1850698
3	0x3dae3ba2	0.08507468
4	0x3d8890c4	0.06668237
5	0xbd748c9f	-0.05970442
6	0x3f033357	0.51250213
7	0xbd102693	-0.035193037
8	0x3e09577e	0.13412282
9	0x3d5916a1	0.053000096
10	0xbd97d5d8	-0.07413834
11	0x3e4cf397	0.20014797
12	0xbb94c4e6	-0.0045400737
13	0x3c4855c7	0.012227482
14	0x3d80c445	0.062874354
15	0x3da51de9	0.080623455
16	0x3cd04684	0.02542425
17	0xbd84bfb5	-0.06481878
18	0x3e749bd3	0.23887567
19	0xbd99394e	-0.07481633
20	0xbcc6b06f	-0.024254052
21	0x3edcd27f	0.43129346
22	0x3e0b04c5	0.13576038
23	0x3bd4d422	0.0064950148
24	0x3cf31444	0.02967275
25	0x3c8c14c9	0.017099755
26	0xbdfa268f	-0.12214386
27	0xbda58434	-0.08081856
28	0xbd1801a7	-0.03711095
29	0x3ddc1e41	0.10747958
30	0xbca8f070	-0.020622462
31	0x3f04d341	0.5188485
32	0xbdb9e2a3	-0.09076431
33	0x3d25cc08	0.040477782
34	0x3dfa56f5	0.12223617
35	0x3e2da688	0.16958058
36	0x3ca18619	0.019717263
37	0xbe2735e7	-0.16329156
38	0x3d640e3f	0.05567765
39	0x3d59fb7f	0.05321836
40	0xbdc3a6df	-0.095533125
41	0x3d6cfa5a	0.05785594
42	0xbc0b324c	-0.008495878
43	0xbb96ed72	-0.0046059424
44	0x3cecb84d	0.028896475
45	0xbcf4bc4d	-0.029874945
46	0x3c3fe6eb	0.01171277
47	0x3ef3711f	0.47547242
48	0xbd76575d	-0.06014191
49	0xbc8fae2d	-0.017539108
50	0x3e491b6f	0.19639371
51	0x3b5338fd	0.0032230013
52	0xbda4d387	-0.08048158
53	0x3dd42f97	0.103606395
54	0x3d774f34	0.06037827
55	0x3d45b624	0.048269406
56	0x3e484510	0.19557595
57	0x3df3b5b4	0.118998915
58	0x3dacc0b9	0.084351964
59	0xbdff8ab5	-0.12477628
60	0x3e20e66e	0.15712902
61	0xbd07717e	-0.03306722
62	0x3c57a5d3	0.013162094
63	0x3e717b73	0.23582248

fc3.weight f4 [4, 64]
0	0x3d00b607	0.031423595
1	0xbf01c549	-0.5069166
2	0x3dd97785	0.106185
3	0x3d8c4bc8	0.068503916
4	0x3dfd83c1	0.12378646
5	0x3f10032e	0.5625485
6	0x3e485a90	0.19565797
7	0x3d44abd3	0.048015427
8	0x3c02765c	0.007962789
9	0xbdb56c21	-0.088585146
10	0xbec1d589	-0.37858227
11	0x3d79f5c8	0.06102541
12	0xbe8c7cea	-0.27439052
13	0x3da3ef0f	0.08004581
14	0x3e7705d9	0.24123324
15	0x3e89636e	0.2683367
16	0x3bfc3903	0.007697226
17	0xbe238a93	-0.1597083
18	0x3e08b7f0	0.13351417
19	0xbe1e1a40	-0.15439701
20	0x3e7e3192	0.24823597
21	0x3e30f590	0.17281175
22	0x3e0cf914	0.13766891
23	0xbc8b7f1f	-0.01702839
24	0x3da35353	0.07974877
25	0x3ebb92ce	0.3663544
26	0xbe13bc63	-0.14427333
27	0xbe0f092e	-0.13968346
28	0x3dc2f33c	0.095190495
29	0x3dc5cf3a	0.09658666
30	0x3d1bb17b	0.038011055
31	0x3e6d20d4	0.23157054
32	0xbe812c8c	-0.252293
33	0x3d3d358c	0.046193644
34	0x3eb7fa67	0.3593323
35	0x3d9a085f	0.07521128
36	0x3e29e4f2	0.16591242
37	0xbe4dd026	-0.20098934
38	0x3c5e86a0	0.013581902
39	0x3d8539ab	0.0650514
40	0x3e6e982a	0.23300233
41	0x3df7438f	0.12073433
42	0xbec46f96	-0.38366383
43	0xbeffb5f9	-0.49943522
44	0x3ec004c9	0.3750365
45	0xbbff148c	-0.007784432
46	0x3cb53535	0.022120098
47	0x3e04e96f	0.12979673
48	0x3e2aaf6b	0.16668479
49	0xbf0c610c	-0.5483558
50	0x3de201e0	0.11035514
51	0x3e8f53d8	0.27993655
52	0xbe38d2a4	-0.18049103
53	0x3d2c7f24	0.04211344
54	0x3e885be1	0.26632598
55	0x3da85946	0.082201526
56	0x3d8cbd77	0.06872075
57	0x3e56eb97	0.20988308
58	0x3dca6edb	0.09884425
59	0xbdf014e3	-0.11722734
60	0x3d8a5fec	0.06756577
61	0xbe1b5295	-0.15168221
62	0xbc1b48d0	-0.009477809
63	0x3dc0c816	0.09413163
64	0x3daf6be4	0.085655004
65	0x3e7bb4fc	0.24580759
66	0x3e2d8a8e	0.16947386
67	0x3d828632	0.06373252
68	0x3e5f64f9	0.21815862
69	0x3f25adbe	0.64718235
70	0x3e60a690	0.21938539
71	0x3e1aa49b	0.15101855
72	0x3d88f06e	0.06686483
73	0xbc88a30d	-0.016679311
74	0xbead8048	-0.33886933
75	0x3d91e5b2	0.07123889
76	0xbd859c6b	-0.06523975
77	0x3e169e74	0.14708883
78	0x3e67e395	0.2264541
79	0x3e90767e	0.28215402
80	0xbdb10a77	-0.08644574
81	0xbdc47f4e	-0.09594594
82	0x3de31f55	0.110899605
83	0xbe13a349	-0.14417757
84	0x3e724259	0.23658122
85	0x3e2276d6	0.15865645
86	0x3da8f20f	0.08249294
87	0x3dbf034d	0.093268014
88	0x3e1cb8d5	0.15304883
89	0x3ebaa04f	0.3645043
90	0xbdfa84eb	-0.12232383
91	0xbe19e9f5	-0.15030654
92	0xbe137817	-0.1440128
93	0x3df85cf9	0.12127108
94	0x3daf1ef1	0.085508235
95	0x3e204f35	0.15655215
96	0xbe4c82ef	-0.19971822
97	0xbe05ed45	-0.13078792
98	0x3eb1eb0d	0.34749642
99	0x3db5b21d	0.08871863
100	0x3e812a25	0.25227466
101	0xbe0ab106	-0.13544092
102	0xbe26b16e	-0.16278622
103	0x3d857c23	0.06517818
104	0x3e866140	0.2624607
105	0x3e80e2c5	0.2517301
106	0xbdc1818a	-0.09448536
107	0xbdea7562	-0.1144817
108	0x3e9a3249	0.3011649
109	0xbd37a5a1	-0.04483569
110	0x3e394528	0.18092787
111	0x3e44ee75	0.19231589
112	0x3ebc5f16	0.36791295
113	0xbdb32cb3	-0.0874876
114	0x3df3bb59	0.11900968
115	0x3e9cfeca	0.3066314
116	0xbe3c8126	-0.18408641
117	0x3d8f4915	0.06996361
118	0x3ea9da9e	0.33174604
119	0x3da115fd	0.07865522
120	0x3d90ef54	0.07076898
121	0x3ddb4284	0.10706046
122	0x3ccf49f1	0.025303813
123	0xbded9d4c	-0.116022676
124	0x3d635c7a	0.055508114
125	0xbe194e3b	-0.14971249
126	0x3d6020b8	0.054718703
127	0x3dbb0c91	0.09133256
128	0x3db71b87	0.08940797
129	0xbe5f96f3	-0.21834926
130	0x3e71843f	0.23585604
131	0x3d5ad8c7	0.05342939
132	0x3f176611	0.59140116
133	0x3e1a04a7	0.15040837
134	0x3dffc5f8	0.124889314
135	0xbe97a93f	-0.29621312
136	0x3e116b0a	0.14200988
137	0x3dba0109	0.09082229
138	0xbd88534f	-0.06656515
139	0x3ded7ea5	0.11596421
140	0x3dc16710	0.09443486
141	0x3ebf0540	0.37308693
142	0x3ee8e257	0.45485184
143	0xbdcb085a	-0.09913702
144	0xbee4b005	-0.44665542
145	0xbe69d313	-0.22834425
146	0x3e003ca3	0.12523131
147	0xbe8935ac	-0.2679876
148	0x3e2a7575	0.16646369
149	0x3e4f4cc3	0.20244126
150	0x3e71b0d2	0.23602608
151	0xbc8abef4	-0.016936757
152	0x3eea4e41	0.45762828
153	0x3e6c3504	0.23067099
154	0xbea70b40	-0.3262577
155	0x3cfa9bfa	0.030591954
156	0xbed2f3de	-0.4120168
157	0x3e1477e6	0.14498863
158	0x3e9b729f	0.30360886
159	0x3e6e1f95	0.23254235
160	0xbd976523	-0.07392337
161	0x3beab095	0.0071621635
162	0x3f10fdf6	0.56637514
163	0x3e1d62db	0.15369742
164	0x3ea1303d	0.31482115
165	0xbddd2d6e	-0.10799681
166	0xbf001272	-0.50028145
167	0x3dcb8528	0.09937507
168	0xbe1c1429	-0.15242065
169	0x3c4bb51a	0.012433315
170	0xbf0d3df0	-0.55172634
171	0x3d415e0a	0.047208823
172	0x3e58f131	0.21185757
173	0xbaf606c3	-0.0018770326
174	0xbe1f76bd	-0.15572639
175	0x3ddf0914	0.108904034
176	0xbe4c1168	-0.19928515
177	0xbe8d6f4f	-0.27623984
178	0x3dc0177a	0.09379478
179	0x3e2e58f5	0.17026122
180	0xbeb0ab83	-0.34505853
181	0x3c455c19	0.012045884
182	0x3ec226c6	0.37920207
183	0x3e52dc70	0.20591903
184	0x3d9e570d	0.07731447
185	0x3df374a8	0.11887485
186	0xbf5daeee	-0.86595047
187	0xbe56f174	-0.20990545
188	0x3e4c51e8	0.1995312
189	0xbe926d6d	-0.2859911
190	0x3e554d4a	0.20830265
191	0x3dc38f37	0.095488004
192	0xbe3eec1a	-0.18644753
193	0x3e204445	0.15651043
194	0x3d419a52	0.047266312
195	0x3e86aac5	0.26302162
196	0xbda8c290	-0.08240235
197	0x3f17eb49	0.5934339
198	0x3e2524f6	0.1612738
199	0x3ecc9fad	0.39965573
200	0x3e0d95f4	0.13826734
201	0x3da0aa5a	0.07844992
202	0x3e9ee9cd	0.3103775
203	0x3e1dfec3	0.15429215
204	0xbddec5ae	-0.10877548
205	0x3e813103	0.25232705
206	0x3ed4e875	0.415836
207	0xbc4d69b6	-0.0125374105
208	0xbee12f5d	-0.43981448
209	0x3e053609	0.13008894
210	0x3e023af2	0.12717798
211	0xbe864c35	-0.26230016
212	0xbd9d8862	-0.076920286
213	0x3d863499	0.06553001
214	0x3e86820a	0.26271087
215	0x3e3e9d79	0.18614759
216	0x3e84dbda	0.25948983
217	0x3e8730ba	0.26404363
218	0xbdc478a3	-0.09593322
219	0x3d8c5d56	0.0685374
220	0x3d6ab889	0.057304893
221	0x3d814ae3	0.06313112
222	0xbe9aacc4	-0.30209935
223	0x3e66250c	0.2247507
224	0xbeb0e06d	-0.34546223
225	0xbee67052	-0.4500757
226	0x3e9f692f	0.31134936
227	0x3dc1197c	0.09428689
228	0x3e469068	0.19391024
229	0xbdb4a0c0	-0.08819723
230	0xbe13e391	-0.14442278
231	0x3e755ce2	0.23961213
232	0xbd03d3d0	-0.032184422
233	0x3eccfec3	0.40038118
234	0xbf02ad3d	-0.5104559
235	0xbe58a8de	-0.21158168
236	0x3da29cbc	0.07940051
237	0xbc67b1ef	-0.014141544
238	0x3f05c41d	0.5225237
239	0x3e4b8df5	0.19878371
240	0x3f54f49a	0.8318573
241	0xbec9cc6d	-0.39413777
242	0x3e6a563b	0.22884457
243	0x3e14e9ed	0.1454236
244	0xbb30b9b0	-0.0026966147
245	0x3d1fa4b7	0.038975444
246	0x3db0e985	0.0863829
247	0x3e94e0aa	0.29077655
248	0x3e1acfc5	0.1511832
249	0x3ea742b7	0.32668087
250	0xbe9b4b30	-0.303308
251	0x3dddd3fb	0.10831448
252	0x3e30a0b9	0.17248811
253	0x3e82e497	0.25565025
254	0x3d1e0629	0.038580094
255	0x3da20d1f	0.07912659

fc3.bias f4 [4]
0	0x3ee0c773	0.43902168
1	0x3e93ed40	0.28891945
2	0x3e9f5bf5	0.31124845
3	0x3ea2eb40	0.31820107
