p1_navigation/model.pth (torch_old, 54529 bytes, 6 tensors)

fc1.weight f4 [128, 37]
0	0x3ef4d33d	0.47817412
1	0xbf338e6d	-0.701392
2	0xbe8ebc2f	-0.27877948
3	0xbd6f6de4	-0.05845441
4	0xbff9a83d	-1.9504467
5	0xbbed9a86	-0.0072510866
6	0xbca825f6	-0.020525914
7	0xbd307ffc	-0.043090805
8	0x3daeb46d	0.08530507
9	0xbc23a2d7	-0.0099875545
10	0x3da16491	0.0788051
11	0x3dbfc782	0.09364225
12	0x3d9d4186	0.07678513
13	0x3de96bae	0.113974914
14	0x3c548fc2	0.012973728
15	0xbd9e6ee7	-0.07735997
16	0x3c8f16c4	0.01746691
17	0xbd4af0a8	-0.049545914
18	0x3d70eea4	0.058821335
19	0x3e058948	0.1304065
20	0x3d284085	0.041077156
21	0x3d5d51ef	0.054033216
22	0xbc95b043	-0.018272525
23	0x3d7ca549	0.061681066
24	0x3af6d796	0.001883256
25	0xbd85ce64	-0.065335065
26	0xbe00dc19	-0.1258396
27	0xbd854eb5	-0.06509153
28	0xbdde5449	-0.1085592
29	0xbda30a72	-0.07960977
30	0x3d2b42ff	0.04181194
31	0xbbda0333	-0.0066532134
32	0xbc891965	-0.016735742
33	0x3dbc5093	0.09195056
34	0x3df7fe1e	0.12109016
35	0x3cc49d18	0.02400069
36	0x3c15cb59	0.00914272
37	0xbe0ee78b	-0.13955514
38	0xbe836cff	-0.25669095
39	0x3e16957f	0.14705466
40	0x3dd54a65	0.1041458
41	0x3dee6f87	0.11642366
42	0x3dcc5213	0.09976592
43	0xbe86ba12	-0.26313835
44	0x3b499f54	0.0030765133
45	0xbd0c1eed	-0.03420918
46	0xbea77394	-0.32705367
47	0xbe68a001	-0.22717287
48	0x3dde70a3	0.108613275
49	0x3d3f50e8	0.046708018
50	0xbd915173	-0.07095613
51	0x3e8c1962	0.27363116
52	0x3db6ab23	0.089193605
53	0xbea36e5e	-0.3192014
54	0x3c8622e2	0.016374055
55	0xbe7b7d11	-0.24559428
56	0xbea4cb6e	-0.32186455
57	0xbdaddfa9	-0.084899254
58	0xbdb2f47a	-0.087380365
59	0xbe228bb4	-0.15873605
60	0x3e6279e4	0.2211681
61	0x3e64bccb	0.22337644
62	0xbdcb8aad	-0.0993856
63	0x3e2ec0fa	0.17065802
64	0x3dc130ed	0.0943316
65	0x3d1fe4a3	0.039036404
66	0xbcfbc9ca	-0.030735869
67	0x3d1de0a2	0.038544305
68	0xbd99f7bb	-0.07517954
69	0xbe2f6749	-0.17129244
70	0xbcd06803	-0.025440222
71	0x3e09fb35	0.13474734
72	0xbe2196cc	-0.1578018
73	0xbcd39497	-0.02582769
74	0xbdfb2f08	-0.1226483
75	0xbe81082c	-0.25201547
76	0x3e86e434	0.2634598
77	0xbc06ae62	-0.008220287
78	0xbe33b6b7	-0.17550169
79	0xbeffb524	-0.49942887
80	0x3e0b9742	0.13631919
81	0x3e90ed6b	0.28306136
82	0xbec0f9db	-0.37690625
83	0xbfad2321	-1.3526345
84	0xbd93a4c6	-0.072091624
85	0xbe946322	-0.28981882
86	0x3dab4b89	0.083640166
87	0xbe81f313	-0.25380763
88	0xbccec2f6	-0.025239449
89	0x3d2a3fe1	0.041564826
90	0x3db39f43	0.08770611
91	0xbcd3c90e	-0.025852706
92	0xbee8bbf6	-0.45455903
93	0x3d03fa86	0.03222134
94	0xbe23bd66	-0.15990219
95	0xbe36fa4f	-0.17868923
96	0xbd3ba34e	-0.045810036
97	0xbee171a9	-0.44032028
98	0xbe509093	-0.2036765
99	0xbc8f8e36	-0.017523866
100	0xbe1b3d50	-0.15160108
101	0x3de6c497	0.11267965
102	0xbedd67e4	-0.43243325
103	0xbed3f829	-0.4140027
104	0xbe362308	-0.17786801
105	0xbe86337b	-0.2621115
106	0x3a01d1d9	0.0004952229
107	0xbe5d34dd	-0.21602197
108	0xbf094a42	-0.53628933
109	0x3d9c0258	0.076176345
110	0x3dafea39	0.08589596
111	0xbe4488ac	-0.19192761
112	0xbd6e6ed8	-0.058211178
113	0x3e96b5ea	0.29435664
114	0xbe261555	-0.16219075
115	0xbe2bb2fa	-0.16767493
116	0xbca467a6	-0.020068955
117	0xbdacd0e1	-0.08438278
118	0xbd53eff3	-0.051742505
119	0xbe68e4ff	-0.22743605
120	0x3dd83232	0.10556449
121	0xbdf8f9fc	-0.12157056
122	0xbc7b6bf4	-0.015345562
123	0xbe5e6f56	-0.21722159
124	0x3cecda0e	0.02891257
125	0xbea16d0d	-0.31528512
126	0x3d0855c6	0.033284925
127	0xbf2719e8	-0.65273905
128	0x3e6d7794	0.23190147
129	0x3dcc45b5	0.09974233
130	0x3d792381	0.060824875
131	0x3e18e6a3	0.14931731
132	0xbeb1a3a8	-0.34695172
133	0xbe8abdae	-0.2709784
134	0xbd24c45b	-0.04022632
135	0xbe62ed26	-0.22160777
136	0x3e186e55	0.14885838
137	0xbe8109b7	-0.25202724
138	0x3d5ff995	0.05468138
139	0xbea10693	-0.31450328
140	0xbeeb3fab	-0.45947012
141	0x3e0d2faa	0.13787714
142	0xbf04f291	-0.51932627
143	0xbee262da	-0.44216043
144	0xbecde60b	-0.4021457
145	0x3ecc2bd0	0.39877176
146	0xbd43b35d	-0.047778476
147	0xbd90efa7	-0.0707696
148	0x3e2425f7	0.16030107
149	0x3dffc1b5	0.124881186
150	0x3bfede62	0.007777975
151	0x3b928e34	0.0044725183
152	0x3dc5a8ea	0.096513584
153	0x3eafb578	0.34318137
154	0x3e54f359	0.20795955
155	0x3bca3db0	0.0061719045
156	0xbe30b3ec	-0.17256135
157	0xbeb9ed62	-0.3631392
158	0x3e67d500	0.22639847
159	0x3df775ba	0.120830014
160	0x3d472e94	0.048628405
161	0x3dd0ce32	0.10195579
162	0x3bd9b439	0.0066437987
163	0x3deb9060	0.11502147
164	0x3e613a4b	0.21994893
165	0x3e0255e6	0.1272808
166	0x3e148d3c	0.14507002
167	0xbd2d4a2f	-0.042307075
168	0x3c09ce97	0.008411071
169	0x3df4d446	0.119545504
170	0xbd67276e	-0.056434087
171	0xbca9e983	-0.02074123
172	0x3defa057	0.11700504
173	0x3e13e0ce	0.14441225
174	0x3e3824c6	0.17982778
175	0x3e65687b	0.22403137
176	0x3e44f31a	0.19233361
177	0xbcce3b12	-0.025174651
178	0x3ea43999	0.32075194
179	0x3d9a2021	0.07525659
180	0x3c8a8211	0.016907724
181	0x3c2f110e	0.0106852185
182	0xbe0897d4	-0.13339168
183	0x3d3cd0e8	0.046097666
184	0xbb129629	-0.0022367334
185	0xbe010412	-0.12599209
186	0x3ca0c578	0.01962541
187	0xbe13958a	-0.14412513
188	0x3d7db17d	0.061936844
189	0xbe0efda6	-0.13963947
190	0x3e27bdb9	0.16380967
191	0x3d8f9c3f	0.070122235
192	0xbe9079a1	-0.28217795
193	0x3c68e60a	0.014215002
194	0xbe996626	-0.29960746
195	0x3e8c50c0	0.27405357
196	0xbe202541	-0.15639211
197	0x3e2a043d	0.1660318
198	0xbd80d3c2	-0.062903896
199	0xbf1b4473	-0.6065132
200	0xbd0f15d8	-0.03493294
201	0xbd95184f	-0.07280027
202	0x3d8f21ba	0.06988855
203	0x3cb6cb7d	0.022313828
204	0x3d324ef1	0.043532316
205	0xbdabe1cf	-0.08392679
206	0xbe94bef4	-0.29051936
207	0x3de7b8e1	0.1131456
208	0xbd3c32e4	-0.04594697
209	0x3e8c6299	0.27418974
210	0xbd80b7b3	-0.06285038
211	0xbe38d139	-0.18048562
212	0x3da0bb04	0.078481704
213	0xbd84502f	-0.06460606
214	0xbe12737e	-0.1430187
215	0x3e1ed0c6	0.15509328
216	0xbecfdce9	-0.4059823
217	0x3db37667	0.08762818
218	0x3e25a0d4	0.16174632
219	0x3dcff021	0.10153223
220	0xbdbdaac8	-0.092610896
221	0xba05153e	-0.00050767127
222	0xbd1125aa	-0.03543631
223	0xbd70d30d	-0.058795024
224	0xbe8c30f3	-0.27381095
225	0xbe8a9afc	-0.2707137
226	0x3e327f4c	0.17431372
227	0xbdce36bd	-0.10069034
228	0xbc803a7d	-0.01565289
229	0x3e92e48d	0.28689995
230	0xbd3ec96d	-0.046578813
231	0x3bf9061f	0.0075996066
232	0x3d712299	0.058870886
233	0x3d485fb2	0.048919387
234	0xbed41721	-0.41423896
235	0xbd94cc30	-0.07265508
236	0xbf81b6e3	-1.0133938
237	0xbc5831fe	-0.013195513
238	0x3e0b8852	0.13626221
239	0xbe48b25c	-0.19599289
240	0x3e349de3	0.17638354
241	0x3e88e32b	0.26735815
242	0x3e4796e0	0.19491148
243	0xbeb21dbd	-0.34788314
244	0xbe5ab547	-0.21358214
245	0xbe30748c	-0.17231959
246	0xbeaf698b	-0.3426021
247	0xbde95da7	-0.11394816
248	0xbe8d20ba	-0.2756403
249	0x3d87951c	0.06620237
250	0x3e3f4f01	0.18682481
251	0xbe042883	-0.12906079
252	0xbdba86bb	-0.09107729
253	0xbe5e3a8e	-0.21702024
254	0xbdbd5ff2	-0.09246816
255	0x3dfc3a07	0.12315755

fc1.bias f4 [128]
0	0x3d962a2f	0.07332265
1	0xbdb4b61f	-0.08823799
2	0xbda6cbb3	-0.08144321
3	0xbe385aa3	-0.18003325
4	0x3e9f0cfd	0.31064597
5	0x3d5809ba	0.05274365
6	0x3d811cf0	0.063043475
7	0x3da8eff5	0.08248893
8	0xbe31bbc8	-0.17356789
9	0xbdc4984e	-0.09599362
10	0xbe358ed3	-0.17730264
11	0x3e137d18	0.14403188
12	0xbdc01c7a	-0.093804315
13	0xbe41a393	-0.18910055
14	0xbe0454c1	-0.12922956
15	0x3cc58566	0.02411146
16	0xbb6c2140	-0.003603056
17	0xbc9e9d14	-0.01936201
18	0xbe074dd9	-0.1321329
19	0xbd39a28a	-0.045321025
20	0x3d78f8a7	0.06078401
21	0xbe86c6e8	-0.26323628
22	0xbd6f9bd5	-0.058498222
23	0x3d5a8f17	0.053359117
24	0xbc9a0a4c	-0.018803738
25	0xbd688f89	-0.05677751
26	0xbd8b5f7c	-0.068053216
27	0xbd7512e4	-0.05983247
28	0x3a408568	0.0007344098
29	0x3a41a0d2	0.000738633
30	0xbb0e67c5	-0.0021729332
31	0xbda166dd	-0.07880948
32	0xbdc5200d	-0.09625254
33	0x3e05d985	0.13071258
34	0xbe26a03b	-0.1627206
35	0x3d91b7d2	0.07115139
36	0x3cee94e0	0.029123724
37	0x3ae43fb5	0.0017414006
38	0x3db42979	0.08796973
39	0xbbd09f47	-0.0063666436
40	0xbc3e14e1	-0.011601658
41	0x3dc21f14	0.09478584
42	0xbe46e959	-0.19424953
43	0xbd7fffc1	-0.062499765
44	0xbe4416a8	-0.19149268
45	0x3d88065a	0.066418365
46	0x3ddda48e	0.10822402
47	0xbd83640f	-0.06415569
48	0x3d097f6c	0.033568785
49	0x3dd81d40	0.10552454
50	0x3e40bdd8	0.1882242
51	0x3e29d27d	0.16584201
52	0x3e181b95	0.14854272
53	0xbdd1070c	-0.10206422
54	0x3e02054c	0.12697333
55	0xbd9e6fcc	-0.07736167
56	0xbe3618f9	-0.17782964
57	0xbc9e0400	-0.019289017
58	0xbd4ffc5b	-0.050777774
59	0x3e0a6df0	0.135185
60	0x3dfbfff5	0.12304679
61	0xbd7c57cc	-0.061607167
62	0x3e023022	0.12713674
63	0xbd757d32	-0.05993385
64	0xbd5b52cc	-0.053545758
65	0x3cbe66a0	0.023242295
66	0xbd5c8f8e	-0.053847842
67	0x3d68c05b	0.05682407
68	0xbdd43d0c	-0.10363206
69	0xbe3bc30e	-0.18336126
70	0xbe1a788a	-0.15085045
71	0xb9886c32	-0.00026020553
72	0xbdb34c75	-0.087548174
73	0xbd7d5fa2	-0.06185878
74	0x3dcd7a7e	0.10033129
75	0x3d5c1bd8	0.05373749
76	0xbe1fd725	-0.15609415
77	0xbce9a22b	-0.02851971
78	0xbe166f1f	-0.14690827
79	0xbe1804ff	-0.14845656
80	0x3e1c9af0	0.15293479
81	0x3e98cc4e	0.29843372
82	0xbe8586bc	-0.26079357
83	0xbdf71fee	-0.12066637
84	0x3da8489e	0.08216976
85	0xbde34564	-0.110972196
86	0xbd1553cc	-0.036456868
87	0xbd5127b6	-0.051063262
88	0xbdb194f6	-0.0867099
89	0x3d2749e2	0.040841945
90	0x3d7632a3	0.060106885
91	0x3d4fd1ff	0.050737377
92	0xbc24dcda	-0.010062421
93	0xbd2a6f32	-0.04160995
94	0xbd02dd46	-0.031949304
95	0x3d4bd24c	0.0497611
96	0xbdf5609e	-0.11981319
97	0x3d5fd661	0.054647807
98	0xbe16e875	-0.14737113
99	0xbc474c64	-0.012164209
100	0xbd973674	-0.07383433
101	0xbd763647	-0.060110357
102	0xbe5f58ed	-0.21811266
103	0x3e1f3f68	0.15551531
104	0x3d866e53	0.065640114
105	0x3d0d35bc	0.034475073
106	0xbe4191ec	-0.18903321
107	0x3d91deac	0.071225494
108	0xbd881028	-0.066437066
109	0x3dfaa784	0.12238982
110	0xbd75b5b4	-0.05998774
111	0x3dc22904	0.09480479
112	0x3d291e95	0.04128893
113	0xbdfb8758	-0.12281674
114	0xbd4b5dd7	-0.04965004
115	0x3d66581d	0.056236375
116	0x3d2ee771	0.04270119
117	0x3d9917a7	0.074752145
118	0xbe10f182	-0.14154628
119	0xbdd3af6f	-0.10336196
120	0xbe07cf52	-0.1326268
121	0x3e8d3947	0.27582762
122	0xbdd02de5	-0.10165004
123	0xbe10d09c	-0.14142078
124	0xbc9cadb2	-0.019125793
125	0xbd9ab6d2	-0.075544015
126	0x3d78f14d	0.060776997
127	0xbe116f05	-0.14202507

fc2.weight f4 [64, 128]
0	0xbed3f83b	-0.41400322
1	0xbde4af40	-0.11166239
2	0x3e15d647	0.14632522
3	0xbb855b37	-0.0040697115
4	0x3cee833f	0.029115317
5	0x3da10037	0.07861369
6	0x3d3faff1	0.04679865
7	0x3d68482c	0.056709453
8	0x3d09d468	0.033649832
9	0x3d80dc8e	0.062920675
10	0x3ca4522b	0.020058712
11	0x3d5268e0	0.051369548
12	0x3d7aeab0	0.06125897
13	0x3e9485bc	0.2900828
14	0xbdca0e1b	-0.09865972
15	0xbd71a402	-0.0589943
16	0x3d908262	0.070561185
17	0x3c91c807	0.017795576
18	0xbb9238ee	-0.004462353
19	0x3d365802	0.044517525
20	0x3d5d87c6	0.05408456
21	0xbddc6879	-0.10762114
22	0xbdb2b86c	-0.08726582
23	0x3df23294	0.11826053
24	0x3c9d9d68	0.019240096
25	0xbe1bf12e	-0.15228721
26	0xbd6bd29d	-0.057573903
27	0xbe050768	-0.12991107
28	0xbd0de46d	-0.034641672
29	0xbca6ba8c	-0.020352624
30	0x3d008f45	0.031386632
31	0x3df0a453	0.11750092
32	0xbdded2a2	-0.10880019
33	0xbe003c10	-0.12522912
34	0xbdff60a3	-0.12469604
35	0xbe34e8c6	-0.17666921
36	0x3d583c71	0.052792016
37	0xbde12a87	-0.109944396
38	0xbd324bcc	-0.043529317
39	0xbdfa4573	-0.12220278
40	0xbd8f6a9b	-0.07002755
41	0x3d6a6bd6	0.057231747
42	0xbd8dd56b	-0.06925472
43	0xbdd65b0f	-0.10466587
44	0x3e0930f5	0.13397582
45	0x3dee071d	0.116224505
46	0xbe06593f	-0.13119982
47	0xbde65ef2	-0.11248578
48	0xbd0f2d57	-0.03495535
49	0x3e1c926d	0.15290232
50	0xbdc7e30e	-0.09760104
51	0xbe4475e4	-0.19185597
52	0x3d21d69d	0.03951131
53	0xbda814de	-0.08207105
54	0x3e77bcd1	0.24193121
55	0x3d70eb9a	0.058818437
56	0xbd797e12	-0.060911246
57	0xbd8e0dc8	-0.06936222
58	0x3d22f0cf	0.039780434
59	0x3d8ae970	0.06782806
60	0x3e05063e	0.12990662
61	0x3d9ddfc2	0.07708694
62	0xb9fb0892	-0.00047880836
63	0xbdcc8116	-0.09985559
64	0x3d90a4d7	0.07062691
65	0x3e02a2dd	0.1275744
66	0xbe3a6465	-0.1820236
67	0xbdc83567	-0.09775811
68	0x3e4cfc88	0.20018208
69	0x3d00ed5a	0.031476356
70	0xbe0b27c9	-0.13589396
71	0xbddc9589	-0.10770709
72	0xbdfe18fd	-0.1240711
73	0x3cc2c86e	0.023777213
74	0x3db2b6ba	0.087262586
75	0xbd10a5ae	-0.035314254
76	0x3ddd8c5e	0.108177885
77	0xbd8bc9eb	-0.06825622
78	0x3d566233	0.052339744
79	0x3e4e11f9	0.20124044
80	0xbe29e732	-0.165921
81	0xbe33ff36	-0.17577824
82	0xbcf28131	-0.029602619
83	0xbdc4fa7c	-0.096180886
84	0x3e2319a6	0.15927753
85	0xbe069f0c	-0.13146609
86	0xbd4f139c	-0.05055581
87	0x3e26492a	0.16238847
88	0xbd243303	-0.04008771
89	0xbda2c974	-0.079485804
90	0xbd324ec2	-0.04353214
91	0xbc0bbcaf	-0.008528872
92	0x3cf8b17a	0.030358065
93	0xbe22b374	-0.15888768
94	0xbd9c188e	-0.07621871
95	0xbe2cd5a5	-0.16878374
96	0xbd173e51	-0.036924664
97	0x3d904638	0.07044643
98	0x3dea68e1	0.11445785
99	0xbe592e29	-0.21209015
100	0x3dfc5630	0.123211265
101	0xbe17ea6a	-0.14835516
102	0x3e26aeb7	0.16277586
103	0xbe25da68	-0.16196597
104	0xbcd7ffa3	-0.026367014
105	0xbe519991	-0.20468737
106	0x3d6d034f	0.057864483
107	0xbc537b63	-0.012907836
108	0xbdaf299f	-0.085528605
109	0x3c304ecd	0.010760975
110	0xbe420b0a	-0.18949524
111	0x3daa98eb	0.08329948
112	0xbd2a6af2	-0.041605897
113	0xbe3d7cf6	-0.185047
114	0xbc5b2889	-0.013376364
115	0xbd5f94fe	-0.05458545
116	0xbd5025b5	-0.05081721
117	0x3d85ec9d	0.06539271
118	0xbe110817	-0.14163242
119	0x3c438888	0.011934407
120	0xbcd58262	-0.026063148
121	0xbd874e25	-0.06606702
122	0xbe951797	-0.2911956
123	0x3dc4333d	0.095800854
124	0x3d02e57c	0.031957135
125	0x3e1a27d7	0.1505426
126	0x3df27513	0.118387364
127	0xbd2b2be5	-0.041789908
128	0x3d8fb348	0.07016617
129	0xbe8df876	-0.27728623
130	0x3de2beed	0.110715725
131	0xbc1f9cfd	-0.009742019
132	0xbe884e85	-0.26622406
133	0xbd4626e5	-0.048376936
134	0xbe540d42	-0.20708182
135	0xbd936b3c	-0.07198188
136	0xbe358c9f	-0.17729424
137	0x3db67102	0.08908273
138	0xbdd56cb6	-0.104211256
139	0xbd448b93	-0.04798467
140	0x3d06ad13	0.0328799
141	0xbed5d67f	-0.4176521
142	0xbda53bb6	-0.080680296
143	0xbde55ead	-0.111996986
144	0x3e17f547	0.1483966
145	0x3e3b21b3	0.18274574
146	0xbe81ea6a	-0.25374156
147	0x3e020170	0.12695861
148	0xbe9380f6	-0.28809327
149	0xbdb10d49	-0.08645112
150	0xbf04f7b5	-0.5194047
151	0xbe0e8e6b	-0.13921516
152	0xbdbb4d77	-0.091456346
153	0x3cafe0fa	0.021469582
154	0xbdc1b47d	-0.094582535
155	0x3deede6e	0.11663519
156	0x3d62e4b6	0.055393897
157	0xbda14c82	-0.07875921
158	0xbdca1d12	-0.09868826
159	0x3d98d299	0.07462043
160	0xbec30fb4	-0.38097918
161	0x3d5f2114	0.054474905
162	0x3dc1c64c	0.0946165
163	0x3dae8125	0.08520726
164	0xbdbba9fa	-0.0916328
165	0xbf0083b4	-0.50200963
166	0x3e0ba3ae	0.13636658
167	0x3cd935d7	0.02651493
168	0xbecc7c3e	-0.3993854
169	0x3eb74f32	0.3580261
170	0xbd86f984	-0.0659056
171	0xbe093bb0	-0.13401675
172	0xbd4fe634	-0.05075665
173	0xbe34388c	-0.17599696
174	0xbebb1b68	-0.36544347
175	0xbe9c70f9	-0.3055494
176	0x3e095896	0.13412699
177	0x3e36e129	0.1785933
178	0x3e544bf6	0.20732102
179	0xbd8a1fed	-0.067443706
180	0xbde84c56	-0.11342685
181	0xbdef7c4b	-0.11693629
182	0xbdf4cfa1	-0.119536646
183	0xbca51b45	-0.020154605
184	0xbc9aa21a	-0.018876124
185	0xbcb0ddbb	-0.021590104
186	0xbdc72130	-0.09723127
187	0x3d44f3d5	0.0480841
188	0xbe9e6d4e	-0.30942768
189	0x3dfb67a2	0.12275626
190	0x3cc182e3	0.023621982
191	0x3e9646cd	0.29350892
192	0x3d363e72	0.044493146
193	0xbe1e9a82	-0.15488628
194	0xbe042fed	-0.12908907
195	0xbcf13fb0	-0.029449314
196	0x3dee90d1	0.11648715
197	0x3ddbd927	0.10734778
198	0xbe092fe8	-0.13397181
199	0xbd1d58a3	-0.03841461
200	0x3e4cba0b	0.19992845
201	0xbe8b048a	-0.271519
202	0x3ea21fed	0.31664982
203	0xbd4e95f5	-0.05043598
204	0x3d9172b7	0.07101958
205	0x3cc453dc	0.023965769
206	0x3e1085cd	0.14113541
207	0xbe613edc	-0.21996635
208	0xbd89ef67	-0.067351155
209	0xbe2f0c75	-0.17094596
210	0xbd8b3c3f	-0.067986004
211	0xbe5f897b	-0.21829788
212	0xbe5b1490	-0.21394563
213	0x3e740d83	0.2383328
214	0xbe8c0d22	-0.2735377
215	0xbe12e688	-0.14345753
216	0xbe18a7b5	-0.14907725
217	0xbe8b1916	-0.27167577
218	0xbe99f410	-0.30069017
219	0xbde93ca5	-0.1138852
220	0x3e499566	0.19685897
221	0xbdc5ba61	-0.096546896
222	0xbd87cf9f	-0.066313975
223	0xbda498b4	-0.08036938
224	0x3e56ecb7	0.20988737
225	0xbe270c6e	-0.16313335
226	0xbdd895db	-0.10575458
227	0xbe553fea	-0.20825163
228	0xbde1ec22	-0.11031367
229	0x3e24e40e	0.16102621
230	0xbec4857f	-0.383831
231	0xbda635ef	-0.08115756
232	0xbd9671e3	-0.07345941
233	0x3dc123c6	0.09430651
234	0xbdd446a7	-0.10365038
235	0xbdc5e154	-0.096621186
236	0xbe4c8661	-0.19973136
237	0xbe2d9690	-0.16951966
238	0x3eab40e6	0.3344795
239	0xbe4a841e	-0.19776961
240	0x3e33e79b	0.17568819
241	0xbedcb487	-0.4310648
242	0xbec3b0b9	-0.38220766
243	0x3ce2ab44	0.027669556
244	0xbe187566	-0.14888534
245	0xbe1fbfae	-0.15600464
246	0xbeec0e7d	-0.46104804
247	0xbed16e41	-0.4090443
248	0xbe686c11	-0.22697474
249	0x3b7287ed	0.0037007288
250	0x3ea43405	0.32070938
251	0x3d37b6fb	0.04485224
252	0x3e51cdf1	0.20488717
253	0xbcffa002	-0.031204227
254	0xbda67715	-0.08128182
255	0xbf00b4bb	-0.5027577

fc2.bias f4 [64]
0	0xbdb3b790	-0.08775246
1	0xbd61cf1e	-0.055129163
2	0x3e3bf0cc	0.18353575
3	0x3daba8e2	0.08381821
4	0x3d932c36	0.07186167
5	0xbd800437	-0.06250804
6	0x3f05a3e4	0.522032
7	0xbd270a16	-0.040781103
8	0x3e0b4c64	0.1360336
9	0x3d5916a1	0.053000096
10	0xbd89e891	-0.06733812
11	0x3e490233	0.19629745
12	0xbc09d369	-0.0084122205
13	0x3c1817f1	0.009283052
14	0x3d8cb40f	0.06870281
15	0x3da22114	0.079164654
16	0x3cfcf809	0.030879991
17	0xbd8a2067	-0.067444615
18	0x3e7abe17	0.24486576
19	0xbda0ad0a	-0.078455046
20	0xbc8c3368	-0.017114356
21	0x3ee14a97	0.4400222
22	0x3e0264f1	0.12733819
23	0x3bd81e46	0.0065954057
24	0x3d0f209d	0.03494321
25	0x3c19d2b8	0.009388618
26	0xbdf9a513	-0.121896885
27	0xbda5ed00	-0.08101845
28	0xbd4ece1c	-0.05048953
29	0x3dd9c65d	0.10633538
30	0xbca5fb73	-0.020261502
31	0x3f0756cf	0.52866834
32	0xbdbf70d7	-0.09347694
33	0x3d27b151	0.040940586
34	0x3df35cbc	0.11882922
35	0x3e2ed9ca	0.17075267
36	0x3c861f15	0.016372243
37	0xbe2b8547	-0.1675006
38	0x3d45b0c7	0.04826429
39	0x3d6f5d37	0.058438506
40	0xbdd4baf2	-0.103872195
41	0x3d6dce45	0.058058042
42	0xbc76b7dd	-0.015058485
43	0xbba7f146	-0.0051251976
44	0x3cdbfda6	0.026854347
45	0xbcf4bc4d	-0.029874945
46	0x3c6bb286	0.014385825
47	0x3ef8567c	0.48503482
48	0xbd5481c5	-0.05188157
49	0xbc7b43f8	-0.015336029
50	0x3e4ac3e7	0.19801293
51	0x3bfcb78b	0.0077123097
52	0xbdb2ded1	-0.08733905
53	0x3ddae38d	0.10687933
54	0x3d8176fd	0.06321523
55	0x3d536475	0.051609475
56	0x3e4ae3e6	0.19813499
57	0x3defc269	0.11707003
58	0x3da374d3	0.07981267
59	0xbe01ffc9	-0.1269523
60	0x3e260cf8	0.16215885
61	0xbd120539	-0.035649512
62	0x3c892098	0.016739175
63	0x3e760a6a	0.2402741

fc3.weight f4 [4, 64]
0	0x3b5edbf2	0.003400561
1	0xbf06279c	-0.5240419
2	0x3dd2bd1d	0.10289977
3	0x3d938d7b	0.0720472
4	0x3dc76399	0.097357936
5	0x3f1733e0	0.5906353
6	0x3e4b2060	0.19836569
7	0x3d2d9dcd	0.04238682
8	0x3c0d7ed8	0.008636199
9	0xbdb56c21	-0.088585146
10	0xbec42aa7	-0.3831379
11	0x3d6c750c	0.057728812
12	0xbe8893de	-0.26675314
13	0x3db06afd	0.086141564
14	0x3e794c8d	0.24345608
15	0x3e88e2d9	0.2673557
16	0xbbd88ced	-0.0066085965
17	0xbe1af01b	-0.15130655
18	0x3e08f52d	0.13374777
19	0xbe20f81e	-0.15719649
20	0x3e7ea089	0.24865927
21	0x3e32f874	0.1747759
22	0x3e0b7a67	0.13620912
23	0xbab49f31	-0.0013780353
24	0x3da48c9a	0.0803463
25	0x3eb29163	0.34876546
26	0xbe1b258f	-0.15151046
27	0xbe0c534a	-0.13703647
28	0x3dad96d3	0.08476033
29	0x3dd2006d	0.102539875
30	0x3cea9110	0.028633624
31	0x3e6fd8aa	0.23422495
32	0xbe8027e1	-0.25030425
33	0x3d461bbb	0.04836629
34	0x3eb36799	0.35039976
35	0x3d971a8f	0.073781125
36	0x3e290141	0.16504385
37	0xbe5ac3bc	-0.21363729
38	0x3c3a73d5	0.011380156
39	0x3d80dd6f	0.06292235
40	0x3e4e31e0	0.20136213
41	0x3e11479c	0.14187473
42	0xbec95ae9	-0.3932717
43	0xbf005fc0	-0.501461
44	0x3ebb5bb7	0.3659341
45	0xbbff148c	-0.007784432
46	0x3c95a70e	0.018268134
47	0x3e081482	0.13289073
48	0x3e264a21	0.16239215
49	0xbf08a7d4	-0.53381085
50	0x3de16a07	0.11006551
51	0x3e961045	0.29309288
52	0xbe535cdb	-0.2064089
53	0x3d1fb92f	0.038994964
54	0x3e79a27a	0.24378386
55	0x3d5765dc	0.052587375
56	0x3d8fa41a	0.07013722
57	0x3e5b1e82	0.21398357
58	0x3e12ff04	0.14355093
59	0xbe0f07f7	-0.13967882
60	0x3d7b0ec8	0.061293393
61	0xbe25d1f6	-0.16193375
62	0xbbb107fd	-0.0054025636
63	0x3dad7f78	0.08471578
64	0x3dc2b532	0.095072165
65	0x3e657219	0.22406806
66	0x3e33a127	0.17541943
67	0x3d7d2439	0.061802123
68	0x3e6a2686	0.22866258
69	0x3f2aa17a	0.66652644
70	0x3e662362	0.22474435
71	0x3e127a10	0.14304376
72	0x3d9ac524	0.07557133
73	0xbc88a30d	-0.016679311
74	0xbeacf0bd	-0.3377742
75	0x3d9582ba	0.07300325
76	0xbd8392f2	-0.06424512
77	0x3e0adab5	0.13559993
78	0x3e451019	0.19244422
79	0x3e832de8	0.2562096
80	0xbdc528ed	-0.096269466
81	0xbd948710	-0.07252324
82	0x3dec892a	0.115495995
83	0xbe0e4c4e	-0.13896295
84	0x3e73e507	0.23817836
85	0x3e26eff9	0.1630248
86	0x3dbc4a6d	0.09193883
87	0x3dc1aa22	0.094562784
88	0x3e29049b	0.16505663
89	0x3ebd4311	0.3696523
90	0xbddec668	-0.10877687
91	0xbe2ae49f	-0.16688775
92	0xbe2e1283	-0.16999249
93	0x3deab119	0.1145956
94	0x3de91b75	0.1138219
95	0x3e25e479	0.16200437
96	0xbe431023	-0.19049124
97	0xbde3ca82	-0.1112261
98	0x3eab92b8	0.33510375
99	0x3db55bcd	0.088554
100	0x3e7a1f01	0.2442589
101	0xbde96e7b	-0.113980256
102	0xbe336a70	-0.17521071
103	0x3d8537a3	0.065047525
104	0x3e879875	0.26483503
105	0x3e58e3e9	0.21180691
106	0xbdcdaff7	-0.10043328
107	0xbddfd819	-0.10929889
108	0x3ea2311b	0.3167809
109	0xbd37a5a1	-0.04483569
110	0x3e4d18d8	0.20029008
111	0x3e47fb69	0.19529499
112	0x3ebd7304	0.37001812
113	0xbdd2cea5	-0.102933206
114	0x3dec511b	0.11538907
115	0x3e9a1e16	0.3010108
116	0xbe42dfb0	-0.19030643
117	0x3d82b7d4	0.06382719
118	0x3ea99f73	0.33129463
119	0x3d8fe5da	0.070262626
120	0x3da0f1ee	0.078586444
121	0x3dccd957	0.10002392
122	0x3d0d9c50	0.0345729
123	0xbdb85f49	-0.09002549
124	0x3d4bcf8d	0.049758483
125	0xbe02bc39	-0.12767114
126	0x3d27db27	0.040980484
127	0x3dea1a21	0.11430765
128	0x3db2bba3	0.08727195
129	0xbe496a83	-0.19669537
130	0x3e727b99	0.23679961
131	0x3d4df32e	0.050280742
132	0x3f15b027	0.5847191
133	0x3e0242ac	0.12720746
134	0x3e0374c1	0.12837507
135	0xbe92aa55	-0.28645578
136	0x3e0e18f0	0.138767
137	0x3dba0109	0.09082229
138	0xbd9956da	-0.07487269
139	0x3ddc8787	0.10768037
140	0x3dac4f79	0.08413596
141	0x3eb3ba4d	0.35103074
142	0x3ef32c09	0.47494534
143	0xbdb31ba0	-0.087455034
144	0xbee9aeee	-0.45641273
145	0xbe78495a	-0.24246731
146	0x3e053006	0.130066
147	0xbe8448c5	-0.2583677
148	0x3e27f17f	0.16400717
149	0x3e524d89	0.2053739
150	0x3e6833dd	0.22676034
151	0xbc104741	-0.008806051
152	0x3ee00d68	0.43760228
153	0x3e6981bf	0.228034
154	0xbea49539	-0.32145098
155	0x3ce3404a	0.027740616
156	0xbec88e80	-0.3917122
157	0x3e132721	0.14370395
158	0x3e9ce0cf	0.30640265
159	0x3e7154c7	0.23567496
160	0xbdb1dca8	-0.08684665
161	0x3c24b903	0.010053876
162	0x3f0dc1a3	0.5537359
163	0x3e25c2e6	0.16187629
164	0x3e9acb62	0.30233294
165	0xbde4a96f	-0.111651294
166	0xbefa4620	-0.48881626
167	0x3deb27bf	0.1148219
168	0xbe1ec48e	-0.15504667
169	0x3c9cf6d9	0.019160675
170	0xbf103698	-0.56333303
171	0x3d4ff2a7	0.05076852
172	0x3e57c64a	0.21071735
173	0xbaf606c3	-0.0018770326
174	0xbe23ebf3	-0.16007976
175	0x3de50cc2	0.11184074
176	0xbe559923	-0.20859198
177	0xbe9242a6	-0.28566474
178	0x3dc92133	0.098207854
179	0x3e36e195	0.1785949
180	0xbeab2fd6	-0.33434933
181	0x3cd90e22	0.026495997
182	0x3ec0721f	0.37587067
183	0x3e53db6e	0.20689175
184	0x3d6e20a7	0.05813661
185	0x3de9d660	0.11417842
186	0xbf565ff8	-0.83740187
187	0xbe53fe53	-0.20702486
188	0x3e429def	0.1900556
189	0xbe92a4fa	-0.28641492
190	0x3e556b81	0.2084179
191	0x3dcd9878	0.10038847
192	0xbe3fa260	-0.18714285
193	0x3e0b444f	0.13600276
194	0x3d532039	0.0515444
195	0x3e81e6bb	0.25371346
196	0xbdbab65a	-0.09116812
197	0x3f140220	0.5781574
198	0x3e27c39c	0.16383213
199	0x3ed7e606	0.4216768
200	0x3e0fa950	0.14029431
201	0x3da0aa5a	0.07844992
202	0x3e982ab4	0.2972008
203	0x3e1154a5	0.14192446
204	0xbdb9d798	-0.09074324
205	0x3e7379a5	0.23776872
206	0x3eddc3b3	0.4331337
207	0xbc83e517	-0.01610045
208	0xbee11f18	-0.43969035
209	0x3e007838	0.1254586
210	0x3e0031e0	0.12519026
211	0xbe8856e8	-0.26628804
212	0xbdb90eb5	-0.09036008
213	0x3d8c1c20	0.06841302
214	0x3e85eae7	0.2615578
215	0x3e40235a	0.18763486
216	0x3e739f9f	0.2379136
217	0x3e7bba21	0.24582721
218	0xbdcfb5ac	-0.10142073
219	0x3da34a9a	0.079732135
220	0x3d957599	0.072978206
221	0x3d909b93	0.070609234
222	0xbea24378	-0.316921
223	0x3e6860da	0.22693196
224	0xbeb4156c	-0.35172594
225	0xbeec368a	-0.4613536
226	0x3eafbe5b	0.34324917
227	0x3dc06f7f	0.09396266
228	0x3e4b389a	0.1984581
229	0xbd9dc355	-0.07703272
230	0xbe1b179f	-0.1514573
231	0x3e6ddcd0	0.23228765
232	0xbd6dc97e	-0.058053486
233	0x3ecbef00	0.3983078
234	0xbefe7307	-0.49697134
235	0xbe64a375	-0.22327979
236	0x3d9ecc6f	0.07753836
237	0xbc67b1ef	-0.014141544
238	0x3f08eeac	0.53489184
239	0x3e4e0778	0.20120037
240	0x3f63a78b	0.88927525
241	0xbed4097b	-0.41413483
242	0x3e75a27e	0.23987767
243	0x3e13ce39	0.14434136
244	0x3c12dc4e	0.008963658
245	0x3d570821	0.052497987
246	0x3d9b89d4	0.07594648
247	0x3ea476b4	0.32121813
248	0x3e19e8cb	0.1503021
249	0x3ead50ba	0.33850652
250	0xbeb30253	-0.3496271
251	0x3de87e5a	0.11352225
252	0x3e326129	0.17419876
253	0x3e9420aa	0.2893117
254	0x3d44f43c	0.048084483
255	0x3da412a4	0.08011368

fc3.bias f4 [4]
0	0x3ee50b13	0.4473501
1	0x3e9738ba	0.29535466
2	0x3ea1e187	0.31617376
3	0x3ea663f3	0.3249813
