p2_continuous-control/weights/checkpoint_actor.pth (torch_old, 86529 bytes, 6 tensors)

fc1.weight f4 [128, 33]
0	0x3cffb49c	0.031214051
1	0xbe82ef12	-0.2557302
2	0xbd092e49	-0.033491407
3	0xbc9e31e1	-0.019310893
4	0x3e13d512	0.14436749
5	0xbe6bf5cd	-0.23042984
6	0x3e22da21	0.15903522
7	0x3dde86d9	0.10865564
8	0xbe7b127e	-0.24518773
9	0xbe20366c	-0.1564576
10	0xbd30c291	-0.043154303
11	0xbe75c6f1	-0.24001671
12	0xbdd94afd	-0.10610006
13	0xbc31fb62	-0.010863157
14	0x3f184ba0	0.59490395
15	0x3ed86918	0.4226768
16	0x3e625fd4	0.22106868
17	0x3e5a0b9e	0.21293494
18	0x3dbaa941	0.09114314
19	0x3e7b0532	0.245137
20	0xbe8bf5be	-0.27335924
21	0x3c2cfbc9	0.010558077
22	0x3db1ac18	0.086754024
23	0xbe8ecc86	-0.27890414
24	0x3e999ac4	0.3000089
25	0xbcfb9bf7	-0.030714018
26	0xbef4db76	-0.47823685
27	0x3e9be3f5	0.30447355
28	0xbec6c45a	-0.3882168
29	0xbc41e9d8	-0.011835538
30	0xbe60f763	-0.2196937
31	0xbd602b2c	-0.054728672
32	0x3d845bb6	0.06462805
33	0x3f5250cd	0.8215454
34	0x3e2a40d0	0.16626287
35	0xbf18259a	-0.59432375
36	0xbe6c8112	-0.23096111
37	0x3e2b58d2	0.16733101
38	0x3d8aa164	0.06769064
39	0xbe84de1f	-0.25950715
40	0xbd3e59e8	-0.04647246
41	0x3d9c2f19	0.07626171
42	0x3eb3a6b4	0.35088122
43	0x3dded608	0.10880667
44	0x3e854df4	0.26036036
45	0xbd9e8336	-0.0773987
46	0xbda7738d	-0.081763364
47	0x3da64ef9	0.081205316
48	0x3ded2b7f	0.11580562
49	0x3d0aa6fc	0.033850655
50	0x3e7e7c84	0.24852186
51	0x3e695d06	0.22789392
52	0xbc7ec747	-0.015550441
53	0x3e4e2101	0.20129777
54	0xbe831beb	-0.25607237
55	0x3ec8bbf7	0.39205906
56	0x3e9f3e5b	0.3110226
57	0x3d8a871c	0.06764051
58	0xbf183a51	-0.59463984
59	0xbebed1b2	-0.3726936
60	0x3f0fe9e0	0.5621624
61	0xbe885812	-0.26629692
62	0xbd7714d2	-0.06032259
63	0xbf0d7d74	-0.5526955
64	0xbd0d47d9	-0.034492347
65	0x3fbfa91d	1.4973484
66	0xbf510c86	-0.81659734
67	0x3e806803	0.25079355
68	0xbc2f8074	-0.010711778
69	0xbd062ac3	-0.032755625
70	0x3ea1c625	0.31596485
71	0x3c8f6355	0.01750342
72	0x3d7d7547	0.061879423
73	0x3b7ee9c6	0.0038896664
74	0xbe850b9e	-0.25985426
75	0xbe3dac38	-0.18522727
76	0xbd2f2a64	-0.042765036
77	0xbdcba0b9	-0.09942765
78	0xbccacdb2	-0.024756286
79	0x3f55080c	0.83215404
80	0x3df42fc0	0.1192317
81	0x3c4c4a42	0.012468876
82	0x3da8b563	0.08237722
83	0x3d9643ba	0.073371366
84	0x3e3edacb	0.1863815
85	0xbe1f1441	-0.1553507
86	0x3dc8e51f	0.098093264
87	0xbd89dea4	-0.067319185
88	0xbd2e3b1a	-0.042536832
89	0x3e9aa41e	0.30203336
90	0x3e12b53b	0.14326946
91	0xbe7cce47	-0.24688064
92	0xbee6bb68	-0.45064855
93	0x3ec21363	0.37905416
94	0xbe4a22a4	-0.19739777
95	0xbd7e9f5e	-0.062163703
96	0xbebe645d	-0.37185946
97	0x3daae35f	0.08344149
98	0x40852ae9	4.161488
99	0xbd2a9d97	-0.041654196
100	0xbe5a0e6b	-0.21294563
101	0x3ec66ee1	0.3875647
102	0x3ccc07c8	0.024906054
103	0xbeb99f20	-0.36254215
104	0xbe7cc8f4	-0.24686033
105	0x3dc6f33d	0.09714363
106	0x3e081c1b	0.13291971
107	0x3eccf65f	0.40031716
108	0x3d89db3d	0.067312695
109	0xbd7dcb4e	-0.061961465
110	0x3e1f67e2	0.15566972
111	0xbe22dd8d	-0.15904827
112	0xbcc71a02	-0.024304394
113	0x3ea1fe20	0.31639194
114	0xbf3e9d84	-0.744591
115	0x3d59a952	0.053139992
116	0x3d050851	0.032478634
117	0xbf3c3f6e	-0.73534286
118	0xbe80040d	-0.2500309
119	0xbd7075a2	-0.058705933
120	0x3dc0845b	0.09400245
121	0xbda7cd35	-0.08193437
122	0x3df7dd84	0.121027976
123	0xbe0af161	-0.13568641
124	0xbeb73dc0	-0.357893
125	0x3ece0fff	0.4024658
126	0x3dadabef	0.08480059
127	0x3ede7e5c	0.4345578
128	0xbc23f8b0	-0.010008022
129	0xbc976873	-0.018482422
130	0x3b167500	0.002295792
131	0xc0313948	-2.7691212
132	0xbe3cd645	-0.18441112
133	0x3dc4dc61	0.096123464
134	0x3ec47510	0.38370562
135	0xbd09b715	-0.033621866
136	0xbee28795	-0.44244066
137	0x3e1498c8	0.14511406
138	0xbc0d88d4	-0.008638579
139	0x3e96da43	0.29463395
140	0xbe3f97a4	-0.1871019
141	0x3dc97f52	0.098387375
142	0xbc2287fc	-0.0099201165
143	0x3d6d81f9	0.05798528
144	0xbd885755	-0.06657282
145	0xbd38d461	-0.045124415
146	0x3e53e4b1	0.20692708
147	0xbf0552a8	-0.5207925
148	0xbf00640e	-0.5015267
149	0xbd1a02fa	-0.037600495
150	0xbe0a8aa6	-0.13529453
151	0xbe0c41c4	-0.13696963
152	0xbe736a71	-0.23771073
153	0x3e993c45	0.29928795
154	0x3dff15d7	0.124553375
155	0x3e0ff8fd	0.14059825
156	0x3d6104e8	0.05493632
157	0xbe4e5a3d	-0.2015161
158	0x3ec28983	0.37995538
159	0x3ecbff56	0.39843243
160	0x3ece6dbb	0.40318093
161	0x3d93a86b	0.072098576
162	0xbe8ee8ec	-0.2791208
163	0xbb214e60	-0.0024613366
164	0xc085ba0c	-4.178961
165	0x3c1545a6	0.009110844
166	0xbee0849c	-0.43851173
167	0xbf84b00b	-1.0366224
168	0xbc9926c4	-0.018695243
169	0xbed29821	-0.4113169
170	0x3e9721a2	0.29517847
171	0xbeb89f03	-0.36058816
172	0x3d8266d8	0.06367272
173	0x3f10dc6d	0.56586343
174	0xbe896787	-0.26836798
175	0xbe8dfe7b	-0.27733216
176	0xbe9497f2	-0.29022175
177	0xbe67a2c3	-0.22620682
178	0x3e895f51	0.26830533
179	0x3e7e7b90	0.24851823
180	0x3f1063c5	0.56402236
181	0x3c04d943	0.00810844
182	0x3cb9dc36	0.022688013
183	0xbc899c6f	-0.016798226
184	0xbcb54a2e	-0.022130098
185	0xbe3e9e19	-0.18614997
186	0x3e31382e	0.17306587
187	0x3ea57dc4	0.32322514
188	0xbec45d9e	-0.38352674
189	0x3ddbf0a9	0.10739262
190	0x3d745d15	0.059659082
191	0xbeaf075e	-0.34185308
192	0x3e901021	0.28137305
193	0xbded7d0e	-0.11596118
194	0xbd303e27	-0.043028023
195	0xbe896c9f	-0.26840684
196	0xbcf81ab8	-0.030286178
197	0xbf44861f	-0.7676715
198	0x3de38930	0.11110151
199	0x3f14e8a0	0.5816746
200	0xbf5fc9dc	-0.8741739
201	0xbe163e89	-0.14672293
202	0xbebd2001	-0.3693848
203	0xbe9034ed	-0.2816538
204	0xbe805a27	-0.2506878
205	0xbf1a5998	-0.6029296
206	0x3e0d01d4	0.13770229
207	0x3e7677e4	0.24069172
208	0x3dbacca0	0.0912106
209	0x3e5a23e9	0.21302761
210	0x3da3bed7	0.07995384
211	0xbedeb37b	-0.43496308
212	0xbe4aa494	-0.19789344
213	0x3e804c9c	0.25058448
214	0x3ebb9aab	0.3664144
215	0x3d889e54	0.06670824
216	0x3d810b5c	0.06300995
217	0x3dbac347	0.091192774
218	0x3eb9ee5d	0.3631467
219	0xbe5a80f4	-0.21338254
220	0x3eaa1645	0.33220115
221	0xbd7d4070	-0.06182903
222	0xbd8e6a03	-0.06953814
223	0x3f29cfa8	0.66332483
224	0xbdf8d9ed	-0.12150941
225	0x3f418598	0.7559447
226	0x3f070f78	0.5275798
227	0xbcba74f0	-0.022760838
228	0xbf42c51a	-0.76082003
229	0xbc6ca958	-0.014444672
230	0xbf3cdec7	-0.7377743
231	0xbee18f58	-0.44054675
232	0x3ec5d34b	0.38637766
233	0xbede915c	-0.43470275
234	0xbeb739a4	-0.35786164
235	0x3cfc525e	0.030800994
236	0xbf4de077	-0.8042063
237	0xbc45ed23	-0.012080464
238	0x3e297729	0.16549362
239	0x3f100c6a	0.5626894
240	0x3ce4f399	0.027948188
241	0xbe100248	-0.1406337
242	0xba7258fa	-0.0009244826
243	0x3d76ae57	0.060224857
244	0xbe8f3714	-0.2797171
245	0xbe9c20f4	-0.3049389
246	0x3ee1ed34	0.44126284
247	0xbdce0643	-0.10059788
248	0xbe4c8b2a	-0.19974962
249	0xbdbbd35a	-0.091711715
250	0x3ddbd772	0.10734452
251	0xbd947a68	-0.0724991
252	0xbe3866b3	-0.18007927
253	0xbe07e968	-0.13272631
254	0x3dfd8b0e	0.12380038
255	0xbe4b74a7	-0.19868718

fc1.bias f4 [128]
0	0xbecb6b86	-0.3973047
1	0xbf270373	-0.6523964
2	0xbe813beb	-0.25241026
3	0xbcbc6390	-0.022996694
4	0xbea761fa	-0.32691938
5	0xbef6b8f1	-0.48187974
6	0xbf1b89ec	-0.6075733
7	0xbef80fe1	-0.48449615
8	0xbea9c3a7	-0.33157083
9	0xbef30d48	-0.4747107
10	0xbedf7725	-0.43645588
11	0xbefd3961	-0.4945784
12	0xbf7c1739	-0.98472935
13	0xbe97e573	-0.29667243
14	0x3ec0d76f	0.37664363
15	0x3e0806ed	0.13283892
16	0xbc19455d	-0.009354916
17	0xbf38f755	-0.722524
18	0xbf18fa96	-0.59757364
19	0xbee70052	-0.45117432
20	0xbe3d505d	-0.18487687
21	0xbf34e145	-0.70656234
22	0xbe9c561e	-0.30534452
23	0xbf03179d	-0.51207906
24	0xbe04075e	-0.12893435
25	0xbf1d85e5	-0.6153243
26	0x3ef7f705	0.48430648
27	0xbef75868	-0.48309636
28	0xbe940c7a	-0.2891577
29	0xbe968315	-0.29396883
30	0x3dd079eb	0.10179504
31	0xbf1d8a41	-0.61539084
32	0xbe02e06d	-0.12780924
33	0xbe2934db	-0.16524069
34	0xbed79099	-0.42102507
35	0xbe11f1d5	-0.14252408
36	0xbed8bb88	-0.42330575
37	0xbf179b31	-0.5922118
38	0xbf54fb09	-0.8319555
39	0x3dd68241	0.10474063
40	0x3d95ed92	0.073207036
41	0xbe3361fe	-0.1751785
42	0xbf5cee27	-0.8630089
43	0xbe84a720	-0.25908756
44	0xbead149a	-0.3380478
45	0xbeab820a	-0.3349765
46	0xbf0873ff	-0.53301996
47	0xbf1fbd7b	-0.623985
48	0xbf16f0c0	-0.58961105
49	0xbf3b824a	-0.7324568
50	0xbb5190f0	-0.0031977259
51	0xbf247da8	-0.64254236
52	0x3dc6157b	0.09672066
53	0xbea30552	-0.31839997
54	0xbf6b271e	-0.91856563
55	0xbf23b8c6	-0.63953817
56	0xbef3a992	-0.4759031
57	0xbf8a999b	-1.0828127
58	0xbf1edd50	-0.62056446
59	0xbee7dc1d	-0.4528512
60	0xbec0f7e8	-0.37689137
61	0xbf5864f7	-0.8452906
62	0xbefc95d3	-0.49333057
63	0x3ed6137f	0.4181175
64	0xbee5be22	-0.44871622
65	0x3e17dcf7	0.14830385
66	0xbef9469e	-0.4868669
67	0xbf15aa22	-0.5846273
68	0xbdb20800	-0.08692932
69	0xbe9be485	-0.30447784
70	0x3e8197af	0.25311038
71	0xbf5d4392	-0.8643123
72	0xbe88402c	-0.2661146
73	0xbf5add0b	-0.85493535
74	0xbf5e886a	-0.869269
75	0xbe7013f1	-0.23445107
76	0x3e2e0c0b	0.16996782
77	0xbef1b75c	-0.47210205
78	0xbf0a8d22	-0.541216
79	0xbf631128	-0.88698053
80	0xbf67e9ec	-0.9059131
81	0xbeaf64d4	-0.34256613
82	0xbf4cef61	-0.80052763
83	0xbe9307a6	-0.28716773
84	0xbec5656c	-0.3855394
85	0xbe9104f7	-0.283241
86	0xbe23f65c	-0.16011947
87	0xbebacd21	-0.36484626
88	0xbf01d0e3	-0.5070936
89	0xbf05ba7b	-0.5223767
90	0xbee636c8	-0.4496367
91	0xbf398fd8	-0.72485113
92	0xbf2d718d	-0.6775139
93	0xbee33845	-0.44378868
94	0xbe6567d4	-0.22402889
95	0xbf219f3b	-0.6313359
96	0x3af09fc1	0.0018358157
97	0xbda9f2ca	-0.082982615
98	0xbf2ff512	-0.6873332
99	0xbf3f5898	-0.7474456
100	0xbed9ba60	-0.42525005
101	0xbec5562e	-0.38542312
102	0xbf0db951	-0.55360895
103	0xbf2ec759	-0.6827293
104	0xbf68a557	-0.9087729
105	0x3daaa922	0.08333041
106	0xbf3943fe	-0.7236937
107	0xbeb81d1c	-0.3595971
108	0xbf271ac4	-0.65275216
109	0x3e09e162	0.13464883
110	0xbe958381	-0.29201892
111	0xbecccb8f	-0.39999053
112	0xbf04766e	-0.5174321
113	0x3dd8d3c7	0.10587268
114	0xbeaa40ba	-0.33252507
115	0x3da061a0	0.078311205
116	0x3ea045ff	0.31303403
117	0x3cc851c5	0.024453053
118	0xbededb49	-0.43526676
119	0xbeacd6d0	-0.3375764
120	0xbe57bbcb	-0.21067731
121	0xbef6c568	-0.48197484
122	0xbed32128	-0.41236234
123	0xbe9b31e5	-0.30311504
124	0xbf393b2c	-0.72355914
125	0xbecedae8	-0.40401387
126	0xbde215c5	-0.110393085
127	0xbe60ceab	-0.21953838

fc2.weight f4 [128, 128]
0	0xbecc336a	-0.39882976
1	0xbda0271f	-0.07819962
2	0xbe69312b	-0.22772662
3	0x3d770146	0.06030395
4	0xbe1011c4	-0.14069277
5	0xbe0eb63b	-0.13936703
6	0xbdf013cf	-0.11722528
7	0xbe928399	-0.28616026
8	0x3d390d80	0.04517889
9	0xbcd3b8b9	-0.025844919
10	0xbd1b0c6c	-0.037853643
11	0xbc4b00c7	-0.012390322
12	0xbcca84a9	-0.02472146
13	0xbe56bec0	-0.20971203
14	0xbe9a7a98	-0.30171657
15	0xbe921050	-0.2852807
16	0xbce83772	-0.02834675
17	0x3d97a0fa	0.07403751
18	0x3e023a85	0.12717636
19	0x3df32beb	0.11873611
20	0xbe252bdb	-0.16130011
21	0xbdbb93cd	-0.0915905
22	0x3ca96582	0.020678286
23	0x3e025a37	0.12729727
24	0xbe00500e	-0.12530538
25	0x3d69fca3	0.0571257
26	0xbe0deccd	-0.13859864
27	0xbe16b95d	-0.14719148
28	0x3dae26aa	0.08503468
29	0x3d3fd87e	0.046837322
30	0xbe95cfe6	-0.29260176
31	0xbe29bcb7	-0.16575895
32	0xbde910dc	-0.11380169
33	0xbd25ed17	-0.04050931
34	0xbd0255fc	-0.031820282
35	0xbe43a9ec	-0.19107789
36	0xbd955ec9	-0.072934695
37	0xbe7ccc2c	-0.2468726
38	0xbd435d09	-0.047696147
39	0xbea87751	-0.3290353
40	0xbe5b3480	-0.21406746
41	0x3d6a0715	0.05713566
42	0xbdf61b77	-0.12016957
43	0xbe84f7d5	-0.2597033
44	0xbe06a6b7	-0.13149534
45	0xbe7dd982	-0.24790004
46	0xbe21eac5	-0.15812214
47	0xbe15e9e0	-0.14639997
48	0xbe4f3300	-0.20234299
49	0xbf125892	-0.571664
50	0xbe8b1c99	-0.27170256
51	0xbd1e1c86	-0.03860142
52	0xbe7b9222	-0.24567464
53	0xbcf6d6cb	-0.030131718
54	0x3de0a821	0.10969568
55	0xbdf5f325	-0.12009267
56	0xbe1bab8b	-0.15202157
57	0xbd2a8d79	-0.041638825
58	0x3e03bf87	0.1286603
59	0xbd233393	-0.039844107
60	0xbe6252af	-0.22101854
61	0xbe5483c8	-0.20753396
62	0x3bbeba3a	0.00582054
63	0xbaa489fb	-0.0012553328
64	0xbec26034	-0.37964022
65	0xbe52e959	-0.20596828
66	0xbe38b643	-0.18038277
67	0x3dbd2255	0.09235064
68	0xbe9b5843	-0.30340776
69	0xbd145a4b	-0.036218923
70	0xbdfe1e43	-0.12408116
71	0x3e0e974e	0.13924906
72	0x3d0d5da4	0.03451313
73	0x3e02be51	0.12767912
74	0xbd9ac177	-0.07556432
75	0x3c43e4fd	0.0119564505
76	0xbd85dc91	-0.0653621
77	0xbd8fceec	-0.07021889
78	0xbe13eec1	-0.14446546
79	0xba9d34b1	-0.0011993853
80	0x3ce2fc9d	0.027708346
81	0x3d9c52db	0.07632991
82	0xbc5f90b4	-0.01364534
83	0xbe364ba1	-0.17802288
84	0xbdcd55ea	-0.100261524
85	0x3e033975	0.12814887
86	0xbd3d5836	-0.046226703
87	0xbdfb59c0	-0.12272978
88	0x3ad2f711	0.001609536
89	0x3c7787ba	0.015108043
90	0x3ca894aa	0.020578701
91	0x3d3d19cb	0.046167176
92	0x3d7b6683	0.06137706
93	0xbe037f8b	-0.12841623
94	0xbde7493e	-0.11293267
95	0xbcbe4cb4	-0.023229934
96	0xbcec5523	-0.02884919
97	0xbe181870	-0.14853072
98	0xbdb1b860	-0.08677745
99	0x3d604e5f	0.05476224
100	0xbc45b6d3	-0.0120675145
101	0xbe838dbe	-0.25694078
102	0xbde0bae9	-0.1097315
103	0x3e3036fc	0.17208475
104	0xbe21bfe4	-0.15795857
105	0xbcdc0064	-0.026855655
106	0x3da27b1e	0.07933639
107	0x3e1870b1	0.14886738
108	0x3e68c722	0.22732213
109	0xbdcc8d72	-0.09987916
110	0xbe0c045f	-0.13673542
111	0xbe164318	-0.14674032
112	0xbde32fb8	-0.11093086
113	0x3d0d7ab1	0.034540836
114	0xbdb49ff7	-0.088195734
115	0x3daff12f	0.08590924
116	0xbe774863	-0.24148707
117	0xbdb21d8b	-0.08697041
118	0xbdd3adf7	-0.103359155
119	0xbd67c1a1	-0.056581143
120	0xbca64357	-0.020295782
121	0xbde4690b	-0.11152848
122	0x3c8ffd3e	0.01757681
123	0xbdbd5ab4	-0.09245816
124	0xbde9ca76	-0.114155695
125	0xbd594990	-0.05304867
126	0xbe197a89	-0.1498815
127	0xbe136f09	-0.14397825
128	0xbec2e455	-0.3806483
129	0x3e60f4ff	0.21968459
130	0x3e90f317	0.28310463
131	0xbf317092	-0.69312394
132	0xbf26fea8	-0.65232325
133	0xbe586709	-0.21133055
134	0xbd8ada65	-0.06779937
135	0xbede9458	-0.43472552
136	0xbe4766d5	-0.19472821
137	0xbe214f34	-0.1575287
138	0xbc01fd44	-0.007933918
139	0xbdc000e5	-0.093751706
140	0xbe3e2288	-0.1856786
141	0xbf9b2305	-1.2120062
142	0xbf2b79cb	-0.66982716
143	0xbefdb3f3	-0.49551353
144	0xbf4ba8bd	-0.7955435
145	0xbeaeb67c	-0.341236
146	0x3dd1a41b	0.10236379
147	0xbe9c1ec3	-0.3049222
148	0x3f4acbcd	0.79217225
149	0x3d645a0c	0.055749938
150	0xbf58056b	-0.8438327
151	0xbf07a50f	-0.52986234
152	0xbe9dfcfc	-0.30857074
153	0x3e0d4813	0.13797025
154	0xbf866f52	-1.0502722
155	0xbe727c89	-0.23680319
156	0xbf34de85	-0.7065204
157	0xbd02588b	-0.031822722
158	0xbfd69663	-1.6764644
159	0x3e5babaf	0.21452211
160	0xbe8a8c7c	-0.27060306
161	0xbf4767ea	-0.77892935
162	0x3f0614fc	0.5237577
163	0xbdd825c8	-0.10554081
164	0x3e6f395c	0.23361725
165	0xbf9ee486	-1.241349
166	0x3f0c9533	0.5491516
167	0x3f067bc9	0.5253263
168	0xbeff2003	-0.4982911
169	0xbe017fe8	-0.12646449
170	0xbe38594c	-0.18002814
171	0x3ea6940d	0.3253483
172	0xbeb7b1a7	-0.35877725
173	0xbd3079cb	-0.0430849
174	0x3e824bdd	0.25448504
175	0x3e8e00bf	0.27734944
176	0xbdb0d245	-0.08633856
177	0xbeda932b	-0.42690405
178	0x3e10f924	0.1415754
179	0x3e12f6b9	0.1435193
180	0xbf2ee86d	-0.68323404
181	0xbc9789aa	-0.01849826
182	0x3e4652e5	0.19367559
183	0xbd0323c2	-0.032016523
184	0x3eab4501	0.33451083
185	0x3e466d9d	0.19377752
186	0x3cea009d	0.028564746
187	0x3e7995b8	0.2437352
188	0xbe5d3801	-0.21603395
189	0xbe39ee96	-0.1815742
190	0xbdc4632a	-0.095892265
191	0xbe80e2aa	-0.2517293
192	0xbef49a19	-0.47773817
193	0x3e6e0a47	0.23246108
194	0xbe19cddb	-0.15019934
195	0xbd95dcab	-0.0731748
196	0xbef019dd	-0.46894732
197	0xbf442614	-0.766206
198	0xbf453475	-0.7703317
199	0xbe23eebe	-0.16009042
200	0xbf2ae7db	-0.66760033
201	0x3f0f4c22	0.55975544
202	0xbed9b104	-0.42517865
203	0xbe5d5dde	-0.21617839
204	0xbed346db	-0.41264996
205	0xbe6c80a4	-0.23095948
206	0xbedfbe54	-0.43699896
207	0xbe267dc8	-0.16258919
208	0xbf4f09b2	-0.8087417
209	0xbc2bcb12	-0.010485427
210	0xbdfcb702	-0.123395935
211	0x3e75258b	0.23940103
212	0x3f05058a	0.51961577
213	0x3c8d6542	0.017260198
214	0xbeb38c79	-0.3506811
215	0xbf2f26f5	-0.6841882
216	0xbefb26ac	-0.49052942
217	0xbe88a59d	-0.26688853
218	0x3e554709	0.20827879
219	0xbeac4389	-0.33645275
220	0xbf1eb87c	-0.6200025
221	0xbf0464f4	-0.5171654
222	0x3ee61838	0.44940352
223	0xbf49d029	-0.7883325
224	0xbdd9118c	-0.1059905
225	0xbe06248d	-0.1309988
226	0xbd00c8b9	-0.031441424
227	0x3ebb783e	0.36615175
228	0xbefde1ed	-0.4958643
229	0xbeccedc0	-0.4002514
230	0x3edc9b5d	0.43087283
231	0x3e81c6bc	0.25346935
232	0xbf3217c9	-0.69567543
233	0xbef2e97c	-0.4744376
234	0x3e3af5ef	0.18257879
235	0xbe6a74df	-0.22896145
236	0x3ec2bc27	0.38034174
237	0xbe1e9817	-0.15487705
238	0xbeba4801	-0.3638306
239	0xbc60a122	-0.013710292
240	0xbeefe97c	-0.46857822
241	0x3e52f841	0.20602514
242	0x3daf2534	0.08552018
243	0xbe9e0d53	-0.3086954
244	0xbe71d876	-0.2361773
245	0x3ebe9377	0.37221882
246	0xbdbe0b0f	-0.09279453
247	0xbf9f262b	-1.2433523
248	0xbe1bc263	-0.15210871
249	0x3d3eab6a	0.046550192
250	0x3e36b709	0.1784326
251	0xbf09f4cd	-0.5388916
252	0xbee92887	-0.45538732
253	0xbe715b18	-0.23569906
254	0x3dd7576d	0.10514722
255	0xbef595b6	-0.47965783

fc2.bias f4 [128]
0	0xbcab2857	-0.020893259
1	0xbe030e2c	-0.12798375
2	0xbf750c96	-0.9572233
3	0xbe938696	-0.28813618
4	0x3f253fcf	0.6455049
5	0xbca69272	-0.020333502
6	0xbe38be71	-0.18041398
7	0xbee14693	-0.43999156
8	0xbe04346a	-0.1291062
9	0xbb68c765	-0.003551924
10	0x3ea6745d	0.32510653
11	0xbe3c6751	-0.18398787
12	0xbe8011f3	-0.25013694
13	0xbe688632	-0.22707441
14	0xbef845c2	-0.4849072
15	0xbeeee4dc	-0.4665898
16	0xbec519ed	-0.38496342
17	0xbf48ebf0	-0.7848501
18	0xbf62ed6f	-0.88643545
19	0xbf2310a4	-0.63697267
20	0x3c533852	0.012891846
21	0xbec83c8b	-0.3910869
22	0xbeec7d08	-0.4618914
23	0xbe67fbaf	-0.22654603
24	0xbd2ae718	-0.041724294
25	0x3e0ff96f	0.14059995
26	0xbe8720bd	-0.26392165
27	0xbeec4734	-0.46148074
28	0xbf87022a	-1.0547535
29	0xbd3851ca	-0.044999875
30	0xbf45b44a	-0.77228224
31	0xbe046ab9	-0.12931336
32	0xbdc19720	-0.09452653
33	0xbe84c5ee	-0.25932258
34	0xbde62ded	-0.112392284
35	0x3e3ffb9f	0.1874833
36	0xbd629ec6	-0.0553272
37	0x3cbf3739	0.023341762
38	0xbf11bf4b	-0.56932515
39	0xbdf297fe	-0.118453965
40	0xbf0e5212	-0.5559398
41	0xbe22efc7	-0.1591178
42	0xbf793426	-0.973452
43	0x3e8d0a0b	0.27546725
44	0xbea2064c	-0.3164543
45	0x3dfd4d38	0.12368244
46	0xbeb94c31	-0.36190942
47	0xbf4f2107	-0.8090977
48	0xbedbf079	-0.42956904
49	0xbde873a1	-0.113501795
50	0xbf37a11a	-0.71730196
51	0xbe83e947	-0.25763914
52	0x3ca57ef6	0.020202141
53	0xbee8836a	-0.4541276
54	0xbea44db5	-0.32090536
55	0xbe3e4491	-0.18580844
56	0xbf2b6b1f	-0.6696033
57	0xbf0a7e53	-0.54099005
58	0xbe7918ec	-0.24325913
59	0xbf130261	-0.57425505
60	0xbd8b7bfd	-0.06810758
61	0xbf48e6ff	-0.7847747
62	0xbf81f44f	-1.0152682
63	0xbf396c6e	-0.72431076
64	0xbf1f42ed	-0.62211496
65	0xbec8a4cb	-0.39188227
66	0xbd335bb3	-0.043788623
67	0xbeb69aa5	-0.3566486
68	0xbeae1055	-0.33996835
69	0xbe4b9863	-0.1988235
70	0xbe3a16f1	-0.18172814
71	0x3e140b06	0.1445733
72	0xbf533120	-0.82496834
73	0xbf6726fc	-0.9029386
74	0xbeb59cae	-0.354711
75	0xbccb4cf3	-0.024816966
76	0xbe5a2539	-0.21303262
77	0xbea4bc1c	-0.32174766
78	0xbe1dc796	-0.15408167
79	0x3e14cae1	0.14530517
80	0xbe06a04d	-0.13147087
81	0xbe037450	-0.12837338
82	0xbe77441c	-0.24147075
83	0xbdabdd60	-0.08391833
84	0xbda686bf	-0.081311695
85	0x3e978277	0.29591724
86	0x3d3b8853	0.045784306
87	0xbe1296e6	-0.14315376
88	0xbf8f3ee7	-1.1191071
89	0xbc598374	-0.01327597
90	0xbe9cac4b	-0.306002
91	0xbf6002b9	-0.87504154
92	0x3d809485	0.06278328
93	0xbf2d363a	-0.6766087
94	0x3c60f2a9	0.01372973
95	0xbe26bfa8	-0.16284049
96	0xbe7d029c	-0.24708027
97	0xbd8f708d	-0.07003889
98	0xbf329194	-0.69753385
99	0xbf63a453	-0.88922614
100	0xbe0b23d5	-0.13587888
101	0xbe322362	-0.1739631
102	0xbe30584e	-0.17221186
103	0xbf101724	-0.5628531
104	0xbd272db2	-0.040815063
105	0xbf1c12eb	-0.60966367
106	0x3da50ec2	0.080594555
107	0xbe8fe063	-0.2810088
108	0x3e542b93	0.20719747
109	0xbe60c3e7	-0.21949731
110	0x3dccdd5d	0.10003159
111	0xbe026181	-0.12732507
112	0xbdd85ddf	-0.105647795
113	0x3d1b9993	0.037988257
114	0xbe13c9af	-0.14432405
115	0xbf5a436d	-0.85259134
116	0xbed40605	-0.41410843
117	0xbe378fe4	-0.17925984
118	0xbf33f233	-0.7029144
119	0x3cd8a610	0.026446372
120	0xbf34149f	-0.70343965
121	0xbe989f20	-0.29808903
122	0xbf2206a1	-0.63291365
123	0xbdb1210f	-0.086488836
124	0xbf017d5a	-0.50581896
125	0xbf43a92b	-0.76430005
126	0xbe905341	-0.28188518
127	0xbe4c5ac5	-0.19956501

fc3.weight f4 [4, 128]
0	0x3e2744c8	0.16334832
1	0xbe457546	-0.19283018
2	0xbee04acf	-0.43807074
3	0xbf83aaa5	-1.0286452
4	0x401f582f	2.4897573
5	0x3f7c7aa2	0.9862462
6	0x3f00e17e	0.50344074
7	0x3e7ff10b	0.24994294
8	0x3e0f4dd9	0.1399454
9	0x3e3b607c	0.18298525
10	0x3fce1733	1.610083
11	0x3fb6929c	1.4263492
12	0xbe713faf	-0.2355945
13	0x3e5ba41b	0.2144932
14	0x3e2dd102	0.16974261
15	0xbee927f3	-0.4553829
16	0x3fc90e3e	1.5707471
17	0xbde60415	-0.11231247
18	0xbfb64151	-1.4238683
19	0xbf10e7bf	-0.56603616
20	0xbee5dfb7	-0.44897243
21	0xbe4de266	-0.20105895
22	0x3e661d80	0.22472191
23	0xbf42cc2b	-0.76092786
24	0xbff1b0b3	-1.8882049
25	0xbd88198f	-0.066455
26	0x3f1afc90	0.6054163
27	0xbe860f7e	-0.26183695
28	0xbef1237a	-0.4709738
29	0xbe2e7c54	-0.17039615
30	0xbd953d44	-0.07287076
31	0x3dadb502	0.0848179
32	0xbf28ab41	-0.6588631
33	0x3e06ffc8	0.1318351
34	0x3f2886fd	0.65830976
35	0xbf8fa176	-1.1221149
36	0xbe05d1e3	-0.13068347
37	0xbcf4c52a	-0.029879171
38	0xbf2b70f8	-0.6696925
39	0x3eecc889	0.46246746
40	0xbe3dadd1	-0.18523337
41	0x3f72adcf	0.9479646
42	0x3fa57043	1.2924885
43	0x3e4e7f12	0.20165661
44	0x3e87a2bc	0.26491344
45	0xbff6e054	-1.928721
46	0x3ef5566b	0.47917494
47	0xbf27b5b6	-0.65511644
48	0xbd801344	-0.062536746
49	0x3e73c154	0.23804218
50	0x3f4fa140	0.8110542
51	0xbe6625da	-0.22475377
52	0xbf90b20b	-1.1304334
53	0xc020fcf5	-2.5154393
54	0x3fa2636d	1.2686592
55	0xbff9ea58	-1.9524641
56	0x3cd9ee23	0.02660281
57	0x3eb6aa01	0.35676578
58	0x3e34161e	0.17586562
59	0xbe04e3aa	-0.12977472
60	0x3f45f02f	0.77319616
61	0xbf5d1527	-0.863604
62	0xbf2f6062	-0.68506444
63	0xbff62cfd	-1.9232479
64	0x3f6e7844	0.9315226
65	0x3e9dfa2c	0.30854928
66	0x3dec7def	0.115474574
67	0x3fffd06a	1.9985478
68	0xbf102295	-0.5630277
69	0x3dec7f49	0.11547715
70	0x3e174ecf	0.14776157
71	0xbfcbae92	-1.591265
72	0xbfc73275	-1.5562273
73	0xbf024732	-0.50889885
74	0xbfc9fbed	-1.5780007
75	0x3e88ed3d	0.26743498
76	0x3f5cea22	0.8629476
77	0xbf327070	-0.69702816
78	0x3fc62a2f	1.5481623
79	0x3f22d8aa	0.63611853
80	0x3f3ed34e	0.74541175
81	0xbba72ca2	-0.005101756
82	0x3e22918a	0.15875831
83	0xbf7dc8b4	-0.99134374
84	0x3ec1afcf	0.37829444
85	0xbd3122c9	-0.043246064
86	0x3d9143e7	0.070930295
87	0x3fedb863	1.8571895
88	0x3eabf864	0.33587945
89	0x3fafd558	1.3736982
90	0xbd03e419	-0.032199953
91	0x3f97c592	1.1857169
92	0x3f13e7e8	0.57775736
93	0x3dfc00d3	0.12304845
94	0x40148917	2.3208673
95	0xbe92ff3f	-0.28710362
96	0xbe170de0	-0.14751387
97	0xbcdede24	-0.027205534
98	0x3e58bf65	0.21166761
99	0x3f61f3d4	0.8826268
100	0xbf101fde	-0.56298625
101	0x3fd0e02d	1.6318413
102	0xbf9992de	-1.1997945
103	0xbe5cdb9b	-0.21568148
104	0x3e7a8b4f	0.24467205
105	0x3e9df0c4	0.30847752
106	0x400ce361	2.201378
107	0x3de7cc0d	0.113182165
108	0xbf1bb600	-0.60824585
109	0xbf3c5fdd	-0.73583776
110	0xbec10d89	-0.3770564
111	0xbe958403	-0.2920228
112	0x3d9a406f	0.07531821
113	0x3edc9f5b	0.4309033
114	0xbf6bab9f	-0.9205875
115	0xbf2da8e4	-0.6783583
116	0xbe4fcf6c	-0.20293969
117	0x3ecf8a37	0.40535137
118	0x3f022bb9	0.50847965
119	0xc0055223	-2.0831382
120	0xbf925db2	-1.1434844
121	0xbf60c278	-0.87796736
122	0xbebf84f6	-0.3740613
123	0xbf8c5330	-1.0962887
124	0x3f578422	0.84185994
125	0x3f3b2cd9	0.7311531
126	0xbfde3473	-1.7359756
127	0xbfcfd5c0	-1.6237106
128	0xbcf378e7	-0.029720737
129	0xbc97dc92	-0.018537793
130	0x3f1a173b	0.60191697
131	0xbef794a1	-0.48355582
132	0x3c1e93e8	0.009678818
133	0xbc262028	-0.010139503
134	0x3dbb2ba3	0.091391824
135	0x3eb901bd	0.3613414
136	0x3ea22f5c	0.31676757
137	0xbe8bbfaf	-0.2729468
138	0x3e2a35e4	0.1662212
139	0x3e57b507	0.2106515
140	0x3ef1566f	0.47136256
141	0xbdd71e97	-0.105038814
142	0xbe6f2230	-0.23352885
143	0x3e6d2643	0.23159127
144	0xbe19713a	-0.14984599
145	0xbed1a54d	-0.40946427
146	0xbf66f4c5	-0.9021724
147	0x3f3f40ce	0.7470826
148	0xbf6dc8c1	-0.9288445
149	0xbe817b18	-0.25289226
150	0xbd87d74e	-0.06632863
151	0xbebcffe8	-0.3691399
152	0x3bfc8c85	0.007707181
153	0xbef0cdc7	-0.47031996
154	0x3fba88d8	1.4573011
155	0x3dca8925	0.098894395
156	0x3f069cf2	0.5258323
157	0xbf84b6ab	-1.0368246
158	0xbe0fc0e4	-0.14038426
159	0xbe0e4705	-0.1389428
160	0xbf8ac0f8	-1.0840139
161	0x3f4465d8	0.767179
162	0xbefb5357	-0.4908702
163	0xbd2a251a	-0.04153929
164	0x3e62fbbf	0.22166346
165	0xbe0ac424	-0.13551384
166	0xbf3f70b6	-0.7478136
167	0xbdc4f8c1	-0.096177585
168	0xbe50c0e0	-0.20386076
169	0xbecc8158	-0.3994243
170	0xbe8428e7	-0.25812456
171	0x3e653cc6	0.22386464
172	0xbca66243	-0.020310527
173	0x3ed43264	0.41444695
174	0xbe965f90	-0.29369783
175	0xbe5dde7b	-0.21666901
176	0xbf33e382	-0.70269024
177	0x3caae277	0.02085994
178	0x3d60648c	0.05478339
179	0x3e178828	0.14798033
180	0xbf0ba2c5	-0.5454524
181	0x3ef37bfa	0.47555524
182	0x3e721d31	0.23643948
183	0x3d9698bd	0.07353351
184	0xbf05107c	-0.5197828
185	0xbf4e05e6	-0.8047775
186	0x3f4b8d83	0.79512805
187	0xbe823048	-0.2542746
188	0xbec404f4	-0.3828503
189	0xbe8f96cb	-0.28044733
190	0x3db80e88	0.089871466
191	0xbe49bdd3	-0.19701318
192	0xbed5408c	-0.41650808
193	0x3d5a7da0	0.05334246
194	0xbece951c	-0.40348136
195	0xbd9b270d	-0.07575808
196	0xbdfcde36	-0.12347071
197	0xbc8a703b	-0.016899219
198	0x3bd5fbc8	0.006530259
199	0x3ca430d2	0.02004281
200	0xbd71fc98	-0.059078783
201	0xbe8442ab	-0.25832114
202	0xbef847db	-0.4849232
203	0x3f01aa25	0.50650245
204	0xbea7d223	-0.3277751
205	0x3e0b79e6	0.1362072
206	0xbe9bb0f8	-0.30408454
207	0x3f8ac09d	1.0840031
208	0x3e194f8f	0.14971755
209	0x3d108384	0.035281673
210	0x3f42ce6b	0.7609622
211	0xbf362fd8	-0.71166754
212	0xbf307b68	-0.68938303
213	0xbf9489ac	-1.1604514
214	0x3ecc6f94	0.39928877
215	0x3ecf7282	0.4051705
216	0xbf0e9be9	-0.5570665
217	0x3ecee250	0.40407038
218	0xbe68b083	-0.22723584
219	0x3f77b236	0.96756303
220	0x3f4e6b64	0.80632615
221	0x3ea8a09f	0.32935044
222	0xbf72b8ee	-0.9481343
223	0xbe2a8ef6	-0.16656098
224	0xbf54af09	-0.8307958
225	0xbe1b4b38	-0.15165412
226	0x3f3f1ecd	0.74656373
227	0xbde94f16	-0.113920376
228	0x3d3cfd88	0.046140224
229	0x3f125b04	0.5717013
230	0xbbfa8b0e	-0.007645971
231	0xbf5ceb87	-0.86296886
232	0xbcbbc5fd	-0.022921557
233	0xbe0cd0d1	-0.13751532
234	0x3d233e52	0.039854355
235	0x3f65081c	0.894655
236	0xbfa1208f	-1.2588061
237	0x3fad4acd	1.3538452
238	0x3f4ef66c	0.8084476
239	0xbf47ec8e	-0.7809533
240	0x3dfe108d	0.124055006
241	0x3f13a399	0.57671505
242	0xbf4b21a0	-0.7934818
243	0xbefa98bb	-0.4894465
244	0xbe9aa4b3	-0.3020378
245	0x3f1fe06b	0.6245181
246	0x3f2f792e	0.6854428
247	0x3ec86ed4	0.39147055
248	0x3ee11fe6	0.4396965
249	0xbf82d6d9	-1.0221816
250	0xbe17ed13	-0.1483653
251	0xbf9782fc	-1.1836848
252	0xbefb5c24	-0.49093735
253	0x3e1baf81	0.15203668
254	0xbdb0df20	-0.08636308
255	0xbf03b0b2	-0.5144149

fc3.bias f4 [4]
0	0xbe94a446	-0.2903158
1	0x3f4ed32a	0.8079096
2	0xbc252c6f	-0.010081395
3	0x3bed0a13	0.007233867
