p2_continuous-control/weights/checkpoint_critic.pth (torch_old, 87031 bytes, 5 tensors)

fcs1.weight f4 [128, 33]
0	0xbe3914b1	-0.180743
1	0x3ef85f54	0.4851023
2	0x3e39d420	0.18147326
3	0xbd977d50	-0.07396948
4	0xbe01d0d2	-0.12677315
5	0x3ea1bd77	0.31589863
6	0xbecbbb6d	-0.39791432
7	0x3e68ede6	0.22747001
8	0x3be2c871	0.006920867
9	0xbead7308	-0.33876824
10	0x3e2f5875	0.17123587
11	0x3b56fbbc	0.0032803854
12	0x3d889212	0.06668486
13	0xbd8e4a28	-0.06947738
14	0x3e8fdaa0	0.28096485
15	0x3e85cd46	0.26133174
16	0x3e87b2ff	0.2650375
17	0x3de62a31	0.11238516
18	0x3ebfa9d2	0.3743425
19	0x3db68f55	0.08914057
20	0x3da7254b	0.0816141
21	0x3d5c12b4	0.053728774
22	0xbe6481dd	-0.22315164
23	0x3e960cd2	0.29306656
24	0x3e004f3e	0.12530228
25	0x3e61be70	0.22045302
26	0xbcfcfb07	-0.030881418
27	0x3f17890c	0.5919349
28	0xbee5d4dd	-0.44888964
29	0x3ac51840	0.0015037134
30	0xbf0f40a6	-0.5595802
31	0x3aaf9300	0.001339525
32	0x3eed05a5	0.4629337
33	0x3e68ccb1	0.22734334
34	0x3d78816e	0.06067031
35	0x3e85fdcc	0.26170194
36	0x3da48465	0.08033065
37	0x3ea20e4d	0.31651536
38	0xbea1100a	-0.3145755
39	0xbdb7acd9	-0.08968515
40	0xbe178aac	-0.14798993
41	0x3e042db3	0.12908058
42	0x3e3cf3ac	0.18452328
43	0xbd9def02	-0.07711603
44	0x3c5d7dc2	0.0135187525
45	0x3c34ab2a	0.011027137
46	0xbebb5a50	-0.3659234
47	0x3c9ffd30	0.019529909
48	0xbe96d81c	-0.29461753
49	0xbd8c2cde	-0.06844495
50	0xbaaf4e83	-0.0013374839
51	0xbe6c44e3	-0.23073153
52	0x3c9b6132	0.018967245
53	0x39ff2ef4	0.00048672373
54	0xbccbd117	-0.024879975
55	0x3d14127e	0.036150448
56	0xbe0efe0e	-0.13964102
57	0x38b01866	8.3968785e-05
58	0xbd67f946	-0.05663421
59	0x3db140d9	0.08654947
60	0x3f1141c3	0.5674097
61	0x3ea96f6e	0.33092827
62	0xbcd729fc	-0.026265137
63	0xbf06a3fb	-0.52593964
64	0xbcdafc60	-0.02673167
65	0x401f29dd	2.4869301
66	0xbe548ee5	-0.20757635
67	0x3e756e41	0.2396784
68	0xbd15db2a	-0.036585964
69	0xbdc874ed	-0.09787927
70	0x3e36081d	0.17776532
71	0x3e8153d1	0.2525926
72	0x3dec354d	0.11533604
73	0x3d50f561	0.05101526
74	0xbb8d1adc	-0.0043061804
75	0xbeedf6f1	-0.46477464
76	0xbe088699	-0.13332595
77	0xbe541585	-0.20711334
78	0xbe1ffa5c	-0.15622848
79	0xbe893df3	-0.26805076
80	0x3e123f0d	0.14281864
81	0x3da72968	0.081621945
82	0x3cea76bb	0.028621068
83	0x3cde6fd7	0.027152939
84	0xbf1ebb30	-0.62004375
85	0xbe163382	-0.14668086
86	0xbe064c83	-0.13115124
87	0x3e8feff2	0.2811275
88	0xbcab6cd6	-0.02092592
89	0x3e1056d7	0.14095627
90	0x3e2491a3	0.16071181
91	0x3e07c82f	0.13259958
92	0x3ec4eab6	0.3846032
93	0x3e89d6a2	0.26921564
94	0x3c8336ca	0.016017336
95	0x3d94fff3	0.07275381
96	0xbe8b0a1c	-0.2715615
97	0xbcf134b2	-0.029444072
98	0x3d11e287	0.035616424
99	0x3e832d70	0.25620604
100	0x3ed7b47b	0.42129883
101	0xbd6451f9	-0.055742238
102	0xbe7e5c24	-0.24839836
103	0x3eeca14a	0.46216804
104	0x3f5bbe63	0.8583738
105	0xbd1197ca	-0.035545148
106	0xbe497a66	-0.19675598
107	0x3dd38a33	0.10329094
108	0x3f583b36	0.8446535
109	0xbcc8b639	-0.024500953
110	0x3e8a323a	0.26991445
111	0x3ebb3c3b	0.3656939
112	0xbe8dfc9a	-0.27731782
113	0xbe2c1dc4	-0.1680823
114	0xbdacfbbb	-0.08446451
115	0x3e290971	0.16507508
116	0xbe1f79cb	-0.15573804
117	0x3def77e9	0.11692793
118	0x3dd9505e	0.10611032
119	0xbd7757a0	-0.0603863
120	0x3edf5d09	0.43625668
121	0x3d727754	0.05919583
122	0xbe3bec6a	-0.18351904
123	0xbde34f37	-0.110990934
124	0x3eb8b772	0.36077458
125	0x3e254c29	0.16142334
126	0x3f53aaff	0.82682794
127	0xbe252903	-0.16128926
128	0x3d94b233	0.07260551
129	0xbf55aefd	-0.83470136
130	0x3d8f3c5f	0.06993937
131	0x3da78b85	0.08180908
132	0xbe7a9759	-0.24471797
133	0x3ecd4c1d	0.40097132
134	0x3e13f14c	0.14447516
135	0xbd3430a8	-0.043991715
136	0x3e932155	0.28736368
137	0x3e31cecb	0.17364042
138	0x3e8fae66	0.28062743
139	0x3dab35b8	0.083598554
140	0xbeea01d5	-0.45704523
141	0xbeba5f38	-0.3640077
142	0xbdc367ef	-0.09541308
143	0xbd540cb4	-0.051769927
144	0x3deaf036	0.11471598
145	0xbd0152a8	-0.031572968
146	0xbf14a9f0	-0.58071804
147	0x3e13952c	0.14412373
148	0x3cb6a44f	0.022295145
149	0xbe24b599	-0.16084899
150	0xbe4024ce	-0.1876404
151	0xbde8a6d4	-0.11359945
152	0x3c88d435	0.01670275
153	0xbd860a92	-0.06544985
154	0xbe0d9d71	-0.1382959
155	0x3d91b17d	0.07113931
156	0xbdaee84b	-0.085404
157	0x3cc100ad	0.023559893
158	0x3e6a1db8	0.228629
159	0x3f07bcab	0.5302226
160	0xbead54bc	-0.3385371
161	0xbc9fd178	-0.019509062
162	0xbf1ba4e1	-0.6079846
163	0x3d1a309e	0.03764402
164	0x3ebc38eb	0.36762175
165	0x3e4d22cc	0.20032805
166	0x3e175668	0.14779055
167	0xbf1c7e1e	-0.6112994
168	0x3e46ae22	0.19402364
169	0x3eef737b	0.46767792
170	0xbe5e4334	-0.21705323
171	0xbdffc2fe	-0.12488364
172	0xbb9c9c89	-0.0047794026
173	0x3f43b454	0.76447034
174	0x3e21abcd	0.15788193
175	0x3d535a88	0.05160001
176	0x3e2d03b5	0.16895945
177	0xbcc2f654	-0.023799099
178	0xbe8fe516	-0.28104466
179	0x3e043e23	0.12914328
180	0x3ea90ed8	0.33019137
181	0x3dcb47c1	0.09925795
182	0x3da80993	0.08204951
183	0xbe80efed	-0.2518305
184	0x3a1b3076	0.0005920002
185	0x3c804e85	0.015662441
186	0x3d417636	0.047231875
187	0x3d2d2212	0.04226882
188	0xbd161eab	-0.03665034
189	0x3c397189	0.011318573
190	0x3e6ff7e5	0.23434408
191	0xbe2a4d42	-0.16631034
192	0x3e94126f	0.28920314
193	0x3e556e24	0.20842797
194	0xbd2dcda8	-0.042432457
195	0xbe9d3fcd	-0.3071274
196	0xbd264b68	-0.040599257
197	0x3f883b04	1.064301
198	0xbec87429	-0.39151123
199	0x3ec36743	0.3816472
200	0x3d34c949	0.044137273
201	0xbd2b45da	-0.041814663
202	0x3e1993b7	0.14997755
203	0x3e6e778b	0.2328779
204	0xbda7996e	-0.08183561
205	0x3e014152	0.12622574
206	0x3e819310	0.25307512
207	0xbe55321c	-0.20819896
208	0x3aeb7373	0.0017963484
209	0xbcb31947	-0.02186264
210	0xbc056b2c	-0.008143228
211	0x3eea8a79	0.4580877
212	0xbea1aff0	-0.31579542
213	0xbd8f61bf	-0.070010655
214	0xbec4901a	-0.3839119
215	0xbd71a98c	-0.058999583
216	0x3cce5d2c	0.025190912
217	0x3e0b1421	0.13581897
218	0x3bb6d259	0.0055792746
219	0xbd141056	-0.03614839
220	0xbdd57a9f	-0.10423779
221	0x3e81a750	0.25322962
222	0xbd5758d7	-0.05257496
223	0xbdb8d5e2	-0.0902517
224	0x3d2cd3c2	0.042194135
225	0x3f85aa34	1.0442567
226	0x3e98b5eb	0.29826292
227	0x3d92073f	0.07130288
228	0xbf8c9d54	-1.0985513
229	0x3d8fba8b	0.07018002
230	0xc00d4859	-2.2075408
231	0x3f296578	0.66170454
232	0x3eb3cc4d	0.35116807
233	0x3eabaf25	0.33532062
234	0xbe6bbee7	-0.23022042
235	0xbd850e5b	-0.06496879
236	0x3e16e126	0.14734325
237	0xbe14f415	-0.14546235
238	0x3e21e68e	0.15810606
239	0xbebb6175	-0.3659779
240	0x3ac5920f	0.0015073436
241	0x3e0d4804	0.13797003
242	0xbbb112e4	-0.0054038633
243	0xbe16c707	-0.1472436
244	0xbe6b564f	-0.22982143
245	0x3e7e24cf	0.24818729
246	0x3dac6223	0.084171556
247	0xbdddf0d7	-0.10836952
248	0x3e436911	0.19083048
249	0xbe94d903	-0.29071817
250	0x3e3a65db	0.18202917
251	0xbf058d2b	-0.5216853
252	0x3f376cf8	0.7165065
253	0x3e84919b	0.25892338
254	0xbe1d878e	-0.15383741
255	0x3da1a757	0.07893246

fcs1.bias f4 [128]
0	0xbf39826c	-0.72464633
1	0xbf3dd9f1	-0.7416068
2	0xbdb20192	-0.08691706
3	0xbf46c9ad	-0.7765148
4	0xbf1d2ce0	-0.613966
5	0xbedc9d8f	-0.43088958
6	0xbf71dbbc	-0.94475913
7	0xbf323f0b	-0.69627446
8	0xbf66f2cd	-0.90214235
9	0xbf817056	-1.0112407
10	0xbf865847	-1.049569
11	0xbe9ee188	-0.31031442
12	0xbe172c18	-0.14762914
13	0xbf93c005	-1.1542975
14	0xbea63b00	-0.32466888
15	0xbd6f7069	-0.058456812
16	0xbe19601f	-0.14978074
17	0xbf44e41c	-0.7691057
18	0xbf400614	-0.75009274
19	0xbf471c9e	-0.7777804
20	0xbf2a2927	-0.66469043
21	0xbee71e30	-0.4514022
22	0x3ec711f7	0.38880894
23	0xbe61b633	-0.2204216
24	0x3f0425a9	0.51619965
25	0xbf2ef20f	-0.683381
26	0xbee6f6db	-0.4511021
27	0xbf1d545a	-0.61456835
28	0xbe0e1bb7	-0.1387776
29	0xbf83f55c	-1.0309253
30	0xbe971f0b	-0.2951587
31	0xbf1b65e3	-0.6070234
32	0xbec4523d	-0.38343993
33	0xbef634eb	-0.48087248
34	0xbf3c95c0	-0.73666
35	0x3ddbac75	0.10726253
36	0xbf05bdfb	-0.5224301
37	0xbe90322e	-0.28163284
38	0xbf11afae	-0.5690869
39	0xbf1352e4	-0.57548356
40	0xbe8eae40	-0.27867317
41	0xbf02e984	-0.51137567
42	0xbf810aac	-1.0081382
43	0xbf321cba	-0.69575083
44	0xbf72710f	-0.94703764
45	0xbf303ee9	-0.68845993
46	0xbe8e616f	-0.2780871
47	0xbd0ea79c	-0.034827814
48	0xbf2b69c3	-0.66958255
49	0x3eb72e77	0.35777637
50	0xbf3abce9	-0.72944504
51	0xbf76d911	-0.9642497
52	0x3debc9ab	0.115130745
53	0xbf539c86	-0.8266071
54	0xbf5abc35	-0.8544343
55	0xbedb3eb4	-0.42821276
56	0xbef11c0b	-0.47091708
57	0xbf8bc052	-1.0918067
58	0xbe9ab4fb	-0.30216202
59	0xbf1f8eca	-0.62327254
60	0xbefaf0ab	-0.4901174
61	0xbeea700c	-0.4578861
62	0xbf20f5de	-0.62875164
63	0xbf27a446	-0.65485036
64	0xbe67ed56	-0.2264913
65	0x3e35298d	0.17691632
66	0xbf82cda4	-1.0219007
67	0xbf03f566	-0.51546323
68	0xbee454a1	-0.44595817
69	0xbfa3e874	-1.2805314
70	0xbf723426	-0.9461082
71	0xbf8723ad	-1.0557762
72	0xbd8e03f3	-0.06934347
73	0xbf0affad	-0.5429638
74	0xbf6e2050	-0.93018055
75	0xbfa607b1	-1.2971097
76	0xbed84c3f	-0.4224567
77	0xbed10baa	-0.4082921
78	0x3f141a8a	0.57852995
79	0xbeb425e0	-0.35185146
80	0xbf30470c	-0.6885841
81	0x3f62097e	0.88295734
82	0xbf6dc14e	-0.92873085
83	0xbf3dfec0	-0.7421684
84	0xbf49709c	-0.78687453
85	0xbeda65b5	-0.4265572
86	0xbf6f2645	-0.9341777
87	0x3f172f3a	0.59056437
88	0xbf3038f0	-0.6883688
89	0xbed2a451	-0.41140988
90	0xbf81d01c	-1.0141635
91	0xbe4075b3	-0.18794899
92	0xbf70db72	-0.94084847
93	0xbf01301f	-0.5046405
94	0xbf8afbfa	-1.0858147
95	0xbf43b393	-0.76445884
96	0xbfa52616	-1.2902248
97	0xbe827ef5	-0.25487486
98	0xbeaf09bc	-0.34187114
99	0xbda18a35	-0.07887689
100	0xbf1244ec	-0.57136416
101	0xbdbe8130	-0.09301984
102	0xbee84cda	-0.45371133
103	0xbf532018	-0.82470846
104	0xbedba20b	-0.42897066
105	0x3f89dd28	1.0770617
106	0x3e2b06bd	0.16701789
107	0xbf1b7cb7	-0.60737175
108	0xbeeff653	-0.46867618
109	0xbefba6a2	-0.49150568
110	0xbf639daf	-0.8891248
111	0xbf2e550d	-0.6809853
112	0xbecaff17	-0.39647743
113	0xbf8c81cf	-1.0977114
114	0xbf5580df	-0.83399767
115	0xbe364076	-0.17798027
116	0xbeb42494	-0.35184157
117	0xbf26e716	-0.6519636
118	0xbf37bf6f	-0.7177648
119	0xbf902954	-1.1262612
120	0xbf524dab	-0.8214976
121	0x3da18d64	0.07888296
122	0xbf8c54db	-1.0963396
123	0xbebea2ec	-0.37233675
124	0xbe10378d	-0.14083691
125	0xbeef1a04	-0.46699536
126	0xbf6bc5d4	-0.92098737
127	0xbedbe56f	-0.4294848

fc2.weight f4 [128, 132]
0	0x3b86b8e7	0.0041113975
1	0xbaf34eb0	-0.0018562879
2	0xbd1def37	-0.03855821
3	0xbdd10859	-0.1020667
4	0x3d1b204e	0.037872605
5	0x3ce665c9	0.028124707
6	0xbdbfe0cf	-0.09369051
7	0x3d40b955	0.047051746
8	0xbdd4c2b5	-0.103887
9	0xbd4ce79a	-0.05002556
10	0x3d46e139	0.048554633
11	0xbc6e4a7f	-0.014544128
12	0x3c4a8444	0.012360636
13	0x3d983966	0.07432823
14	0xbd17170a	-0.036887206
15	0xbe124edf	-0.142879
16	0x3cea17c7	0.028575791
17	0xbd9df343	-0.07712414
18	0xbdc7cc46	-0.09755759
19	0xbd93ad1c	-0.07210752
20	0x3d97fba4	0.074210435
21	0xbd3cd525	-0.046101708
22	0xbd5e86e0	-0.054327846
23	0xbd3f1748	-0.046653062
24	0xbdb8b1e2	-0.090183035
25	0x3a6d2ea9	0.00090477854
26	0x3d128f50	0.035781205
27	0x3d5f953f	0.05458569
28	0xbc98208c	-0.018570207
29	0xbd3705cb	-0.04468326
30	0x3ce28fd2	0.02765647
31	0xbd9b96b7	-0.07597106
32	0xbda16a5a	-0.07881613
33	0x3bec02b7	0.007202472
34	0x3cefac4f	0.029256968
35	0xbc41d758	-0.011831127
36	0xbcaac032	-0.020843599
37	0xbdb73dbf	-0.08947324
38	0xbdb7a9e3	-0.0896795
39	0xbdbd40bd	-0.092408635
40	0xbcf99cca	-0.03047027
41	0xbe008ae7	-0.12552987
42	0xbcd6a8cd	-0.026203537
43	0x3d594008	0.05303958
44	0xbd773bae	-0.06035965
45	0xbb07124d	-0.0020610273
46	0xbd8cc0b5	-0.068726934
47	0xbdf92b64	-0.12166479
48	0xbdb5104a	-0.088409975
49	0xbbe6dff1	-0.007045739
50	0xbd444fee	-0.04792779
51	0x3d4677b1	0.04845399
52	0xbc832164	-0.016007133
53	0x3c3d0ca0	0.011538655
54	0xbda9b666	-0.08286743
55	0xbbddd3d6	-0.0067696376
56	0xbde8c52f	-0.11365735
57	0xbd8c2376	-0.06842701
58	0xbd0e4b7c	-0.034739956
59	0xbdf36161	-0.11883808
60	0x3bc88be0	0.00612019
61	0xbd6cef68	-0.057845503
62	0x3cbcf720	0.023067057
63	0xbd192663	-0.037390124
64	0xbd479761	-0.04872835
65	0xbdb518be	-0.0884261
66	0xbddb4417	-0.107063465
67	0xbdd0defe	-0.101987824
68	0xbd8220f7	-0.06353944
69	0x3d216f4c	0.03941278
70	0x3c929b6f	0.017896382
71	0x3c510734	0.012758065
72	0xbd76e07f	-0.06027269
73	0xbd1b453e	-0.03790783
74	0xbd939f2c	-0.07208094
75	0x3d9e3644	0.07725194
76	0xbcee1764	-0.029063888
77	0xbdcd5ba2	-0.10027243
78	0xbc39b0a9	-0.011333623
79	0xbd9ddc7b	-0.07708069
80	0xbce45094	-0.027870454
81	0xbd00f36d	-0.03148215
82	0xbd5fe1fe	-0.054658882
83	0xbe1127b0	-0.14175296
84	0xbd80cb74	-0.062888056
85	0xbdebb975	-0.115099825
86	0x3db1f060	0.08688426
87	0xbd8c2607	-0.06843191
88	0xbd617b8a	-0.055049457
89	0x3c9e5dce	0.019331839
90	0xbd04071f	-0.032233354
91	0xbcc42ace	-0.023946192
92	0xbdcf4b2e	-0.10121761
93	0x3cc7751c	0.024347834
94	0x3d588458	0.052860588
95	0xbda230ee	-0.07919489
96	0x3d4140ec	0.047181055
97	0x3cbf5450	0.023355633
98	0x3bbfc42d	0.0058522434
99	0xbbc6a26a	-0.0060618417
100	0xbcc22a66	-0.023701858
101	0x3d08999b	0.033349615
102	0xbd426f8b	-0.047469657
103	0xbe1d08ef	-0.15335439
104	0xbda390da	-0.079866126
105	0xbc2b1cdf	-0.010443895
106	0xbda9db03	-0.08293726
107	0xbd822076	-0.06353848
108	0xbd9dd548	-0.07706696
109	0x3b9f4bf4	0.0048613492
110	0xbce3f98d	-0.027828956
111	0x3d499a23	0.04921926
112	0xbdd88d6f	-0.10573851
113	0x3bdfc0db	0.00682841
114	0xbd83bf7a	-0.06433006
115	0xbe0fb640	-0.14034367
116	0xbe01f3ae	-0.12690613
117	0xbbe25e83	-0.0069082393
118	0x3d5a7bc8	0.053340703
119	0x3cdccb14	0.026952304
120	0x3d91ac92	0.07112993
121	0xbb8425ed	-0.0040328414
122	0xbc9e46ea	-0.019320924
123	0xbcbef864	-0.023311801
124	0xbe2ebf2f	-0.17065118
125	0x3c817857	0.015804453
126	0xbdbf72e0	-0.093480825
127	0x39c0dff4	0.00036787952
128	0xbda1826b	-0.078862034
129	0x3e0d0999	0.13773192
130	0x3b1a600b	0.0023555781
131	0x3d78a025	0.0606996
132	0xbc071313	-0.008244294
133	0xbd8bdd8e	-0.068293676
134	0xbd1765d8	-0.03696236
135	0x3c0e0e96	0.00867047
136	0xbc4b2f8e	-0.012401475
137	0xbd7a655d	-0.061131824
138	0x3d1d9b40	0.038478136
139	0xbd1e07ba	-0.038581587
140	0xbe06cd73	-0.1316431
141	0x3c1adf0a	0.009452591
142	0x3d112c91	0.035442892
143	0x3d33606c	0.043793127
144	0xbe276f40	-0.16351032
145	0xbc940ec7	-0.018073453
146	0x3abb1216	0.0014272358
147	0xbd8f617e	-0.07001017
148	0x3d2a77af	0.041618045
149	0xbe5f831d	-0.2182736
150	0xbd063906	-0.032769226
151	0xbd28735b	-0.041125637
152	0xbdaac6a1	-0.08338667
153	0xbdd29f12	-0.102842465
154	0xbe392c82	-0.18083385
155	0x3ce93d61	0.02847165
156	0xbd0a3934	-0.03374596
157	0xbd58a590	-0.052892268
158	0xbba42dd9	-0.0050103483
159	0xbb77e294	-0.003782426
160	0xbdf995a7	-0.12186747
161	0xbdc3ced5	-0.095609345
162	0xbcc0cba0	-0.023534596
163	0xbdb15141	-0.08658076
164	0xbe00d9d5	-0.12583096
165	0xbda51e6d	-0.08062444
166	0xbd8cb0a9	-0.06869633
167	0xbce77650	-0.028254658
168	0xbd4dfa66	-0.050287627
169	0xbc038ecf	-0.008029654
170	0xbd182a6e	-0.03714984
171	0xba85dcae	-0.0010212862
172	0xbe3569c9	-0.17716135
173	0xbc092b12	-0.008372085
174	0xbd5a8259	-0.053346965
175	0x3c364c4b	0.011126588
176	0x3c20e94b	0.009821246
177	0x3cd58f31	0.026069256
178	0xbc99f668	-0.018794253
179	0xbc1ebd77	-0.009688727
180	0x3d2dace3	0.042401206
181	0x3d024929	0.031808052
182	0xbd60de7e	-0.054899685
183	0xbdca6d21	-0.09884096
184	0xbc52687a	-0.012842292
185	0xbcca3865	-0.024685094
186	0xbcbc9301	-0.023019316
187	0xbc45e8eb	-0.012079458
188	0x3c0a3f05	0.008437877
189	0xbd86888e	-0.065690145
190	0x37cbe55f	2.4306295e-05
191	0x3b746abd	0.0037295066
192	0x3d6d948d	0.058002997
193	0xbdecb297	-0.11557501
194	0x3c969bd2	0.018384848
195	0x3c5ec4d8	0.013596736
196	0xbdfe06d2	-0.124036446
197	0xbe37c8fd	-0.17947765
198	0xbbd2b82c	-0.0064306464
199	0xbdd160cf	-0.10223543
200	0xbc993459	-0.01870172
201	0x3d12172a	0.035666622
202	0x3cb31853	0.021862185
203	0xbdab4f1d	-0.08364699
204	0xbde0245c	-0.10944435
205	0xbdd582ed	-0.10425363
206	0xbd69baa3	-0.057062756
207	0xbc61da23	-0.013784918
208	0xbe05499a	-0.13016358
209	0x3bafe103	0.0053673997
210	0xbd99d43b	-0.07511183
211	0xbcebc632	-0.02878103
212	0xbe08ac8a	-0.13347068
213	0xbddc2301	-0.10748864
214	0xbd80da1b	-0.062916
215	0xbd9393dd	-0.07205937
216	0xbe2f7c95	-0.17137368
217	0xbc88407c	-0.016632311
218	0xbe15278b	-0.14565866
219	0xbd4a99ba	-0.04946301
220	0xbd814d2e	-0.06313549
221	0xbd7af8d6	-0.061272465
222	0xbdfce2d8	-0.123479545
223	0x3d859e73	0.065243624
224	0x3d0c748d	0.03429084
225	0xbe1e9256	-0.1548551
226	0xbd024483	-0.03180362
227	0xbdb6827f	-0.08911609
228	0xbe1640f7	-0.1467322
229	0xbd472bba	-0.048625685
230	0x3cc39684	0.023875482
231	0xbe1d31ee	-0.15351078
232	0x3d43c50b	0.047795337
233	0x3d756c84	0.05991794
234	0xbdef3742	-0.116804615
235	0x3cbd376b	0.023097714
236	0xb8838420	-6.271177e-05
237	0x3c1af956	0.00945886
238	0xbd266a0b	-0.040628474
239	0xbe513b4f	-0.2043278
240	0x3c08c6f1	0.008348213
241	0xbd473fdc	-0.048644885
242	0xbdeda74d	-0.11604176
243	0x3c7cdf34	0.015434075
244	0xbd3a5e8c	-0.045500323
245	0xbc699028	-0.014255561
246	0xbddf2f92	-0.10897745
247	0x3c546738	0.012964062
248	0xbbf909a9	-0.0076000285
249	0xbd44c1da	-0.048036434
250	0xbdabbfc7	-0.08386188
251	0xbd380a0b	-0.044931453
252	0xbdea498d	-0.1143981
253	0x3bb66f17	0.005567442
254	0xbdeac6f8	-0.114637315
255	0xbe4c4be6	-0.19950828

fc2.bias f4 [128]
0	0xbde124d4	-0.109933525
1	0xbd94cc04	-0.072654754
2	0xbdceb665	-0.10093383
3	0xbcd84334	-0.026399232
4	0xbf399b8a	-0.7250296
5	0x3bcc6ae9	0.0062383306
6	0xbdeb6535	-0.11493913
7	0xbdea179d	-0.11430285
8	0xbe9c6b68	-0.30550694
9	0xbe285248	-0.16437638
10	0xbdeb7271	-0.11496437
11	0x3f5da575	0.8658059
12	0x3f4bec67	0.79657596
13	0xbe232be8	-0.15934718
14	0x3f0709c2	0.52749264
15	0xbd070770	-0.032966077
16	0x3fc23f28	1.5175524
17	0xbd117012	-0.03550727
18	0xbda652f9	-0.081212945
19	0xbd43826d	-0.047731806
20	0xbe03ede4	-0.12883717
21	0xbeeb3571	-0.4593921
22	0xbe041b5e	-0.12901065
23	0x3f8147a7	1.0099992
24	0xbd9b32c9	-0.07578046
25	0xbd8b4c0d	-0.06801615
26	0xbe187152	-0.14886978
27	0x3ec4b744	0.3842107
28	0xbe0014b6	-0.125079
29	0xbd764bc3	-0.060130846
30	0xbd1fc6af	-0.03900784
31	0xbd5e984f	-0.05434447
32	0xbdcb7fc1	-0.099364765
33	0xbdb516c9	-0.088422365
34	0x3c1ac48d	0.009446275
35	0xbdfaa8a5	-0.12239198
36	0xbd659471	-0.056049768
37	0xbda4f1e0	-0.080539465
38	0xbd7d36ef	-0.061819967
39	0xbdfff700	-0.124982834
40	0xbd1a83c4	-0.037723318
41	0xbd933347	-0.07187515
42	0x3c893552	0.016749058
43	0xbe18ca8b	-0.14921014
44	0xbf00857a	-0.5020367
45	0xbe018af1	-0.12650658
46	0xbde4bf28	-0.11169273
47	0xbddcef1d	-0.10787795
48	0xbe31672a	-0.1732451
49	0xbb733957	-0.0037113035
50	0xbcb173cf	-0.021661667
51	0xbf0280a2	-0.5097753
52	0xbd08ad06	-0.033368133
53	0x3bd56962	0.0065128068
54	0xbd88f080	-0.06686497
55	0xbde31ea4	-0.110898286
56	0xbdf2c054	-0.1185309
57	0x3f2f7996	0.685449
58	0xbef0999a	-0.4699219
59	0xbe1e0a44	-0.15433604
60	0xbc641f07	-0.013923413
61	0xbdbdb1e0	-0.092624426
62	0xbe11ec32	-0.14250258
63	0xbdebdb05	-0.11516384
64	0x3f851892	1.0398123
65	0xbdf16288	-0.117863715
66	0xbbbab404	-0.005697729
67	0xbe53111c	-0.20611995
68	0xbe16a874	-0.14712697
69	0xbe19c561	-0.150167
70	0xbda2cd3e	-0.07949303
71	0xbe4d3860	-0.20041037
72	0xbddc24e1	-0.107492216
73	0xbd91fbc5	-0.07128099
74	0xbf47b8f0	-0.7801657
75	0x3c262c36	0.010142377
76	0x3a5deb34	0.0008465529
77	0xbdff86e2	-0.12476899
78	0x3e1af8f0	0.15134025
79	0x3f0de25f	0.5542354
80	0x3bee7959	0.0072776494
81	0xbe0dbbdd	-0.13841195
82	0xbd6958bf	-0.0569694
83	0xbcbf74ad	-0.023371065
84	0x3d4eec89	0.050518546
85	0xbdd5ac23	-0.10433223
86	0x3dcc9c13	0.09990706
87	0xbc4a09cf	-0.01233144
88	0xbe0eaef7	-0.13933931
89	0xbc9b472b	-0.018954834
90	0xbdfc229a	-0.12311287
91	0xbde19e12	-0.11016478
92	0x3fa45f55	1.2841593
93	0xbd2bf7d0	-0.04198438
94	0xbdee466a	-0.11634524
95	0xbdf32792	-0.11872782
96	0xbe0a46e6	-0.13503608
97	0x3efa738d	0.48916283
98	0xbdeaa3c7	-0.11457019
99	0xbe1cea04	-0.15323645
100	0xbd8ffef5	-0.07031051
101	0xbd174c49	-0.036937986
102	0xbd820023	-0.06347682
103	0xbcd3565e	-0.025798019
104	0xbe2396eb	-0.1597554
105	0xbdd64b90	-0.10463631
106	0xbe21c703	-0.15798573
107	0xbe622630	-0.2208488
108	0xbe20188a	-0.15634361
109	0x3e38bfe7	0.18041955
110	0xbe1c66a6	-0.15273532
111	0xbe5e096b	-0.2168328
112	0xbc855a5b	-0.016278436
113	0x3f24ce0a	0.6437689
114	0xbe09a9d4	-0.1344369
115	0xbdd7bf07	-0.105344824
116	0x3f0c822e	0.5488614
117	0xbe09f17d	-0.13471027
118	0xbf35cbd4	-0.7101414
119	0xbd78619a	-0.060639955
120	0xbe02aa17	-0.12760197
121	0xbd75c7e1	-0.060005073
122	0xbd85a263	-0.065251134
123	0xbdd90f91	-0.10598672
124	0xbd6761dd	-0.056489814
125	0xbcd91e7f	-0.0265038
126	0xbdfcc012	-0.12341322
127	0xbd276196	-0.04086455

fc3.weight f4 [1, 128]
0	0x3b6b656f	0.0035918613
1	0x3c3a6dc9	0.011378714
2	0x3bcf10a6	0.0063191233
3	0xbc9ee99a	-0.0193985
4	0xbd10a669	-0.03531495
5	0x3ca4ccf9	0.02011727
6	0xbc7b4055	-0.015335162
7	0x3cd37b2b	0.025815567
8	0xbd38cb55	-0.045115788
9	0x3cb0fc1c	0.02160459
10	0x3cb524eb	0.02211233
11	0x3e0a0c01	0.13481142
12	0x3dd001c9	0.101565905
13	0x3bef8998	0.0073101036
14	0x3d5340c3	0.051575433
15	0xbc97bf64	-0.01852388
16	0x3e258b48	0.16166413
17	0xbc776474	-0.0150996335
18	0xbcb59c38	-0.022169217
19	0x3ce4e6d1	0.027942093
20	0x3cd89280	0.026437044
21	0xbccacfbd	-0.02475726
22	0x3c3d6c19	0.011561417
23	0x3d5a5b84	0.053309932
24	0xbc5af96e	-0.013365133
25	0x3c70f210	0.01470615
26	0xbc1087bd	-0.008821425
27	0x3ccb972f	0.024852363
28	0xbd3d9d7b	-0.046292763
29	0x3ced278c	0.028949521
30	0x3c3775cc	0.011197519
31	0xbb7dd0ed	-0.0038729266
32	0xbbbbdb33	-0.0057329177
33	0xbcbc2fcd	-0.022972012
34	0xbcc67974	-0.024227835
35	0xbae5da8f	-0.0017536449
36	0x3c39c0db	0.011337484
37	0xbcd6a86b	-0.026203355
38	0xbce5803d	-0.02801525
39	0x3bbc7274	0.0057509486
40	0xbbf5f225	-0.0075056725
41	0xbca0b445	-0.01961721
42	0xbcc4d6a7	-0.024028135
43	0xbba2dbc8	-0.0049700476
44	0xbd2b959e	-0.041890733
45	0xbcbae1a0	-0.022812665
46	0xbc67ed70	-0.014155731
47	0x3d78ec87	0.060772445
48	0xbd1c8a79	-0.038217995
49	0x39fba28e	0.00047995563
50	0x3c8737c5	0.016506085
51	0xbd49f9e7	-0.04931059
52	0xbc77b1d6	-0.015118083
53	0x3db66693	0.08906283
54	0xbb84211d	-0.0040322677
55	0x3c31a50e	0.010842575
56	0x3c638830	0.01388745
57	0x3c94028c	0.01806762
58	0xbd36e938	-0.04465601
59	0x3d1b0faf	0.037856754
60	0x3cd25e99	0.025679873
61	0xbc801ea2	-0.015639607
62	0xbb57f3e5	-0.003295177
63	0xbc8b9d24	-0.017042704
64	0x3d9c235f	0.07623934
65	0x3a9817f1	0.0011603815
66	0x3b824b91	0.0039762934
67	0x3cb38ab1	0.02191672
68	0xbc64e8b6	-0.013971498
69	0xbbb008d7	-0.0053721475
70	0x3b517955	0.0031963189
71	0xbca5f5e5	-0.020258853
72	0xbb9ed3bf	-0.0048470194
73	0xbcec271f	-0.028827248
74	0xbd04935f	-0.032367107
75	0xbcb78660	-0.022402942
76	0x3c4a2f5e	0.012340395
77	0xbc2712af	-0.010197326
78	0x3d4953f4	0.04915233
79	0x3ced7b06	0.028989326
80	0x3b6d5b51	0.003621776
81	0xbb4a253b	-0.0030844945
82	0xbb3a762b	-0.0028451781
83	0x3d99ce94	0.07510105
84	0x3c0b57aa	0.008504787
85	0x3ba5b969	0.005057503
86	0x3d4be7b2	0.04978151
87	0x3bb0d91a	0.0053969743
88	0x3c588cd8	0.0132171735
89	0xbc3630cd	-0.011120033
90	0xbd2f059c	-0.04272996
91	0xbad43e65	-0.0016192911
92	0x3dbeb7fe	0.093124375
93	0x3cfd639d	0.030931288
94	0xba1831ab	-0.0005805741
95	0xbc521afc	-0.012823816
96	0x3c31d592	0.010854142
97	0x3d3d372f	0.046195205
98	0x3c92eb98	0.017934605
99	0x3c777f3f	0.015106021
100	0xbbf27904	-0.00739968
101	0x3dda1ac1	0.10649634
102	0x3c1562c1	0.009117783
103	0x3c9e00e3	0.019287532
104	0xbb876eeb	-0.0041330955
105	0xbc4e13ca	-0.01257796
106	0x3b8d2759	0.004307669
107	0x3d8ee40e	0.06977092
108	0x3cc72a3d	0.024312133
109	0xbd84a7f7	-0.06477349
110	0xbc106027	-0.008811987
111	0x3bda816e	0.0066682613
112	0xbcbb4f4f	-0.022864966
113	0x3d39a918	0.045327276
114	0x3b6980d4	0.0035629766
115	0x3c0244c2	0.007950963
116	0x3d328d36	0.0435917
117	0xbc9ab328	-0.018884256
118	0xbcd1f130	-0.025627702
119	0xbcc2ba85	-0.02377058
120	0x3bf51d36	0.007480289
121	0x3ce35b9c	0.027753644
122	0xbbe32eb4	-0.0069330577
123	0x3c8400e5	0.016113708
124	0x3c90f68e	0.017695691
125	0x3a2fd7d4	0.0006707881
126	0xbc8aa862	-0.016925994
127	0x3caace14	0.020850219
