p3_collab-compet/actor_final_weights.pth (torch_old, 85051 bytes, 10 tensors)

fc1.weight f4 [164, 24]
0	0xbedf8a24	-0.4366008
1	0x3df0d402	0.11759187
2	0xbf4760cc	-0.77882075
3	0xbe8f7683	-0.28020105
4	0x3f95c8c0	1.1701889
5	0xbdd23612	-0.10264219
6	0xbf58acaf	-0.84638494
7	0x3e0d0f13	0.13775282
8	0x3db9af74	0.09066668
9	0xbfbf0092	-1.4922049
10	0xbdbb79d0	-0.09154093
11	0xbd06eafc	-0.032938942
12	0x3ef90d84	0.48643124
13	0xbe81b897	-0.25336143
14	0xbe60f34a	-0.21967807
15	0xbe343e5c	-0.17601913
16	0xbf152193	-0.58254355
17	0xbf38509b	-0.71997994
18	0x3e6cac5e	0.23112628
19	0x3e701a96	0.23447642
20	0xbebf4e18	-0.37364268
21	0xbf8f1dae	-1.1180933
22	0x3f18df2c	0.59715533
23	0x3f73eb53	0.9528095
24	0x3e4bc2f8	0.19898593
25	0xbf03b382	-0.5144578
26	0xbf3f96ec	-0.74839664
27	0xbf2b29fd	-0.66860944
28	0x3f4ed373	0.80791396
29	0xbe5ce1f1	-0.21570565
30	0xbf45835e	-0.77153575
31	0xbd52787b	-0.05138443
32	0x3efe9a3f	0.49727055
33	0xc00af84e	-2.1714053
34	0xbe8fca1b	-0.28083882
35	0x3d5e96c7	0.05434301
36	0x3ef441af	0.47706363
37	0x3f2631b5	0.64919597
38	0x3e822f27	0.254266
39	0xbfa3f3e6	-1.2808807
40	0xbe350c3f	-0.17680453
41	0xc002d4a6	-2.044229
42	0xbdfd1c1b	-0.12358876
43	0xbc06a036	-0.008216908
44	0x3ed5e9ef	0.4178004
45	0x3f924d54	1.1429849
46	0x3eacc2ef	0.33742473
47	0xc004da81	-2.0758364
48	0xbf47cb8c	-0.7804496
49	0x3f406a62	0.7516233
50	0xbf118567	-0.5684418
51	0x3ef8e22c	0.48610055
52	0x3dff96cd	0.12479935
53	0x3cb76e7e	0.022391554
54	0xbea25bab	-0.31710562
55	0xbe7a2f1b	-0.24432032
56	0xbe0bf3dc	-0.13667244
57	0x3f51b831	0.8192168
58	0xbd6b23ed	-0.05740731
59	0xbd64e6d1	-0.055884186
60	0x3f0a041b	0.53912514
61	0xbf83ea9c	-1.0305972
62	0x3e896f23	0.26842603
63	0x3fa6732d	1.3003899
64	0xbf39de18	-0.72604513
65	0x3fa050f5	1.2524706
66	0xbf27ab49	-0.65495735
67	0x3d783903	0.060601246
68	0xbe922071	-0.28540376
69	0xbf5bb37a	-0.85820735
70	0xbfbf474f	-1.4943637
71	0xbe329c66	-0.17442474
72	0xbf3e2276	-0.74271333
73	0x3ec0ec42	0.3768025
74	0xbef0e2b4	-0.4704796
75	0xbdb2add9	-0.08724565
76	0x3fa890df	1.3169211
77	0x3f68db1e	0.90959346
78	0xbe935110	-0.28772783
79	0x3eb44375	0.35207716
80	0xbda85479	-0.08219237
81	0x3f2f9eb8	0.6860156
82	0xbe38eaa5	-0.1805826
83	0xbd969fd4	-0.073547035
84	0x3f56ed65	0.83955985
85	0xbbc24ea1	-0.0059297835
86	0xbe281236	-0.16413197
87	0x3ea4d557	0.32194015
88	0xbf7db118	-0.9909835
89	0x3f3264ca	0.6968504
90	0x3e0fb196	0.14032587
91	0xbe7eae13	-0.24871092
92	0xbe053d3a	-0.13011637
93	0xbf32be8d	-0.6982201
94	0x3d431ced	0.047635008
95	0xbe67d476	-0.22639641
96	0xbf4883d4	-0.78326154
97	0x3f0872e0	0.53300285
98	0xbf63ad29	-0.88936096
99	0x3f59a0be	0.850109
100	0xbed78bf5	-0.42098966
101	0xbfa27d40	-1.2694473
102	0xbf60301c	-0.8757341
103	0xbe66c6ba	-0.22536746
104	0xbdee91aa	-0.11648877
105	0xbd9fb6e7	-0.07798558
106	0xbd11f956	-0.035638176
107	0x3e200dd0	0.15630269
108	0x3f5c2f53	0.8600971
109	0x3fc5245c	1.5401721
110	0x3c34926b	0.011021237
111	0x3ebffdfc	0.37498462
112	0xbec96283	-0.3933297
113	0xbd7fd875	-0.06246229
114	0xbe4e9e1b	-0.201775
115	0x3d96be45	0.0736051
116	0x400c078e	2.187961
117	0x3f93d169	1.1548282
118	0x3e265b41	0.16245748
119	0xbe046d20	-0.12932253
120	0x3f4862a5	0.7827552
121	0x3f8d1393	1.1021599
122	0xbe9e64a7	-0.30936167
123	0x3e846750	0.2586007
124	0xbe499497	-0.19685589
125	0x3f0e5275	0.5559457
126	0xbebda47a	-0.37039548
127	0x3daa05cf	0.08301889
128	0x3e90d6e5	0.28288952
129	0x3f6c7359	0.92363507
130	0xbdd9bc5b	-0.10631629
131	0xbe1d52c6	-0.15363607
132	0x3ef69895	0.48163286
133	0x3f31a3c9	0.6939054
134	0xbeec8f9b	-0.46203312
135	0x3f3636af	0.7117719
136	0xbf040ae7	-0.51579136
137	0x3fbdbb0b	1.4822706
138	0x3de6fbf4	0.11278525
139	0x3ecb00d5	0.39649072
140	0x3e57ca57	0.2107328
141	0xbfc26daa	-1.5189717
142	0x3e99782f	0.29974505
143	0x3f446127	0.7671074
144	0xc00baa40	-2.1822662
145	0x3e665af2	0.2249563
146	0xbf768b82	-0.9630662
147	0xbe9ac1ba	-0.30225927
148	0x3e334f54	0.1751073
149	0xbeb4ab6f	-0.35287043
150	0xbf59bfd8	-0.85058355
151	0xbe45b06b	-0.1930558
152	0xbe9c7654	-0.30559027
153	0xbea14913	-0.31501064
154	0x3e18dd0b	0.14928071
155	0xbe1b16de	-0.15145442
156	0x3f81bfa1	1.0136606
157	0x3e01bd06	0.12669763
158	0x3d92c18a	0.07165821
159	0xbf83b846	-1.0290611
160	0xbe9dfe89	-0.30858257
161	0xbe8ceb0e	-0.27523082
162	0xbef53039	-0.47888353
163	0x3e5ac747	0.21365081
164	0xbf2d15dc	-0.6761148
165	0x3f9a889b	1.2072939
166	0x3fa0f2a4	1.2574048
167	0x3ea269d1	0.31721357
168	0x3f1415dd	0.5784586
169	0x3e0e7bab	0.13914363
170	0x3eae29c9	0.34016255
171	0xbdfeb58f	-0.12436973
172	0x3eaa6b8f	0.33285186
173	0xbf0a4f4f	-0.54027265
174	0xbf9dfe07	-1.2343148
175	0x3e569773	0.20956211
176	0x3eb896e5	0.36052623
177	0xbe31712f	-0.17328332
178	0xbd6825e0	-0.056676745
179	0xbe40c0c2	-0.18823531
180	0x3f03b358	0.5144553
181	0x3f14a34f	0.5806169
182	0xc04e3293	-3.2218368
183	0x3efd4b91	0.49471715
184	0x3de05088	0.1095286
185	0xbc401db0	-0.011725828
186	0xbe201f9b	-0.15637057
187	0x3da60e1e	0.081081614
188	0x3f086c3c	0.5329015
189	0x3f18f921	0.5975514
190	0xbf84c860	-1.037365
191	0x3fc31865	1.524182
192	0xbe75a657	-0.23989235
193	0x3e5e75f1	0.21724679
194	0xbf1c2bdb	-0.6100442
195	0xbe9fce5d	-0.3121213
196	0x3f17d0d0	0.59303
197	0xbfe3c6f4	-1.7795091
198	0xbfd6d22c	-1.6782889
199	0xbd15ffcb	-0.036620896
200	0xbe335dad	-0.17516203
201	0xbeec5478	-0.46158195
202	0x3f1b3547	0.6062817
203	0x3d85eb31	0.06539
204	0x3f319f30	0.69383526
205	0xbe53f78a	-0.20699897
206	0xbfd47c2c	-1.6600394
207	0xbe1693c3	-0.14704804
208	0xbeba1ba9	-0.36349228
209	0xbf013e24	-0.50485444
210	0xbe146537	-0.14491735
211	0x3ef41325	0.47670856
212	0x3e8eecdc	0.27915084
213	0xbf01eb46	-0.50749624
214	0x3e7ad2cd	0.24494477
215	0xbeef721c	-0.46766746
216	0xbe8ec969	-0.2788804
217	0x3f50cb70	0.8156042
218	0xbddbfd05	-0.10741619
219	0x3e534115	0.20630296
220	0x3e727c9e	0.2368035
221	0xc001788a	-2.0229821
222	0xbe8dc9fa	-0.27693158
223	0xbd84d44e	-0.064858064
224	0xbe8cb5f6	-0.27482575
225	0x3f6e86fa	0.9317471
226	0x3e17f5d0	0.14839864
227	0xbdcfa152	-0.10138191
228	0x3dfa2a72	0.12215127
229	0x3f1c0089	0.60938317
230	0x3ed57c5a	0.41696435
231	0xbd844ae9	-0.064596005
232	0x3db45ef7	0.088071756
233	0xbd815075	-0.06314174
234	0x3dd6d6d8	0.10490197
235	0x3e2eaba9	0.1705767
236	0x3f1c0b06	0.6095432
237	0x3fb72d4e	1.4310701
238	0xbe9598db	-0.29218182
239	0x400a51bd	2.161239
240	0x3f166c06	0.5875858
241	0x3f1bb9b7	0.60830253
242	0xbecc254b	-0.39872202
243	0xbf3a6fd0	-0.7282686
244	0xbf35be2f	-0.7099332
245	0x3e6dc920	0.23221254
246	0xbeb5e64f	-0.35527274
247	0xbdd27a36	-0.10277216
248	0xbe3f9ca7	-0.18712102
249	0x3ebf52d1	0.3736787
250	0xbdf4db68	-0.11955911
251	0xbcafe8c1	-0.02147329
252	0x3df250d8	0.11831826
253	0x3e8c1326	0.2735836
254	0x3d42875b	0.047492366
255	0xbf46ed16	-0.77705514

fc1.bias f4 [164]
0	0xbf4880a1	-0.7832127
1	0xbf2613a2	-0.6487371
2	0xbf5f4d34	-0.8722718
3	0xbf0740e6	-0.528334
4	0xbfafb8fa	-1.3728325
5	0xbe54429f	-0.20728539
6	0xbf7b5169	-0.981711
7	0xbf10077a	-0.5626141
8	0xbf87797c	-1.0583949
9	0xbea21c8b	-0.31662402
10	0xbebc7d9d	-0.36814585
11	0xbe91b1f2	-0.28456074
12	0x3f37aba5	0.71746284
13	0x3e6b529b	0.2298073
14	0xbf1d074c	-0.6133926
15	0xbf87a95f	-1.0598563
16	0xbe267bd4	-0.16258174
17	0x3e916f79	0.2840536
18	0xbf82538d	-1.0181748
19	0x3dd362d5	0.10321585
20	0xbefce855	-0.49396005
21	0xbe41bdea	-0.18920103
22	0xbf90927f	-1.1294707
23	0xbf848a88	-1.0354776
24	0xbfb57c06	-1.4178474
25	0xbfb98fc6	-1.4497001
26	0xbfac88ca	-1.3479245
27	0x3ec6b89b	0.38812718
28	0xbf16e2c6	-0.5893978
29	0xbea77a8c	-0.32710683
30	0xbf7e8b9d	-0.9943178
31	0xbf7c3d14	-0.985307
32	0x3ee79bcc	0.4523605
33	0xbf00b291	-0.5027247
34	0xbee5b9f0	-0.44868422
35	0xbf68072d	-0.9063595
36	0xbf484a2f	-0.78238195
37	0xbedef362	-0.4354506
38	0x3dc251c2	0.0948825
39	0xbfc52f0b	-1.5404981
40	0xbec3fa12	-0.38276726
41	0xbf41e686	-0.75742376
42	0xbecd164a	-0.40056068
43	0x3e165349	0.14680208
44	0xbf7a6b8a	-0.9782034
45	0xbedd90b2	-0.43274456
46	0xbefbed13	-0.4920431
47	0x3f0db621	0.5535603
48	0xbf690955	-0.91029865
49	0xbd3357a4	-0.043784752
50	0xbe00b4cc	-0.12568969
51	0xbe6e03a0	-0.2324357
52	0xbf8157c7	-1.0104913
53	0xbf521cfa	-0.82075465
54	0xbfb538e5	-1.4157988
55	0xbf4881eb	-0.7832324
56	0xbf6878e2	-0.9080945
57	0xbe94090d	-0.28913155
58	0xbecee445	-0.4040853
59	0xbf1d4976	-0.6144022
60	0xbf6a780e	-0.9158944
61	0xbfa15813	-1.2605003
62	0xbdeb0eb9	-0.114774175
63	0xbf58a749	-0.84630257
64	0x3e52413b	0.20532696
65	0xbebea00a	-0.37231475
66	0xbf11fef7	-0.5702967
67	0xbed3f7cf	-0.414
68	0xbef8505d	-0.48498812
69	0xbf0abfcb	-0.541989
70	0xbf851f65	-1.0400206
71	0xbfa4cdfc	-1.2875361
72	0xbf89a1c3	-1.0752491
73	0xbf591ac9	-0.84806496
74	0xbeca93a3	-0.39565763
75	0xbf19a96b	-0.60024136
76	0xbf0a6866	-0.5406555
77	0xbeb14216	-0.34620732
78	0xbf7e032d	-0.99223596
79	0xbf52a7e4	-0.8228743
80	0xbe723a39	-0.23655023
81	0xbe0a2d7a	-0.1349391
82	0x3d1ebd14	0.038754538
83	0xbfd0d6e5	-1.6315581
84	0xbdeda2bc	-0.11603305
85	0x3d849c54	0.0647513
86	0xbf40f6b4	-0.7537644
87	0xbe8a929a	-0.27064973
88	0xbdc07b5a	-0.093985274
89	0xbfa82871	-1.3137342
90	0xbe839cf6	-0.2570569
91	0xbf4f3b25	-0.8094962
92	0xbf9f80a8	-1.2461138
93	0xbfa5f97a	-1.2966759
94	0xbf554f21	-0.83323866
95	0x3edaed11	0.42758992
96	0xbeadf189	-0.3397334
97	0xbf7185c8	-0.9434476
98	0x3e5a8986	0.21341524
99	0xbf970374	-1.1797929
100	0xbeacfa05	-0.337845
101	0xbf9c2722	-1.2199442
102	0xbdc5cc10	-0.096580625
103	0xbf8323fc	-1.0245357
104	0xbfa00724	-1.2502179
105	0xbebb48ab	-0.3657888
106	0x3e773131	0.24139859
107	0x3e805e14	0.25071776
108	0xbe98f4ab	-0.29874167
109	0xbfba6c55	-1.456431
110	0xbe877f89	-0.2646449
111	0xbf3de684	-0.74179864
112	0xbe38ed74	-0.18059331
113	0xbfa943ce	-1.3223817
114	0xbe624d43	-0.22099786
115	0xbf15d5a4	-0.58529115
116	0xbf3ad9c1	-0.72988516
117	0xba22e17b	-0.0006213409
118	0xbe168226	-0.14698085
119	0xbf928ae7	-1.144864
120	0xbf85ea34	-1.0462098
121	0xbf45f807	-0.77331585
122	0xbf16ac97	-0.588571
123	0x3d058e0e	0.032606177
124	0xbeff1c9c	-0.49826515
125	0xbf3d0d8e	-0.7384881
126	0x3e1ed980	0.15512657
127	0xbc6ca68b	-0.014444004
128	0x3d220a0d	0.039560366
129	0xbf1d0b96	-0.61345804
130	0xbe3a2afe	-0.18180463
131	0xbed86437	-0.42263958
132	0xbf402f08	-0.75071764
133	0xbf6617df	-0.89880174
134	0xbe86f3da	-0.2635792
135	0x3d09ebc4	0.03367211
136	0x3e9cccec	0.30625093
137	0xbf4db13a	-0.8034855
138	0xbeb548c4	-0.35407078
139	0x3e01dd1e	0.12682006
140	0xbf8e4ff2	-1.1118147
141	0xbe5a9255	-0.21344884
142	0xbf1b54be	-0.6067618
143	0x3ee9b856	0.4564845
144	0xbeb0a26b	-0.34498915
145	0xbef343bf	-0.47512624
146	0xbf0e00c7	-0.55469936
147	0xbf12dbb2	-0.5736648
148	0xbf4f2e86	-0.80930364
149	0xbf0d4d45	-0.5519603
150	0x3e7182b6	0.23585019
151	0xbf31928e	-0.6936425
152	0xbdfaeccc	-0.12252197
153	0x3e137260	0.143991
154	0x3e3e2f07	0.18572627
155	0xbf731247	-0.94949764
156	0xbef7878d	-0.48345605
157	0xbf9e0fc6	-1.2348564
158	0xbd3e2a3c	-0.046426997
159	0xbf5b7d3c	-0.8573797
160	0xbee240da	-0.44190103
161	0xbf1f4f71	-0.6223059
162	0xbf746571	-0.9546729
163	0xbfbc14b0	-1.4693813

fc2.weight f4 [100, 164]
0	0xbe6c3a19	-0.23069037
1	0x3f151e52	0.5824939
2	0xbffb22fb	-1.962005
3	0xbf97743b	-1.1832346
4	0xc02abe37	-2.6678598
5	0xbeac81d9	-0.33692816
6	0xbf471b86	-0.7777637
7	0xbe05c2f2	-0.13062647
8	0xbf5189f9	-0.81851155
9	0xbf0d76ae	-0.55259216
10	0x3ef20ce7	0.4727547
11	0xbc1afac1	-0.009459198
12	0x3e0981ac	0.13428372
13	0xc011dc83	-2.279084
14	0xbe265922	-0.16244939
15	0x3ed4896d	0.41511098
16	0x3f46a091	0.77588755
17	0xbf17776a	-0.59166586
18	0x3f9c48d6	1.2209728
19	0xbcfaaa73	-0.030598855
20	0x3c7faa4c	0.015604567
21	0xbef13d6a	-0.47117168
22	0xbf874713	-1.0568565
23	0xbf91c3e6	-1.1387908
24	0x3d6e5a07	0.058191326
25	0xbf91d535	-1.1393191
26	0x40152848	2.3305836
27	0x3ce07a5c	0.027402095
28	0x402d46b7	2.707441
29	0x3e548e8f	0.20757507
30	0x3fa03428	1.2515917
31	0x3fb4a3e2	1.4112513
32	0xbf2b2b39	-0.6686283
33	0x3efb263a	0.49052602
34	0x3e032ff7	0.12811266
35	0xbd4a1985	-0.049340744
36	0xbf55155d	-0.8323572
37	0x3f48e60b	0.7847602
38	0x3fc0b37f	1.5054778
39	0xbf51eabb	-0.81998795
40	0xbf6d016c	-0.92580295
41	0xbfd8bb2e	-1.6932123
42	0x3e5c4396	0.21510157
43	0xbf2480ab	-0.6425883
44	0xc040bb47	-3.0114305
45	0xbfcad158	-1.5845137
46	0xc002fe7c	-2.0467825
47	0xbd855c4b	-0.06511744
48	0x3f4a51f6	0.7903131
49	0xbf2dabac	-0.67840075
50	0x3fa2a53d	1.2706677
51	0xbf012639	-0.5044895
52	0x3f7f8e4a	0.9982649
53	0xbf880a56	-1.0628154
54	0xbff6aa1d	-1.9270664
55	0xbf482b7a	-0.7819134
56	0xbeecfbda	-0.46285897
57	0xc0112848	-2.2680836
58	0x4007d570	2.1224022
59	0xbfd808bd	-1.6877667
60	0xbed2f562	-0.41202837
61	0xbebba715	-0.3665091
62	0x400980a1	2.148476
63	0x3fefa2b4	1.8721528
64	0x3e5c39fd	0.21506496
65	0x3eb42db1	0.3519111
66	0x3eccb9e6	0.3998558
67	0xbfa5ab57	-1.2942914
68	0x3e60a10c	0.21936435
69	0x3d8cba44	0.06871465
70	0x3efaf7aa	0.49017078
71	0x3edbe389	0.42947033
72	0xbf87e76b	-1.0617498
73	0x3ee37f7d	0.44433203
74	0xbeab65c5	-0.33476081
75	0x3f300d55	0.68770343
76	0xbfa4e9b9	-1.2883826
77	0x3e219e65	0.15783079
78	0x3f9e773d	1.2380139
79	0x3eeffb15	0.46871248
80	0x3f803bc0	1.0018234
81	0xbc3e68b0	-0.011621639
82	0x3f8303f4	1.0235581
83	0xbe64215d	-0.22278352
84	0x3f2a57a4	0.6653998
85	0x3f396af5	0.7242883
86	0xbeab142e	-0.33413833
87	0xbf9674f7	-1.1754445
88	0x3f5acbf5	0.85467464
89	0xbf9a6339	-1.206153
90	0xbfafa7fb	-1.3723139
91	0xbf065f7a	-0.52489436
92	0xbf8c8ec1	-1.0981065
93	0xc0028463	-2.0393302
94	0xbdce4096	-0.100709125
95	0xc01baf3e	-2.432571
96	0x3fb8a0e8	1.4424105
97	0xc046a0e0	-3.103569
98	0x40047c0b	2.070071
99	0x3d6e3af0	0.058161676
100	0xbf891d01	-1.0711976
101	0xbcd61be7	-0.026136352
102	0x3c806b2d	0.015676105
103	0x3f397c6b	0.7245547
104	0x3e6f99ad	0.23398466
105	0xbeaa1ed2	-0.3322664
106	0xbcf047d5	-0.029331127
107	0xbf282c2b	-0.65692395
108	0x3f45588e	0.7708825
109	0xbf8038a2	-1.0017283
110	0x3ed508c6	0.41608256
111	0xbe789384	-0.24275023
112	0xc008e42b	-2.1389263
113	0xbf8688aa	-1.0510457
114	0x3eb3880c	0.35064733
115	0x3f211407	0.62921184
116	0x3f94f52a	1.1637318
117	0x3f5bb3b6	0.8582109
118	0xbf9ef67b	-1.241897
119	0xbf633c85	-0.8876422
120	0xc013fae7	-2.3121889
121	0xbe841324	-0.25795853
122	0x3eca9383	0.39565668
123	0xbf02a49e	-0.51032436
124	0x3d1392a3	0.036028516
125	0x3efba0b6	0.4914605
126	0x40422ebf	3.0341032
127	0x3ef42289	0.47682598
128	0x3ee4ef6a	0.44713908
129	0x3e8d9c37	0.27658245
130	0xbe9047ea	-0.28179866
131	0x3f7b5d39	0.9818912
132	0x3ce8277f	0.028339146
133	0x3fa8f01e	1.3198278
134	0x3cb9d0cc	0.02268257
135	0xbf9048ea	-1.1272252
136	0xbf71a6ea	-0.94395316
137	0x3d3fc533	0.046818923
138	0xbf231837	-0.63708824
139	0xc011178d	-2.2670624
140	0x3e488252	0.19580963
141	0x3fa8fc5d	1.3202015
142	0x3b1c471c	0.0023846095
143	0xbe1de6dd	-0.15420099
144	0xbe37fbcc	-0.17967147
145	0xbefa7871	-0.48920015
146	0xbf5d9609	-0.8655706
147	0x3f752de9	0.9577318
148	0x4015f65c	2.3431616
149	0xbf6ef11d	-0.9333666
150	0x3f414fbc	0.7551229
151	0x3fb98b36	1.4495609
152	0x3e9c2c07	0.3050234
153	0xbea4e455	-0.32205454
154	0x40026aab	2.0377605
155	0xbf4a6c8f	-0.790719
156	0xbec57bb3	-0.38570938
157	0xc0091761	-2.142052
158	0x3fb4dc6d	1.4129769
159	0x3eafd7b4	0.34344256
160	0xc074ec57	-3.826925
161	0xc01cabd1	-2.4479868
162	0x3c432d9c	0.01191273
163	0xc00a674a	-2.1625543
164	0xbe9d27c2	-0.30694395
165	0xbe647c45	-0.2231303
166	0xc017c2d7	-2.371267
167	0x3f2ed00d	0.6828621
168	0x3ea14819	0.3150032
169	0xbf2da907	-0.6783604
170	0xbf1b5cf7	-0.6068873
171	0x3ed3722a	0.41298038
172	0xbfc25185	-1.5181128
173	0xbfca7fab	-1.5820211
174	0xbf6e65f5	-0.93124324
175	0xbec208b8	-0.37897277
176	0xbee79c9b	-0.45236668
177	0xbfb04c1e	-1.3773229
178	0xbfce8735	-1.6135012
179	0xbf9aba6f	-1.2088145
180	0x3ec0ac5a	0.37631494
181	0xbfa03989	-1.2517558
182	0xbfa4fc1a	-1.2889435
183	0xbfae7a37	-1.3631047
184	0xbec646ee	-0.3872599
185	0xbfcd4f36	-1.6039798
186	0xbf285ad0	-0.6576357
187	0xbda781db	-0.08179065
188	0x3e78f673	0.24312763
189	0xbe08237b	-0.13294785
190	0x3fa290f0	1.2700481
191	0xbf6ad942	-0.9173776
192	0xbf430d76	-0.76192415
193	0xbff04a77	-1.8772725
194	0xbfbeae20	-1.4896889
195	0x3e7cbaf2	0.24680689
196	0xbf744adc	-0.95426726
197	0xbfddb36f	-1.7320384
198	0xbe7e25da	-0.24819127
199	0xbeba9e6e	-0.36448997
200	0xbfd9efeb	-1.7026342
201	0xbeba470b	-0.36382326
202	0xbf486839	-0.7828403
203	0x3f01023c	0.50394034
204	0xbfd2fde3	-1.648373
205	0x3ed90bcb	0.4239181
206	0xbf2ef34f	-0.6834001
207	0x3e8e3469	0.2777436
208	0xbff0d949	-1.881631
209	0xbfd6bbbd	-1.6776043
210	0xbefa4493	-0.48880443
211	0x3f0ee3c8	0.55816317
212	0xbfbb7f3f	-1.4648207
213	0x3eb15046	0.34631556
214	0xbf98e919	-1.1946136
215	0xc077abe5	-3.8698666
216	0xbfb9f4e4	-1.452786
217	0x3efd8090	0.49512148
218	0xbf5eef15	-0.8708356
219	0xbeac1003	-0.33605966
220	0xbf6bee40	-0.92160416
221	0x3f490f69	0.7853914
222	0x3fdd9223	1.7310222
223	0xbfba1179	-1.4536582
224	0x3ff78b0d	1.933931
225	0xbf504141	-0.8134957
226	0x3e16b26f	0.14716505
227	0xbeec1b94	-0.4611479
228	0xbfd88169	-1.6914493
229	0xbf836df1	-1.0267926
230	0xc05b1bd3	-3.4235733
231	0xbe9fd44b	-0.31216654
232	0x3e8a76dd	0.2704381
233	0x3fd315dc	1.6491046
234	0x3f175f40	0.59129715
235	0xbf970458	-1.1798201
236	0xbf61bcc3	-0.8817865
237	0xc01c1780	-2.4389343
238	0xbf5ff294	-0.8747952
239	0xbfbfba86	-1.4978797
240	0xbe802822	-0.2503062
241	0x3e868c60	0.26278973
242	0x3f76a94a	0.96352065
243	0x3e25fe70	0.16210341
244	0xbf2af8bc	-0.6678579
245	0xbc9a7586	-0.018854868
246	0xbf4eaa54	-0.8072865
247	0xbd673bf8	-0.056453675
248	0xbe7c152e	-0.24617454
249	0x3f29db59	0.6635032
250	0x3e9493a7	0.290189
251	0xbf8a50c3	-1.0805897
252	0xbfb8023a	-1.437568
253	0x3f0223f5	0.50836116
254	0xbfd1d1ce	-1.6392152
255	0x3e53a543	0.20668511

fc2.bias f4 [100]
0	0xbfe1644c	-1.7608733
1	0xbd81d7ea	-0.063400105
2	0xbfa9a6a1	-1.3253976
3	0xbe5e5073	-0.21710376
4	0xbf5ebb99	-0.87005
5	0xbf473a41	-0.77823263
6	0xbfa89f51	-1.317362
7	0x3f2e1db0	0.6801405
8	0xc00dc012	-2.214848
9	0xbe02c315	-0.1276973
10	0x3fbec652	1.4904273
11	0xbdfe6137	-0.12420886
12	0xbe062564	-0.13100201
13	0x3e2bf97f	0.16794394
14	0xc02d7621	-2.710335
15	0xbfdc4449	-1.7208339
16	0x3e2b29c7	0.16715156
17	0x3f2790d5	0.6545537
18	0xbe971e74	-0.2951542
19	0xbfff93a8	-1.9966936
20	0xbf2c98a1	-0.67420393
21	0x3eb23906	0.3480913
22	0xbe31ee95	-0.17376168
23	0xbf517d5b	-0.818319
24	0xbe659aac	-0.22422284
25	0xbf5f3e9e	-0.8720492
26	0xbf64d405	-0.89386016
27	0xbfb665c8	-1.4249811
28	0xbdaee68f	-0.08540069
29	0xbe658668	-0.22414553
30	0xbea69f5c	-0.32543457
31	0xbfabf41b	-1.343387
32	0xbf40d4b0	-0.75324535
33	0xbf7b7598	-0.9822631
34	0xbe32b9a3	-0.17453627
35	0xbee9846a	-0.45608836
36	0x3f598f07	0.8498387
37	0xbedfc84a	-0.43707496
38	0xbf291eff	-0.6606292
39	0xbf05c0f0	-0.52247524
40	0xbe9924df	-0.29910943
41	0xbe9b6953	-0.30353794
42	0x3f928035	1.1445376
43	0x3f400f4f	0.7502336
44	0xbee07f08	-0.43846917
45	0xbf89071b	-1.0705293
46	0xbf22ac6b	-0.6354434
47	0xbf13d0ae	-0.57740295
48	0x3ea8864f	0.3291497
49	0xbf037d16	-0.5136274
50	0xbe7a6ab9	-0.24454774
51	0xbfb255ee	-1.3932474
52	0xbf1c757c	-0.61116767
53	0xbfc798e9	-1.559354
54	0x3eedc09c	0.46436012
55	0xbe8d4e94	-0.27599013
56	0xbf7d3c70	-0.98920345
57	0xbf1a124e	-0.6018418
58	0xbf697722	-0.9119741
59	0x3e9cfd05	0.3066179
60	0xbf789c29	-0.9711328
61	0xbd29347a	-0.04130981
62	0xbf9e10f5	-1.2348925
63	0x3e1eb6d3	0.1549943
64	0xbffafb84	-1.9608006
65	0xbf3c8689	-0.73642784
66	0xc050dbad	-3.263408
67	0xbf3bf549	-0.7342115
68	0xbfaefd05	-1.3670965
69	0xbf14bcd3	-0.5810062
70	0xbf3bfcce	-0.73432624
71	0xbfdf39b2	-1.7439482
72	0xbd44d75e	-0.048056953
73	0xbf48b743	-0.78404635
74	0xbfa493fa	-1.2857659
75	0x3e936e2a	0.28794986
76	0xbefb45b0	-0.49076605
77	0xbec33770	-0.38128233
78	0xbe18572c	-0.14877003
79	0x3ec547e0	0.385314
80	0xbf51bc89	-0.81928307
81	0xbf81456a	-1.0099308
82	0xbebd19ad	-0.36933652
83	0xbf20f4b7	-0.62873405
84	0xbe24ae7f	-0.1608219
85	0xbd89c132	-0.06726302
86	0xbfa2b1cd	-1.271051
87	0xbf390d31	-0.72285753
88	0xbfc3ed5b	-1.530681
89	0x3d959492	0.07303728
90	0xc003fdf0	-2.062374
91	0x3f72d93e	0.94862735
92	0xbf4c06f0	-0.79698086
93	0x3e5bb22f	0.2145469
94	0x3f611239	0.8791843
95	0x3eaa2a08	0.33235192
96	0xbda76caa	-0.08175023
97	0x3f321823	0.6956808
98	0x3f2c3dd7	0.6728186
99	0xbe507b2a	-0.20359483

fc3.weight f4 [2, 100]
0	0x3e455b9b	0.19273226
1	0xbca84c4d	-0.020544196
2	0x3e4acaa6	0.19803867
3	0x3d296a01	0.04136086
4	0x404f2bbe	3.2370448
5	0x3f9eae50	1.2396946
6	0xbeff9ea6	-0.49925727
7	0x3fc69c00	1.5516357
8	0xbf0e1642	-0.5550271
9	0xbd0f5c08	-0.034999877
10	0x3eef6633	0.4675766
11	0x3ffa9137	1.9575566
12	0x3d834402	0.06409456
13	0xbe97ab3d	-0.29622832
14	0x3f3eae11	0.74484354
15	0x40403ce0	3.0037155
16	0xc020a93a	-2.5103288
17	0xbe40fcb1	-0.18846394
18	0x3dbdbd91	0.092646725
19	0xbd051c24	-0.03249754
20	0xbe201632	-0.15633467
21	0xbf14fc1e	-0.581972
22	0x3b6fa101	0.0036564472
23	0x3e3b0827	0.18264829
24	0xbeb3e666	-0.35136718
25	0xc024e701	-2.5765994
26	0x3f3375e9	0.7010179
27	0xbe368264	-0.17823178
28	0x3ce13a28	0.027493551
29	0xbd812b8b	-0.06307133
30	0xbe02d284	-0.12775618
31	0xbfbe083b	-1.4846262
32	0x3e92b831	0.28656152
33	0xbdfe0365	-0.12402991
34	0xbc853872	-0.016262267
35	0xbea49c62	-0.3215056
36	0x3e21b971	0.15793397
37	0x3ec70387	0.3886988
38	0x3ed10038	0.4082048
39	0x3ecac510	0.39603472
40	0xbde2bf0a	-0.11071594
41	0xbf215a17	-0.6302809
42	0xbed88436	-0.4228837
43	0x3e56452a	0.20924821
44	0xbed6a94e	-0.41926044
45	0xc081ae62	-4.052537
46	0xbc834d92	-0.0160282
47	0xbe06a780	-0.13149834
48	0xbde2b0d0	-0.110688806
49	0x3eb6400f	0.35595748
50	0xbfad8707	-1.3556832
51	0x3dceb87e	0.10093783
52	0xbed6a80a	-0.4192508
53	0x3f96eaff	1.1790465
54	0xbe7ae9eb	-0.24503295
55	0xbe0e520e	-0.13898489
56	0xbec1f548	-0.37882447
57	0xbded9022	-0.11599757
58	0x3ffee3a1	1.9913217
59	0xbe379b29	-0.17930283
60	0x3e160f40	0.14654255
61	0x3e1da232	0.15393904
62	0x3f7a6cfb	0.9782254
63	0x4077ac32	3.869885
64	0x3ec41ffa	0.38305646
65	0x3fb17bfa	1.386596
66	0x3fae9825	1.3640181
67	0xbf3347d7	-0.70031494
68	0x3e9bdcaf	0.30441806
69	0x40274d6f	2.6141012
70	0x3f2cd4f1	0.6751242
71	0x3e84ce8c	0.25938833
72	0x3efa0365	0.48830715
73	0xbece4687	-0.40288183
74	0x3f2b0597	0.66805404
75	0x3f12fd0c	0.5741737
76	0xc0835c8e	-4.105048
77	0x3ffa398e	1.9548814
78	0xbf4aa9f7	-0.79165596
79	0x3e18ff71	0.14941193
80	0xc06b6aae	-3.6783862
81	0x3f38a21d	0.72122365
82	0xbf8c29e9	-1.095029
83	0xbbffb6cb	-0.007803773
84	0x3ca5d6d9	0.020244049
85	0xbfa2fe25	-1.2733809
86	0xbc557a6e	-0.013029678
87	0xc093aac7	-4.614597
88	0xbff84bb3	-1.9398102
89	0x3ef1dd35	0.4723908
90	0xbfd50ab8	-1.6643896
91	0x3d8c29a6	0.06843881
92	0xbeb92e38	-0.36168075
93	0x3e53e03c	0.20691007
94	0x3db846f1	0.08997906
95	0xbf820b85	-1.0159765
96	0x3f9100fe	1.1328428
97	0xbee592ff	-0.44838712
98	0xbe726501	-0.23671342
99	0xbe01414b	-0.12622564
100	0xbf05b767	-0.52232975
101	0xbf53a990	-0.82680607
102	0xbdb47c59	-0.0881278
103	0x3e267095	0.16253884
104	0xc02e5657	-2.7240198
105	0xbd38cfa1	-0.045119885
106	0x3f6be8ac	0.92151904
107	0xbe341df8	-0.17589557
108	0x3f358771	0.7090979
109	0x3e905861	0.28192428
110	0x3d73be7d	0.059507836
111	0xbfeb4da4	-1.8383069
112	0x3e0cc418	0.13746679
113	0x3d5eac02	0.05436326
114	0xbf24081f	-0.6407489
115	0xc0114527	-2.2698457
116	0x3fb1649e	1.3858831
117	0xbfd3b519	-1.6539642
118	0xbdf033f1	-0.11728657
119	0x3f1b25dd	0.6060465
120	0x3ebd4960	0.36970043
121	0x3dd3f912	0.10350241
122	0xbc3a36fa	-0.0113656465
123	0x3f38ad0f	0.72139066
124	0x3f05baa4	0.52237916
125	0x3fb7d22a	1.4361012
126	0xbf4d0b0d	-0.8009499
127	0x3f1fa17c	0.6235578
128	0x3d8b8498	0.068123996
129	0x3f07dc6d	0.5307072
130	0xbfc1036c	-1.5079169
131	0xbe4bb7a4	-0.19894272
132	0x3e5d8dc8	0.21636117
133	0xbf0a53db	-0.54034203
134	0x3db47ae5	0.08812503
135	0xbfb5e4ac	-1.421041
136	0xbeddc9e7	-0.43318102
137	0xbde7fea1	-0.113278635
138	0xbea58fdb	-0.32336316
139	0xbee4236c	-0.44558275
140	0x3eea9cb5	0.45822683
141	0x3d87153f	0.06595849
142	0x3e0d04f5	0.13771422
143	0xbfd1d0bc	-1.6391826
144	0x3dc7e978	0.097613275
145	0xbf16a3a7	-0.58843464
146	0x3f3d99c3	0.74062747
147	0xbf338891	-0.7013026
148	0xbfa17d6f	-1.2616404
149	0xbea50e63	-0.3223754
150	0xbeba6714	-0.36406767
151	0x3ebc4a1b	0.36775288
152	0xbf71fb9a	-0.9452454
153	0xbf800361	-1.0001031
154	0x3e02446c	0.12721413
155	0x3facff4f	1.3515414
156	0x402dc2c5	2.7150128
157	0x3f7ad04d	0.9797409
158	0xbff6da01	-1.928528
159	0xbf00a0f1	-0.5024558
160	0xbf3d94cd	-0.74055177
161	0x3f6372b9	0.8884693
162	0x3fb23a84	1.3924108
163	0x40183276	2.37808
164	0xbe87cd99	-0.26524046
165	0xbf23d8c4	-0.64002633
166	0xbe2a637a	-0.1663951
167	0x3e525002	0.20538333
168	0x3e908739	0.28228167
169	0x3e354e28	0.17705595
170	0xbf5b8b11	-0.85759073
171	0x3e45c065	0.19311674
172	0x3da3653c	0.07978293
173	0xbeb7a67a	-0.358692
174	0xbfbe49ad	-1.4866234
175	0x3e5b2111	0.21399333
176	0x3d333f06	0.043761276
177	0xbf9194c0	-1.137352
178	0xbeef7ed5	-0.46776453
179	0xbe79fbec	-0.24412507
180	0x3fe95f8d	1.8232285
181	0x40283851	2.6284373
182	0x3f5d68d5	0.86488086
183	0x3f7f9b40	0.9984627
184	0x3e7f9ed8	0.24962938
185	0x3ebd6d14	0.36997283
186	0x3fdd54cd	1.7291504
187	0x3c6c2bf7	0.014414779
188	0xbeec6db3	-0.46177444
189	0xbf6302d4	-0.8867619
190	0x3d87c81e	0.06629966
191	0xbf9cf413	-1.2261986
192	0xbe1cf93e	-0.15329453
193	0xbe1b8988	-0.15189183
194	0xbf40ebb4	-0.75359654
195	0x3db632ab	0.08896383
196	0xbe774e0d	-0.24150868
197	0xbfd5e1a8	-1.670949
198	0xc0040dc3	-2.06334
199	0xbed6d359	-0.4195812

fc3.bias f4 [2]
0	0xbe756b19	-0.23966636
1	0x3f1a35db	0.60238427

bn1.weight f4 [24]
0	0x3e138d50	0.14409375
1	0x3e7fafea	0.2496945
2	0xbc8705b4	-0.016482212
3	0x3e1376e6	0.14400825
4	0x3fc513ac	1.5396628
5	0x3f8cc044	1.0996175
6	0x3d8b05f3	0.06788244
7	0x3c89c625	0.016818115
8	0xbbd53237	-0.00650623
9	0x3e6042b8	0.21900451
10	0xbd17468e	-0.03693252
11	0xbc0ed879	-0.008718603
12	0xbdcfc6b0	-0.101453185
13	0x3f277afe	0.65422046
14	0x3e0076c7	0.1254531
15	0x3e3e0aea	0.18558851
16	0x3f47d273	0.78055495
17	0x3ef8bcfc	0.48581684
18	0x3d3c6665	0.04599609
19	0x3bd537ec	0.0065069105
20	0x3ffdc3b6	1.9825351
21	0x3fa6e23d	1.3037792
22	0x3e2d65a2	0.16933301
23	0x3ee5820c	0.4482578

bn1.bias f4 [24]
0	0x3d881f6b	0.066466175
1	0xbddda547	-0.1082254
2	0x3f478a29	0.7794519
3	0xbdac7b68	-0.084219754
4	0x3ed6f8fb	0.41986832
5	0x3f5dad87	0.86592907
6	0x3fa0135f	1.2505912
7	0xbcc2cfcc	-0.023780726
8	0x3bcd2272	0.0062602097
9	0x3c4421f3	0.011970985
10	0xbc3f396f	-0.011671408
11	0xbabb8d66	-0.0014309108
12	0xbf32d771	-0.6985999
13	0x3f1f2ec7	0.6218075
14	0xbc78f18a	-0.015194306
15	0xbd9e6b2c	-0.07735285
16	0x3eac66ce	0.33672184
17	0xbd990122	-0.07470919
18	0x3bc3b6b6	0.0059727086
19	0x3c9eb5eb	0.019373855
20	0x3ebb4696	0.3657729
21	0x3eede4aa	0.4646352
22	0xbbda9c13	-0.0066714375
23	0xbd7afc1a	-0.06127558

bn1.running_mean f4 [24]
0	0xc0e1548b	-7.04157
1	0xbf10cbac	-0.5656078
2	0x409425d9	4.62962
3	0xbde76a55	-0.11299578
4	0x3adfdffc	0.0017080302
5	0x403aba8f	2.9176366
6	0x409425d9	4.62962
7	0xbde76a55	-0.11299578
8	0xc0e17b0f	-7.046272
9	0xbf112eac	-0.5671184
10	0x40968ac1	4.7044377
11	0xbddb9b70	-0.10723007
12	0xbbecf2f7	-0.007231112
13	0x403baab0	2.932293
14	0x40968ac1	4.7044377
15	0xbddb9b70	-0.10723007
16	0xc0e217da	-7.0654116
17	0xbf10875c	-0.5645654
18	0x4094c029	4.648457
19	0xbd8a64be	-0.06757496
20	0xbc5e4d4d	-0.013568235
21	0x403c3a91	2.9410746
22	0x4094c029	4.648457
23	0xbd8a64be	-0.06757496

bn1.running_var f4 [24]
0	0x41847d47	16.56117
1	0x3f8e61ff	1.1123656
2	0x43c38c0d	391.09415
3	0x415772e1	13.465547
4	0x41d27970	26.309296
5	0x404a7947	3.1636522
6	0x43c38c0d	391.09415
7	0x415772e1	13.465547
8	0x41849b7a	16.575916
9	0x3f8e9256	1.1138408
10	0x43c27b16	388.9616
11	0x415b610f	13.711196
12	0x41d25275	26.290262
13	0x4046ea24	3.1080408
14	0x43c27b16	388.9616
15	0x415b610f	13.711196
16	0x41842bca	16.521381
17	0x3f8e05de	1.109554
18	0x43c5afe7	395.37424
19	0x41589137	13.535453
20	0x41d37b45	26.43519
21	0x4045d8c3	3.091355
22	0x43c5afe7	395.37424
23	0x41589137	13.535453
