p3_collab-compet/actor_weights.pth (torch_old, 85051 bytes, 10 tensors)

fc1.weight f4 [164, 24]
0	0xbdcc5686	-0.099774405
1	0xbe23d6e3	-0.15999942
2	0xbe862669	-0.2620118
3	0x3da9c49a	0.08289452
4	0x3ede57d9	0.43426397
5	0x3da1164e	0.078655824
6	0xbed2c3e4	-0.41165078
7	0xbbc700e8	-0.006073106
8	0xbe586b70	-0.21134734
9	0xbebd9e71	-0.37034944
10	0xbe9a7326	-0.30165976
11	0x3d6f1fde	0.05838
12	0x3dda8264	0.10669401
13	0xbe9634d7	-0.2933719
14	0x3e300e9b	0.17193072
15	0x3e2be567	0.16786729
16	0xbeab783d	-0.33490172
17	0xbeef9d3e	-0.46799654
18	0x3e8dc039	0.27685717
19	0x3e86fb2a	0.26363498
20	0xbe936c0c	-0.2879337
21	0xbf335cf1	-0.7006369
22	0x3e76e06b	0.24109046
23	0x3e6666c9	0.22500147
24	0x3e7c6071	0.24646164
25	0x3d964aa9	0.07338459
26	0xbed55d94	-0.41672957
27	0xbb087d0e	-0.0020826492
28	0x3c83a69b	0.016070655
29	0xbde6803b	-0.11254927
30	0xbe7965a8	-0.24355185
31	0x3ddba797	0.107253246
32	0x3e92bd25	0.2865993
33	0xbe8611c7	-0.26185438
34	0xbe2f7b59	-0.17136897
35	0xbe82b35c	-0.25527465
36	0x3def510a	0.11685379
37	0x3e03beff	0.12865828
38	0x3dd51744	0.10404828
39	0xbe80b1af	-0.25135562
40	0x3e89fa45	0.26948753
41	0xbe049101	-0.1294594
42	0x3f0a5865	0.5404113
43	0x3d34d15e	0.04414498
44	0xbd07baa0	-0.033136964
45	0x3d5740b4	0.05255194
46	0x3f03b514	0.5144818
47	0xbe36175e	-0.17782351
48	0xbe25f4f0	-0.16206717
49	0x3ea2c9bc	0.31794536
50	0x3db94677	0.09046643
51	0x3e2e74af	0.17036699
52	0x3d79ba6e	0.06096881
53	0xbc411968	-0.0117858425
54	0xbdfe0872	-0.124039546
55	0x3dd863b3	0.10565891
56	0x3c739286	0.014866477
57	0x3e9d31f3	0.3070217
58	0x3eba8536	0.36429757
59	0x3ea56052	0.3230005
60	0x3dde41f8	0.10852426
61	0xbdded08a	-0.108796194
62	0xbe382dfb	-0.1798629
63	0x3e985f34	0.29760134
64	0x3c472e6b	0.012157063
65	0x3ec69f95	0.38793626
66	0x3e2d23f1	0.16908242
67	0x3f15d178	0.5852275
68	0x3da971c0	0.08273649
69	0xbe5afc48	-0.213853
70	0x3dcbd457	0.0995261
71	0x3f02b7a1	0.51061445
72	0x3ca51bf9	0.02015494
73	0x3e749f92	0.23888996
74	0xbeae9ae5	-0.3410255
75	0x3e05019a	0.12988892
76	0x3f519c90	0.8187952
77	0x3f2df4e2	0.67951787
78	0xbebc0e8f	-0.36729857
79	0x3e391d33	0.18077545
80	0x3c150996	0.009096524
81	0x3eafebb1	0.34359506
82	0xbe89c9b3	-0.26911697
83	0x3e37fdd7	0.17967926
84	0x3f50f2aa	0.81620276
85	0x3e7b7f2c	0.24560231
86	0xbdaefeff	-0.085447304
87	0x3e93452e	0.28763717
88	0xbe62b2f8	-0.22138584
89	0x3e878a96	0.2647292
90	0xbe41cbfe	-0.18925473
91	0x3e1d6a08	0.15372479
92	0x3ebc2441	0.3674641
93	0xbdf9db91	-0.12200082
94	0xbe51c30c	-0.2048456
95	0x3e3c5077	0.1839007
96	0x3e53f318	0.20698202
97	0x3ea63088	0.324589
98	0xbe27fa24	-0.16404015
99	0xbda9c08a	-0.08288677
100	0x3d8163f6	0.06317894
101	0xbd97a57e	-0.07404612
102	0xbe4d395f	-0.20041417
103	0xbb9fad8f	-0.0048729847
104	0xbda15359	-0.078772254
105	0xbd928330	-0.07153928
106	0xbde6fdb4	-0.11278859
107	0x3d932f10	0.07186711
108	0x3f3f7c8a	0.74799407
109	0x3ee307ad	0.44341794
110	0xbd18a31c	-0.03726493
111	0x3c6aa612	0.014321821
112	0xbe3845f9	-0.17995442
113	0xbcc94c3a	-0.02457248
114	0x3e72add9	0.2369913
115	0x3e7d4c57	0.24736153
116	0x3f3fd7f7	0.7493891
117	0x3ec64c13	0.38729915
118	0x3e204cf4	0.15654355
119	0x3d885741	0.06657267
120	0xbde13522	-0.109964624
121	0xbe178405	-0.14796455
122	0xbe0f8fe5	-0.14019735
123	0x3d3a186b	0.045433443
124	0xbe13d72d	-0.14437552
125	0x3e92e291	0.2868848
126	0xbdde13cf	-0.10843622
127	0x3cecbc9f	0.028898535
128	0xbe5f9e10	-0.2183764
129	0xbe7f7021	-0.24945118
130	0x3ddaf7a3	0.10691764
131	0x3dbaab55	0.0911471
132	0x3e245fb5	0.16052134
133	0xbe398c1e	-0.18119857
134	0xbcf419e9	-0.029797511
135	0x3e47e8af	0.19522355
136	0xbeb7ecdc	-0.35922897
137	0xbe02f508	-0.12788785
138	0x3d2a31eb	0.04155151
139	0x3da4413a	0.080202535
140	0x3e8bc230	0.2729659
141	0xbf2635fa	-0.6492611
142	0xbc229bca	-0.009924838
143	0x3dd97c0f	0.106193654
144	0x3e5d4fe6	0.2161251
145	0xbe1d0b01	-0.15336229
146	0xbe3e3b2c	-0.1857726
147	0xbe8d14f9	-0.27555063
148	0x3dd426a9	0.10358936
149	0xbe367949	-0.17819704
150	0xbeb156a4	-0.34636414
151	0xbe81101a	-0.25207597
152	0xbe2766d6	-0.16347823
153	0xbe8a5ad6	-0.27022427
154	0xbd848194	-0.064700276
155	0xbd6b70f0	-0.057480752
156	0x3c8b4f5c	0.017005615
157	0x3e941700	0.28923798
158	0xbf01ebdd	-0.50750524
159	0xbc7d2d6c	-0.015452724
160	0xbea80183	-0.32813653
161	0xbd1a203d	-0.0376284
162	0xbe23d370	-0.15998626
163	0x3f4a80ec	0.7910297
164	0xbcca1c61	-0.024671735
165	0x3f107a03	0.56436175
166	0xbe2e6d9d	-0.17034002
167	0x3f20d79f	0.6282901
168	0x3d462c97	0.048382368
169	0xbde1ac4c	-0.11019191
170	0x3dd26639	0.10273404
171	0x3e71a45c	0.23597854
172	0x3e43106c	0.19049233
173	0x3cc28835	0.02374659
174	0xbeced516	-0.40396947
175	0x3e87986f	0.26483485
176	0xbdb5a8a7	-0.088700585
177	0xbebb337d	-0.3656272
178	0xbcf01d8b	-0.029310962
179	0x3bdec92e	0.006798885
180	0x3e549496	0.20759806
181	0x3dcaf76d	0.09910474
182	0xbed59cac	-0.41721094
183	0x3e09d598	0.13460386
184	0x3ca7ea9b	0.02049761
185	0xbf088f86	-0.53344
186	0xbef9450a	-0.48685485
187	0x3e2ab11e	0.16669127
188	0x3e98c4ce	0.2983765
189	0xbe139ca2	-0.1441522
190	0xbf0cb70f	-0.54966825
191	0x3e421866	0.1895462
192	0x3e06c58a	0.13161293
193	0x3d836ca9	0.0641721
194	0xbf341b90	-0.7035456
195	0xbbb36a5b	-0.005475325
196	0x3e26ff7a	0.16308394
197	0xbf2dbdeb	-0.67867917
198	0xbf370e01	-0.71505743
199	0xbd1409a6	-0.036142014
200	0x3e8e19c9	0.27754048
201	0xbdff16ef	-0.12455546
202	0xbdad9e2b	-0.08477434
203	0x3e668eb0	0.22515368
204	0x3f1640d3	0.58692664
205	0xbe88d0b1	-0.2672172
206	0x3e2edc8d	0.17076321
207	0x3e50839e	0.20362708
208	0x3c519fe9	0.012794473
209	0xbe9f524f	-0.31117484
210	0x3ee64e8e	0.44981807
211	0x3f1bb96f	0.60829824
212	0x3e0a82f3	0.13526516
213	0xbe34f276	-0.17670617
214	0x3eec422e	0.4614424
215	0x3e5b17a0	0.21395731
216	0x3ed112ef	0.40834758
217	0x3d494065	0.049133677
218	0xbeb6f003	-0.3572999
219	0xbe9a5575	-0.30143324
220	0x3e0d643c	0.13807768
221	0xbd21fff1	-0.039550725
222	0xbea659a0	-0.32490253
223	0xbe4e3f13	-0.20141248
224	0x3ec52390	0.38503695
225	0xbbc35338	-0.005960848
226	0xbe16b965	-0.1471916
227	0x3e534ef0	0.20635581
228	0x3ea73cb9	0.32663515
229	0x3e926324	0.28591263
230	0xbe41d90d	-0.18930455
231	0x3dbd2151	0.0923487
232	0x399906d6	0.00029187527
233	0x3e1c35e6	0.15254936
234	0xbec86176	-0.39136857
235	0x3eb56fa6	0.35436743
236	0x3dff5b15	0.124685444
237	0x3e888589	0.2666438
238	0xbebd5a05	-0.36982742
239	0x3e276e32	0.1635063
240	0xbd8ccac4	-0.06874612
241	0x3eb51114	0.35364592
242	0xbf0976bc	-0.536968
243	0xbe2a9c4f	-0.1666119
244	0xbd27eaa7	-0.040995266
245	0x3dd24b7f	0.10268306
246	0xbf18ee23	-0.5973837
247	0xbe42e4db	-0.19032614
248	0x3dbc3c50	0.09191191
249	0x3dfedf62	0.12444951
250	0xbebb461c	-0.36576927
251	0xbea10355	-0.31447855
252	0x3e9c6450	0.30545282
253	0x3eb73fdb	0.35790905
254	0x3f1321f9	0.57473713
255	0xbe4c8fcc	-0.19976729

fc1.bias f4 [164]
0	0xbe139bd7	-0.14414917
1	0xbe30e879	-0.17276181
2	0xbed751bc	-0.42054546
3	0xbef46128	-0.47730374
4	0xbedc4782	-0.43023306
5	0xbc6d3ce5	-0.01447985
6	0xbe8d0713	-0.2754446
7	0xbe0fb52d	-0.14033957
8	0xbec4d57c	-0.38444126
9	0xbea0891d	-0.3135461
10	0xbf0f044f	-0.5586595
11	0xbeaa593d	-0.33271208
12	0xbd9a96c5	-0.07548288
13	0xbd201507	-0.039082553
14	0xbe66c703	-0.22536854
15	0xbf0c6e53	-0.5485584
16	0x3d487185	0.048936386
17	0x3e7917a0	0.24325418
18	0xbeaf4b45	-0.34237114
19	0xbe5f5e0b	-0.21813218
20	0xbe05c9c9	-0.13065256
21	0xbe943ba4	-0.28951752
22	0xbef85e36	-0.48509377
23	0xbee7382a	-0.45160037
24	0xbeeeeb97	-0.46664116
25	0xbf0bf6ab	-0.5467326
26	0xbe8a06e1	-0.26958373
27	0x3e77cb98	0.24198759
28	0xbeac7212	-0.3368078
29	0xbccad25d	-0.024758512
30	0xbea6f3be	-0.32607836
31	0xbee26617	-0.44218513
32	0x3d0237f0	0.031791627
33	0xbe94c732	-0.29058224
34	0xbeab585e	-0.33465856
35	0xbec84b41	-0.39119914
36	0xbef27c4c	-0.47360456
37	0xbe0f61a9	-0.14002098
38	0x3e92bf7b	0.28661713
39	0xbefddf3c	-0.49584377
40	0xbd9514f1	-0.07279385
41	0xbebcd8a5	-0.36884037
42	0xbe24e942	-0.16104606
43	0x3d4d249d	0.050083745
44	0xbf08b5b2	-0.53402245
45	0xbe39b3d8	-0.18135011
46	0xbef5e033	-0.48022613
47	0x3e3c9e7f	0.18419836
48	0xbe98c1e1	-0.29835418
49	0xbb003f20	-0.0019568875
50	0xbece7fce	-0.40331882
51	0xbe81b219	-0.2533119
52	0xbec8cb2c	-0.39217508
53	0xbe7e7d1e	-0.24852416
54	0xbe97aa90	-0.29622316
55	0xbeb0ebd5	-0.34554926
56	0xbea5b0a8	-0.3236134
57	0xbca7e632	-0.020495508
58	0xbe545e02	-0.20738986
59	0xbea24de9	-0.31700066
60	0xbdc7c206	-0.09753804
61	0xbf17ccc1	-0.59296805
62	0x3d3d7adf	0.046259757
63	0xbe18b9cc	-0.14914626
64	0xbd682405	-0.056674976
65	0xbe5fcc6f	-0.21855329
66	0xbd778bf9	-0.060436223
67	0xbea71f4b	-0.32641062
68	0x3d8bcaad	0.06825767
69	0x3d328b20	0.04358971
70	0xbef99ebc	-0.48753917
71	0xbf0626fc	-0.52403235
72	0xbeb8f95c	-0.36127746
73	0xbe1d557b	-0.1536464
74	0xbe23309f	-0.15936516
75	0xbe851c93	-0.25998363
76	0x3e3be71e	0.18349883
77	0x3e6732d0	0.22577977
78	0xbd830910	-0.06398213
79	0xbcad553a	-0.021158803
80	0xbe26fa48	-0.16306412
81	0xbe0a2d7a	-0.1349391
82	0xbb9a95ef	-0.0047175805
83	0xbf277047	-0.65405697
84	0xbe2a9ed3	-0.16662149
85	0xbdcc6601	-0.09980393
86	0xbe88f1b4	-0.26746905
87	0x3e2b1b3b	0.16709606
88	0xbe50d4d7	-0.20393692
89	0xbef344b5	-0.47513357
90	0xbe1827bd	-0.14858909
91	0xbed201de	-0.4101705
92	0xbedd257f	-0.4319267
93	0xbf13abea	-0.57684195
94	0xbd1f12a8	-0.03883615
95	0x3dd896d6	0.10575645
96	0xbdf14d94	-0.11782375
97	0xbf0e119e	-0.5549563
98	0xbdd94e47	-0.10610633
99	0xbf0741f5	-0.5283502
100	0xbd94e833	-0.07270851
101	0xbe821047	-0.25403044
102	0xbead1d3d	-0.3381137
103	0xbe99e576	-0.30057877
104	0xbeb86f84	-0.3602258
105	0xbe00b0b9	-0.12567414
106	0xbd532595	-0.051549513
107	0x3e059f80	0.13049126
108	0xbe39e3d6	-0.18153319
109	0xbef4a989	-0.47785595
110	0xbd188ae1	-0.03724182
111	0xbebd206b	-0.36938795
112	0xbdedc7d2	-0.11610378
113	0xbefc87c6	-0.49322337
114	0x3d714c92	0.058910914
115	0xbef980c9	-0.48731068
116	0xbee5e036	-0.44897622
117	0xbe0642c9	-0.13111414
118	0xbdc11246	-0.094273135
119	0xbed9405d	-0.42431918
120	0xbf077d7e	-0.5292586
121	0xbecca63c	-0.39970577
122	0xbf156be7	-0.5836777
123	0x3dcc5328	0.09976798
124	0xbd5b3bd6	-0.05352386
125	0xbe04fe1e	-0.12987563
126	0x3e67a89a	0.2262291
127	0xbd8be99c	-0.06831667
128	0xbe964fe9	-0.29357842
129	0xbe013566	-0.12618026
130	0x3d93a884	0.07209876
131	0xbed055e5	-0.40690532
132	0xbe87562d	-0.26432934
133	0xbec0e63e	-0.3767566
134	0xbe86f3da	-0.2635792
135	0xbd3907bf	-0.045173403
136	0x3e15c05d	0.14624162
137	0xbe950cfb	-0.29111466
138	0xbe2abe12	-0.16674069
139	0xbcb21064	-0.021736331
140	0xbe5bb225	-0.21454675
141	0x3c87d29c	0.016579919
142	0xbe9e6c1c	-0.30941856
143	0x3d7f4dc2	0.062330015
144	0xbee87266	-0.4539978
145	0xbef9bc1f	-0.48776338
146	0xbe8f0269	-0.27931526
147	0xbe6c9ac2	-0.2310591
148	0xbd79d69e	-0.06099569
149	0xbd025edf	-0.031828757
150	0x3e486e0f	0.19573234
151	0xbd88c32b	-0.0667785
152	0x3d432db4	0.047651008
153	0x3e98b53e	0.29825777
154	0x3da674ca	0.081277445
155	0xbe83eabe	-0.25765032
156	0xbed4836a	-0.4150651
157	0xbedad91f	-0.42743775
158	0x3d502999	0.05082092
159	0xbeb2b30b	-0.34902224
160	0xbe881213	-0.2657629
161	0xbe4db5c7	-0.20088874
162	0xbec3dbdf	-0.38253686
163	0xbed42729	-0.41436127

fc2.weight f4 [100, 164]
0	0xbf44bc14	-0.76849484
1	0x3e8468c7	0.2586119
2	0xbf30dd0e	-0.690873
3	0x3ca89f44	0.020583756
4	0x3ed34c6d	0.41269246
5	0xbdce3c7f	-0.100701325
6	0x3d05083a	0.03247855
7	0xbed01cdd	-0.4064702
8	0x3e71d75c	0.2361731
9	0x3ecc3c7e	0.39889902
10	0xbba2970d	-0.0049618543
11	0xbe14fe10	-0.14550042
12	0x3ed13bd1	0.4086595
13	0xbe75be55	-0.23998387
14	0xbe3c571f	-0.18392609
15	0x3f3a5895	0.72791415
16	0x3e46375a	0.19357052
17	0xbe657ce2	-0.2241092
18	0x3e00f694	0.12594062
19	0xbe189c01	-0.14903261
20	0x3eb48e03	0.35264596
21	0xbed66f34	-0.41881716
22	0xbf2fc771	-0.686637
23	0xbe898ebd	-0.26866713
24	0x3eac7c4b	0.33688578
25	0xbb7ca8d1	-0.003855277
26	0xbe1dab70	-0.1539743
27	0x3ec2fbb2	0.38082653
28	0xbd3fd0dc	-0.046830043
29	0x3b870e4e	0.0041215783
30	0xbc61ee83	-0.013789776
31	0x3df3f4ff	0.11911964
32	0xbe44bd4c	-0.19212836
33	0xbf09a68f	-0.53769773
34	0x3e80cdbf	0.25156972
35	0xbf59e173	-0.85109633
36	0xbee691c6	-0.4503309
37	0xbce09aa7	-0.027417494
38	0x3efd02f2	0.4941631
39	0xbf6c8e4e	-0.9240464
40	0xbf12838d	-0.5723198
41	0xbeef0232	-0.46681362
42	0xbc3eca62	-0.0116449315
43	0xbeea971e	-0.45818418
44	0xbd32c75a	-0.043647148
45	0xbf086f0f	-0.5329446
46	0x3e296632	0.1654289
47	0xbe966597	-0.29374382
48	0xbe957a04	-0.29194653
49	0xbeda8a5e	-0.4268369
50	0x3e655ecb	0.22399442
51	0xbe46f7d3	-0.19430475
52	0x3e972fdd	0.29528704
53	0xbecbb165	-0.3978378
54	0xbf162262	-0.58646214
55	0x3e46d81e	0.1941838
56	0xbec235d2	-0.37931687
57	0xbd7c2035	-0.061554153
58	0xbe077d08	-0.1323129
59	0xbf0998f0	-0.5374899
60	0xbef7ab63	-0.48372945
61	0x3e173d8a	0.14769569
62	0xbead7042	-0.33874708
63	0x3d604c93	0.054760527
64	0x3e4fd18d	0.20294781
65	0xbf2aa82e	-0.6666287
66	0x3e5ca9db	0.2154917
67	0xbeb6ecef	-0.3572764
68	0x3e88a5ec	0.26689088
69	0xbe4f18ff	-0.20224379
70	0x3e7795de	0.24178264
71	0x3e905d39	0.28196123
72	0xbe9d69c2	-0.3074475
73	0x3ed99822	0.4249888
74	0x3e1496e5	0.14510687
75	0xbe83ddee	-0.25755256
76	0x3eb96c3e	0.36215395
77	0xbe815104	-0.25257123
78	0x3e020a83	0.12699322
79	0xbd8d73c5	-0.06906847
80	0x3d3a4df7	0.04548451
81	0xbc3e68b0	-0.011621639
82	0x3e5de184	0.21668059
83	0xbe7d9712	-0.2476466
84	0x3d85a89d	0.06526301
85	0xbf16cf53	-0.589101
86	0x3d65a8e0	0.056069255
87	0xbd880b20	-0.06642747
88	0x3e469e69	0.19396366
89	0xbe61bc1c	-0.22044414
90	0xbec5dce5	-0.38645092
91	0x3f1a1ce0	0.6020031
92	0xbe35c076	-0.177492
93	0xbc0d9028	-0.008640327
94	0x3ea94f1a	0.33068162
95	0xbca34265	-0.01992912
96	0xbe8c6098	-0.27417445
97	0xbf5fbd93	-0.8739864
98	0x3d4d4046	0.050110124
99	0x3f0944e0	0.5362072
100	0xbea2fcad	-0.318334
101	0x3e9a455e	0.30131048
102	0x3d2b5f09	0.04183868
103	0xbf79e705	-0.9761813
104	0xbc2c437d	-0.010514137
105	0xbf13ccbd	-0.5773428
106	0xbead680c	-0.33868444
107	0x3cb930c0	0.022606254
108	0x3f01baf7	0.5067591
109	0xbdd78775	-0.10523883
110	0x3f0259e6	0.50918424
111	0x3f17c155	0.59279376
112	0x3e658e75	0.22417624
113	0xbfd98dfd	-1.6996456
114	0x3e5109db	0.20413916
115	0xbe913cf7	-0.28366825
116	0xbdf5e3c6	-0.12006335
117	0x3e9b6b0b	0.30355105
118	0x3d8f355b	0.069925986
119	0xbe741070	-0.23834395
120	0xbe993a06	-0.2992708
121	0x3f22b0b1	0.6355086
122	0x3f0f1b41	0.5590096
123	0xbe288c81	-0.16459848
124	0xbe5019a9	-0.20322289
125	0xbef4c4b4	-0.47806323
126	0x3cefb3a5	0.029260466
127	0xbd87c109	-0.066286154
128	0xbc55d051	-0.013050155
129	0x3e2da456	0.1695722
130	0x3e2501a2	0.16113904
131	0x3ebb6fc4	0.36608708
132	0x3e2b9b38	0.1675843
133	0x3e0e1ff2	0.13879374
134	0x3cb9d0cc	0.02268257
135	0xbef7ced8	-0.48399997
136	0xbe05c36e	-0.13062832
137	0xbe296e3a	-0.16545954
138	0x3ed5db90	0.41769075
139	0xbe451ad7	-0.1924852
140	0x3f0b8fdd	0.5451639
141	0x3ea30014	0.31835997
142	0x3ecf58ba	0.4049738
143	0x3d91a86d	0.07112203
144	0x3e14ddcf	0.14537738
145	0x3e9cd111	0.30628255
146	0xbf144319	-0.5791488
147	0xbcbc2e57	-0.022971315
148	0x3ecfd12b	0.4058927
149	0x3df9a3c7	0.12189441
150	0x3eb8fb7c	0.36129367
151	0xbf0a4259	-0.5400749
152	0xbdf68fcb	-0.12039145
153	0x3dacf6e7	0.084455304
154	0x3e065d1f	0.1312146
155	0x3e0bf859	0.13668956
156	0xbea341c5	-0.31886116
157	0xbb18923e	-0.0023280527
158	0x3df79d17	0.120905094
159	0xbece2396	-0.40261525
160	0xbfb75a63	-1.4324459
161	0x3edff444	0.43741047
162	0xbece04f7	-0.40238163
163	0x3e441365	0.19148023
164	0xbdd4c69c	-0.10389444
165	0xbf1500fd	-0.58204633
166	0xbf14b4cb	-0.5808837
167	0xbd726546	-0.059178613
168	0xbec02299	-0.37526396
169	0x3dd6d50d	0.10489855
170	0xbf51d39c	-0.81963515
171	0x3e5192d7	0.20466171
172	0xbf0b6ac4	-0.54459786
173	0xbd5758fc	-0.052575096
174	0xbeb61193	-0.35560283
175	0xbddd9e5c	-0.1082122
176	0x3e29d7ef	0.16586278
177	0xbbc5b790	-0.0060338452
178	0x3cc2d801	0.02378464
179	0xbeccf135	-0.40027776
180	0xbbd91884	-0.006625237
181	0x3c8ecddd	0.017432148
182	0xbdfb926b	-0.122837864
183	0x3e1d3c3e	0.15355012
184	0xbd994894	-0.07484546
185	0xbe92a8d3	-0.28644428
186	0xbd756ddb	-0.05991922
187	0x3e492e61	0.19646598
188	0x3f14b086	0.58081853
189	0xbd7554b8	-0.059895247
190	0xbe841d25	-0.25803486
191	0x3e8e76ff	0.27825162
192	0xbd929362	-0.07157017
193	0x3dfe1015	0.12405411
194	0xbcc419b0	-0.02393803
195	0x3f2a5df6	0.66549623
196	0xbe37902f	-0.17926095
197	0xbf2bb82d	-0.67077905
198	0xbf199d52	-0.60005677
199	0x3f4eea30	0.8082609
200	0x3d7a0ff9	0.06105039
201	0x3df7e749	0.12104661
202	0xbd38f0c0	-0.045151472
203	0xbd922b5f	-0.07137179
204	0xbee136b1	-0.4398704
205	0x3db8d3fd	0.090248086
206	0x3d91eb09	0.071249075
207	0xbd86ecff	-0.06588172
208	0x3e934b7c	0.28768528
209	0xbe0912d5	-0.1338609
210	0xbecbf0fe	-0.398323
211	0xbe6274c9	-0.22114863
212	0xbe8c3aa7	-0.27388498
213	0x3ddfc6d2	0.10926594
214	0x3e62341c	0.2209019
215	0xbd1dc37c	-0.038516507
216	0xbe43d0d5	-0.19122632
217	0x3ea6359d	0.3246278
218	0xbe485547	-0.1956378
219	0xbed351a7	-0.41273233
220	0xbecce6d9	-0.40019873
221	0x3de4c0d6	0.11169593
222	0xbdf7039a	-0.12061234
223	0x3ec30f66	0.38097686
224	0x3e474d39	0.19463052
225	0xbec0f0a6	-0.376836
226	0x3c8e6ad9	0.017384933
227	0xbed9a335	-0.4250733
228	0xbe81383a	-0.2523821
229	0xbf324188	-0.6963124
230	0xbe672a9b	-0.22574846
231	0x3e9b44b3	0.3032585
232	0xbf03102b	-0.51196545
233	0xbd3ee782	-0.0466075
234	0xbe0d9d5a	-0.13829556
235	0xbe626e4d	-0.22112389
236	0xbd928833	-0.07154884
237	0xbd89f792	-0.067366734
238	0xbf9d74ef	-1.230131
239	0xbe48f94b	-0.19626348
240	0x3cd8794c	0.026425026
241	0xbf8d9711	-1.1061727
242	0x3e123799	0.14279021
243	0xbe5d2c36	-0.21598896
244	0x3e460509	0.19337858
245	0xbc9a7586	-0.018854868
246	0xbdbfa006	-0.09356694
247	0xbde5280e	-0.111892805
248	0x3dcced33	0.1000618
249	0xbf0f4dd9	-0.5597816
250	0x3e4fa29e	0.20276877
251	0xbe69b461	-0.22822715
252	0x3d9d2513	0.07673087
253	0xbdb6edef	-0.08932101
254	0xbeba4334	-0.36379397
255	0x39ccce5a	0.00039063656

fc2.bias f4 [100]
0	0xbc0688d3	-0.008211332
1	0xbc274fa2	-0.010211857
2	0xbe82fa3e	-0.25581545
3	0xbe43655b	-0.19081633
4	0xbf0391c6	-0.5139431
5	0xbd162440	-0.036655664
6	0xbe33c3b9	-0.17555131
7	0xbdef8892	-0.116959706
8	0xbeac22b5	-0.3362023
9	0xbda15702	-0.078779235
10	0x3e958338	0.29201674
11	0xbcb1cd52	-0.02170435
12	0xbe017b4b	-0.12644689
13	0x3cb6b5a2	0.022303406
14	0xbe9f6cf5	-0.31137815
15	0xbe2302c3	-0.15919022
16	0xbec3bf43	-0.3823186
17	0xbe32f690	-0.17476869
18	0xbe831060	-0.2559843
19	0xbe87c73a	-0.26519185
20	0xbe43f3f5	-0.19136031
21	0xbe34be58	-0.17650735
22	0xbe21c41a	-0.15797463
23	0xbdaa7742	-0.08323528
24	0xbc3265ea	-0.010888556
25	0xbe1fbf5e	-0.15600345
26	0xbca4d6a7	-0.020121885
27	0xbec769b1	-0.38947824
28	0xbda722a2	-0.081609026
29	0xbe4135bd	-0.18868156
30	0xbed4ce94	-0.41563857
31	0xbb021f15	-0.0019854952
32	0x3d642614	0.055700377
33	0xbe923710	-0.28557634
34	0xbe3179e5	-0.17331655
35	0xbe89a7ab	-0.26885733
36	0xbe04142f	-0.12898324
37	0x3da0a02f	0.078430526
38	0xbdbe3713	-0.09287848
39	0xbdae1d82	-0.08501722
40	0xbd7194a9	-0.058979664
41	0xbe7901f2	-0.24317148
42	0xbe2718a4	-0.16317993
43	0x3ca087b1	0.019595953
44	0xbea0bbd8	-0.31393313
45	0xbe95218b	-0.29127154
46	0xbe044cfd	-0.12919994
47	0xbde4a286	-0.111638114
48	0xbe0530a6	-0.13006839
49	0xbe0bce6c	-0.13652962
50	0xbd87646a	-0.06610949
51	0x3cff2746	0.031146657
52	0xbd800a5d	-0.06251977
53	0xbe47b1c5	-0.19501407
54	0x3e4ea6eb	0.20180862
55	0xbdd83a00	-0.105579376
56	0xbf2701f6	-0.6523737
57	0xbdb33274	-0.087498575
58	0x3c86e465	0.016466329
59	0x3e15ae5c	0.14617294
60	0x3daff8f1	0.08592404
61	0xbe0d20d6	-0.13782057
62	0xbed43416	-0.41445988
63	0xbc86ed8d	-0.016470695
64	0x3d90a447	0.070625834
65	0x3e69be22	0.22826436
66	0xbf21e175	-0.63234645
67	0xbe3dd6f8	-0.18539035
68	0xbeb2333b	-0.3480471
69	0x3e19ddd3	0.15026025
70	0xbe88a612	-0.26689202
71	0xbdfebaa7	-0.12437945
72	0x3e00a5dd	0.12563272
73	0x3d8c04d7	0.068368606
74	0xbe60d40f	-0.21955894
75	0xbb20b8ab	-0.0024524133
76	0xbaf8198f	-0.0018928515
77	0x3eb30100	0.349617
78	0xbe393d58	-0.18089807
79	0x3d42bfc3	0.04754616
80	0xbed16c20	-0.40902805
81	0xbee8af9c	-0.4544648
82	0x3d6599a6	0.056054734
83	0xbe8e2e79	-0.2776983
84	0xbe00f212	-0.12592342
85	0x3d3b0a5a	0.04566417
86	0xbe080471	-0.13282944
87	0xbd9aaa7e	-0.0755205
88	0xbe4fcac8	-0.20292199
89	0xbea0cbe4	-0.31405556
90	0xbf0f94e9	-0.56086594
91	0x3e10a3aa	0.14124933
92	0xbe447958	-0.19186914
93	0xbd2224ac	-0.039585754
94	0x3d4a1d19	0.049344156
95	0x3dd7fed7	0.10546654
96	0xbc284508	-0.010270365
97	0x3e4eb267	0.20185243
98	0xbe65a906	-0.22427759
99	0xbd61d2fa	-0.055132844

fc3.weight f4 [2, 100]
0	0x3e95ff7b	0.2929648
1	0xbeabef9c	-0.33581245
2	0x3edd4ddd	0.43223467
3	0x3c6ffdb1	0.014647887
4	0x3ddce80a	0.107864454
5	0x3eec2638	0.4612291
6	0x3d66ef49	0.056380544
7	0x3eacfbad	0.33785763
8	0x3e3b6c34	0.18302995
9	0xbd783357	-0.060595836
10	0x3e8ccf21	0.27501777
11	0x40049e20	2.0721512
12	0x3d89dfee	0.06732164
13	0xbe9520f1	-0.29126695
14	0x3f0cc848	0.54993105
15	0x3f65a5e0	0.8970623
16	0xbf6bf71a	-0.9217392
17	0xbd992cd7	-0.07479256
18	0x3dbd3c07	0.09239965
19	0x3f15287c	0.582649
20	0xbd090ea9	-0.033461247
21	0xbf4e9ca0	-0.8070774
22	0xbc8babda	-0.017049719
23	0x3f32a460	0.69782066
24	0x3d584be1	0.05280674
25	0xbfa3cc00	-1.2796631
26	0x3f34cd8e	0.7062615
27	0x3f30e8f6	0.6910547
28	0x3ce13a38	0.027493581
29	0xbdb023b2	-0.08600558
30	0xbc8d133c	-0.017221086
31	0xbef6adb9	-0.48179415
32	0x3ddd8cf6	0.10817902
33	0x3ee69189	0.4503291
34	0xbc853e50	-0.016265064
35	0x3d06a0a3	0.03286804
36	0x3d896241	0.067081936
37	0x3f111eab	0.5668742
38	0x3feeeef2	1.866667
39	0x3bee5771	0.0072736074
40	0x3cf81b9f	0.030286608
41	0xbea0e93f	-0.31427953
42	0xc02ee307	-2.7326066
43	0x3e244c39	0.16044702
44	0xbf3e453f	-0.7432441
45	0xc003d51d	-2.0598824
46	0xbeb71e93	-0.35765514
47	0xbd74ef44	-0.059798494
48	0x3bbfe337	0.0058559435
49	0x3d3d511f	0.04621994
50	0xbf64bd52	-0.8935138
51	0x3e9c1648	0.3048575
52	0xbdda6d63	-0.10665395
53	0x3f3c772b	0.73619336
54	0xbea923ca	-0.33035117
55	0xbe4e0eae	-0.20122787
56	0xbf56678a	-0.8375174
57	0x3d9a26c4	0.07526925
58	0x3f1e338b	0.617974
59	0xbed7b209	-0.42128018
60	0x3e926f9c	0.28600776
61	0x3c8cbc9a	0.017179776
62	0x3efc957f	0.49332806
63	0x3f3e4ea4	0.74338746
64	0x3f4ab686	0.7918476
65	0x3eaaf1b7	0.3338754
66	0x3e897487	0.26846716
67	0x3ca58003	0.020202642
68	0x3f006667	0.50156254
69	0x3f7cdd77	0.9877543
70	0x3cff5e91	0.031173022
71	0x3f4c5bc5	0.7982753
72	0x3e20f095	0.15716775
73	0x3edb446b	0.42825636
74	0x3eb48404	0.3525697
75	0x3cd2110a	0.02564289
76	0xc02545d8	-2.582388
77	0x3e4d9759	0.20077266
78	0xbf291591	-0.6604853
79	0x3e3638ce	0.17795107
80	0xbeaf1b0d	-0.34200326
81	0xbeef166a	-0.46696788
82	0xbfbf283f	-1.4934157
83	0x3dabaf4a	0.08383043
84	0x3d80ad43	0.06283047
85	0xbee72e77	-0.45152637
86	0xbe22ee79	-0.15911283
87	0xc0800ede	-4.001815
88	0xbf52a740	-0.82286453
89	0x3e666c14	0.22502166
90	0xbf05cc2c	-0.52264667
91	0x3ed5e1f0	0.4177394
92	0xbed90043	-0.42383012
93	0xbc24a18b	-0.0100482805
94	0x3dbbdd39	0.09173054
95	0xbf75b75d	-0.95982915
96	0x3dce0a2e	0.10060535
97	0x3e016ba9	0.12638725
98	0x3f3c1959	0.7347618
99	0xbf017571	-0.50569826
100	0xbe9c8383	-0.30569085
101	0xbf6ea59e	-0.9322146
102	0xbf10f6d1	-0.5662661
103	0x3e3c6212	0.18396786
104	0xbfab8bd0	-1.3402042
105	0xbee48739	-0.44634417
106	0x3e050533	0.12990265
107	0x3eaf09a3	0.3418704
108	0x3f324a95	0.69645053
109	0x3e860d51	0.26182035
110	0x3eeb7d7a	0.4599417
111	0xbea6d038	-0.32580733
112	0x3e0cc42b	0.13746707
113	0x3f1d9d24	0.615679
114	0xbf403a11	-0.750886
115	0x3f2b2993	0.6686031
116	0x3dd5efc8	0.10446125
117	0xbf209a36	-0.6273531
118	0xbe155b92	-0.14585713
119	0x3ee9957d	0.45621863
120	0x3eb73966	0.3578598
121	0xbd942533	-0.07233658
122	0x39a88e8b	0.0003214966
123	0x3efd0005	0.49414077
124	0x3ed566f6	0.41680115
125	0x3e5a126e	0.21296093
126	0x3da3a6d6	0.07990806
127	0x3f7bc988	0.9835439
128	0x3d8cfb0d	0.06883822
129	0x3f07f023	0.53100795
130	0xbfc2bf65	-1.5214659
131	0x3da3de18	0.080013454
132	0x3f2c6bf9	0.67352253
133	0x3e5633a3	0.20918135
134	0x3db4ba2d	0.08824573
135	0xbf010685	-0.50400573
136	0xbdd7def1	-0.105405696
137	0xbf03a9f3	-0.51431197
138	0x3e1356ee	0.1438863
139	0xbc316043	-0.010826173
140	0x3d572a1e	0.0525304
141	0x3e9e9e24	0.30980027
142	0xbd48c14f	-0.04901248
143	0xbfa4b458	-1.2867537
144	0x3f90ef8d	1.1323105
145	0x3e07d63e	0.1326532
146	0x3f741f37	0.9536013
147	0xbe0228b9	-0.12710847
148	0x3ca0a234	0.019608594
149	0x3b46f1e5	0.0030356583
150	0xbdfed3b6	-0.124427244
151	0x3ea2b8e9	0.317817
152	0xbedbecc6	-0.4295408
153	0xbe7cbc84	-0.24681288
154	0xbdb91d33	-0.090387724
155	0x3dfc1689	0.12308986
156	0x3fb563b9	1.4171058
157	0x3f7d6edd	0.9899729
158	0xbe37f71b	-0.17965357
159	0x3c9a5197	0.018837733
160	0x3e5af44a	0.21382251
161	0x3f704a29	0.9386316
162	0x3f1cc3a7	0.6123604
163	0x3f9d8452	1.2306006
164	0xbd1d4e7e	-0.038404934
165	0x3eac06d3	0.33598956
166	0x3ef9daee	0.48799843
167	0xbf9e06d0	-1.2345829
168	0xbe0e6148	-0.13904297
169	0x3e8b8f64	0.27257836
170	0xbf391d08	-0.72309923
171	0x3e72eb6d	0.2372262
172	0xbcd226a8	-0.025653198
173	0x3f583c4d	0.8446701
174	0xbe10cff7	-0.14141832
175	0x3daed8ed	0.08537469
176	0xbe1f57c1	-0.15560819
177	0x3e5c68da	0.21524373
178	0xbe3be47c	-0.18348879
179	0xbe627388	-0.22114384
180	0x3f0ccd65	0.5500091
181	0x400640de	2.0977092
182	0x3efa002a	0.4882825
183	0x3f92066b	1.1408209
184	0x3f050edf	0.51975816
185	0x3d01dd9c	0.031705484
186	0x3eded107	0.4351885
187	0xbdb4b384	-0.088233024
188	0xbdc4feeb	-0.09618934
189	0xbefde5df	-0.4958944
190	0x3f82e2cf	1.0225466
191	0xbd28bae5	-0.04119386
192	0x3e8285d6	0.25492734
193	0xbc9893f3	-0.018625235
194	0xbee98bff	-0.4561462
195	0xbdb85533	-0.090006255
196	0xbd6c335e	-0.057666175
197	0xbf3d26e3	-0.7388746
198	0xbfb04fa8	-1.3774309
199	0xbf4124fb	-0.7544705

fc3.bias f4 [2]
0	0x3de9aee5	0.114103116
1	0xbdb3489a	-0.08754082

bn1.weight f4 [24]
0	0x3e030f2a	0.12798753
1	0x3e95fc72	0.29294163
2	0xbe931307	-0.28725454
3	0x3ebc280a	0.36749297
4	0x3fa7c002	1.3105471
5	0x3f67a9f0	0.9049368
6	0x3e908a14	0.28230345
7	0x3e872e90	0.26402712
8	0x3f2a0ba4	0.6642401
9	0x3f14b986	0.58095586
10	0x3bb56110	0.0055352524
11	0x3e51e9ce	0.20499346
12	0x3db868f7	0.090043955
13	0x3f25d4fe	0.64778125
14	0x3eb6f6c4	0.35735142
15	0x3e66306c	0.22479409
16	0x3f3363d9	0.7007423
17	0x3f0da1a4	0.5532477
18	0x3e301e64	0.17199093
19	0x3de26ecb	0.11056288
20	0x3fc833a4	1.564076
21	0x3f7edfa1	0.9955998
22	0x3f15084d	0.5821579
23	0x3f539081	0.8264237

bn1.bias f4 [24]
0	0x3bab3232	0.0052244896
1	0x3c7fcd55	0.01561292
2	0x3f0bd63b	0.54623765
3	0xbabffab2	-0.0014646857
4	0x3d80c651	0.06287826
5	0x3e8ce76d	0.27520314
6	0x3f27e4d0	0.65583515
7	0xbc40dc70	-0.011771306
8	0x3d778770	0.060431898
9	0x3e98c843	0.29840288
10	0x3dd84bf9	0.10561366
11	0xbd65e4d1	-0.05612642
12	0xbe606b79	-0.21915998
13	0x3da2990f	0.0793935
14	0x3bbdcb41	0.005792052
15	0xbd5b055f	-0.05347192
16	0x3f048d98	0.51778555
17	0x3e87cac4	0.26521885
18	0xbc954c3f	-0.018224834
19	0xbe394099	-0.18091048
20	0x3d89df5e	0.06732057
21	0x3ae64ad1	0.0017569904
22	0x3d098724	0.033576146
23	0xbe2dc6a3	-0.16970305

bn1.running_mean f4 [24]
0	0xc0e24d97	-7.0719714
1	0xbfacc582	-1.3497775
2	0x403c58cc	2.9429197
3	0x3d0a3ac4	0.03374745
4	0x3d94a976	0.072588846
5	0x400d7214	2.2100878
6	0x403c58cc	2.9429197
7	0x3d0a3ac4	0.03374745
8	0xc0e62e53	-7.193155
9	0xbfaf65f6	-1.3702991
10	0x40453b0f	3.0817297
11	0xbb81fe41	-0.003967077
12	0x3d9ada18	0.07561129
13	0x400b902b	2.1806743
14	0x40453b0f	3.0817297
15	0xbb81fe41	-0.003967077
16	0xc0e99caa	-7.300374
17	0xbfb2874f	-1.3947543
18	0x40589787	3.3842485
19	0xbd0ab163	-0.033860575
20	0x3d9ce219	0.07660312
21	0x40093cdd	2.1443398
22	0x40589787	3.3842485
23	0xbd0ab163	-0.033860575

bn1.running_var f4 [24]
0	0x415fd307	13.98902
1	0x3f4b049d	0.79303914
2	0x43664972	230.2869
3	0x40820d34	4.0641117
4	0x41f40e05	30.506845
5	0x40699c44	3.6501627
6	0x43664972	230.2869
7	0x40820d34	4.0641117
8	0x41577a37	13.467338
9	0x3f478566	0.77937925
10	0x436ce85d	236.90767
11	0x4083ebb8	4.1225243
12	0x41fe5bdc	31.794853
13	0x4073cfd7	3.8095605
14	0x436ce85d	236.90767
15	0x4083ebb8	4.1225243
16	0x414cd11d	12.801053
17	0x3f42a576	0.76033723
18	0x436fa22e	239.63351
19	0x408cb279	4.396786
20	0x4204d70d	33.21001
21	0x4081d758	4.057537
22	0x436fa22e	239.63351
23	0x408cb279	4.396786
