p3_collab-compet/actor_weights_best_avg_max.pth (torch_old, 85051 bytes, 10 tensors)

fc1.weight f4 [164, 24]
00000000: 1117 b0be a21d 443e 5665 53bf 46dc 89be
00000010: 5503 943f 862e 01bd e46c 5fbf 8343 603d
00000020: 9726 e83d 6569 a0bf 5da4 79be 29ef 8d3e
00000030: 3cee f23e 4873 43be ced6 c9bb a4a4 3ebe
00000040: d7e4 eabe 81ac 13bf a732 983d e164 943d
00000050: cc0e 9bbe 3a01 88bf adaa 0b3f 658c 843f
00000060: f1dc c93e 2574 2cbf 5702 3abf 7a5f 24bf
00000070: 53e7 7b3f fef7 a6bd b5b8 3dbf fe0a 843c
00000080: ca6a db3e 8340 0fc0 ea2c eabc ce45 853e
00000090: 0d86 cf3e 51ed 2e3f 800f bf3e 74f8 87bf
000000a0: c121 9ebd 8106 00c0 53c2 89bc 1679 813e
000000b0: 24d9 113f 6367 723f dea4 a53e b36b f0bf
000000c0: 5170 52bf aef0 4f3f 570e 07bf 4df0 453f
000000d0: bffc 4f3e b971 263e fc70 9ebe 3230 95be
000000e0: 7122 52bd 7888 733f dd81 45be 1986 95bd
000000f0: ec28 f23e 8d69 55bf e317 7f3e 8a6f ac3f
00000100: 2209 f2be fc90 a13f e872 adbe 5015 9dbd
00000110: baa3 6fbe d06b 61bf 2eb9 64bf bb7e a2bd
00000120: ba7d 5abf 4256 413e 779d 87be 601c 143c
00000130: 889e a63f 6100 7e3f 6751 eabd 1387 0e3f
00000140: c60f cb3d a44d 043f dc54 a93d 2d08 9bbe
00000150: f6a3 2d3f c544 3d3d 1d89 88be fe89 873e
00000160: dfb3 6dbf dfa5 0b3f 503d a43d ac4a 97bd
00000170: d7a1 3bbe 0cdc 2dbf afb0 813e 7a29 19be
00000180: a239 6fbf d98d 0f3f d04f 53bf 047c 7b3f
00000190: 4782 f1be 500e a0bf 06fd 4ebf c58a c6be
000001a0: b5ae 1abe 2b81 99bd 6f12 d23c 30a0 813e
000001b0: 7fe8 573f 11b3 c53f 4c78 d73d 4e43 d33e
000001c0: bd9d bbbe 5115 f53c 575d 11be e983 663e
000001d0: 061e 0540 d4f4 783f 3846 6c3e 4d3e 05be
000001e0: fd30 323f 0f2a 983f e4ed aebe 72a8 733e
000001f0: e759 88be 7e47 e23e 27f5 edbe 99dc 64bd
00000200: c92f a03e ab98 763f cb65 48bd 9a00 46be
00000210: cdaa 103f 3484 223f 09dd 76be cbe8 263f
00000220: f477 03bf 9d98 b93f b01c 0abd 4762 403e
00000230: d919 863e ccee c0bf f955 c03e c554 073f
00000240: 3c62 00c0 b5d1 00bd 28f1 59bf 9164 c6be
00000250: 2ce2 533e 43d9 00bf cabe 45bf 2592 6bbe
00000260: b3b7 9fbe fbbf 41bf c04d 33bd de01 46bd
00000270: f707 6c3f 51dc 673d 054e 94bc a614 8ebf
00000280: e820 bfbe 5002 b0be 6fe8 abbe ddd0 173e
00000290: d3f4 2ebf c34d 833f 2727 983f 12ea 813e
000002a0: fc0b bc3e 2235 933e 980f b23e 68be 13bf
000002b0: cbb7 5b3e 2aa9 16bf 3063 9dbf a65d 6d3e
000002c0: 535b 383e beda 87bd 6207 8fbe 8b5f fabd
000002d0: 70c9 0c3f 5488 003f 472f 46c0 ce28 b73e
000002e0: 34fc b93d 6d5b 123e f125 b4bd a98f b83d
000002f0: f551 a63e b072 b83e c578 4dbf 14e6 bb3f
00000300: 2351 d3be 07fd 9d3e 4c66 1ebf c24c 02bf
00000310: 8b3a f03e 82e3 ddbf 7901 d3bf 65b7 2cbc
00000320: 4638 12be 8da3 81be 3d73 ef3e d2b6 9d3e
00000330: 5541 363f d083 88be 24ee 8cbf d097 da3b
00000340: 8cb3 63be c8a9 98be 55a5 1f3e 9b14 d63e
00000350: 48cb 3d3e cae2 12bf 2727 173f 622a e0be
00000360: 4c1d 91be 2c1d 7e3f 9796 bcbd bc41 9a3d
00000370: 24e3 5e3e 062b f5bf a586 9ebe 9779 58bd
00000380: e409 f2bd a3de 733f 2cee 393e babe ad3d
00000390: f6eb 0d3e f530 2d3f 8e3e 083f d5e5 0ebe
000003a0: cb2e 9f3c 90c8 aa3e 4923 0d3e c6f1 ca3e
000003b0: 4045 023f 7d61 b03f dbfb b4bd 13bd dd3f
000003c0: cf03 2d3f f76d 993e 16c1 9bbe 64b7 36bf
000003d0: f2f9 51bf e57d 903e ebfb 9fbe 8846 e8bd
000003e0: ab62 7bbd e8ea 383e 5d23 1cbe 0624 023d
000003f0: 66b4 933d df13 a53e d240 dfbe e252 3cbf
-0.34392598 0.19151929 -0.825765 -0.26925868 1.1563517 -0.03153851 -0.8727553 0.054751884
0.113354854 -1.2532164 -0.24379106 0.27721527 0.47447383 -0.19086945 -0.00615964 -0.18617493
-0.45877716 -0.57685095 0.07431536 0.072458036 -0.30284727 -1.0625374 0.54557306 1.0355345
0.39426377 -0.6736472 -0.7265982 -0.64208186 0.9839985 -0.081527695 -0.74109966 0.016118523
0.4285491 -2.2383125 -0.02858587 0.2602982 0.4053196 0.68330866 0.37316513 -1.0622697
-0.07721282 -2.000397 -0.016816294 0.25287694 0.56971955 0.94689006 0.32352346 -1.8782867
-0.8220263 0.81226623 -0.52756256 0.77319795 0.20311259 0.16254319 -0.30945575 -0.29138333
-0.051302377 0.9513011 -0.1928782 -0.07300968 0.47296846 -0.8336418 0.24911456 1.3471539
-0.47272593 1.2622371 -0.3387673 -0.07670081 -0.234023 -0.88055134 -0.8934506 -0.07934328
-0.85348094 0.18880561 -0.26487324 0.009039968 1.301713 0.9921933 -0.114413075 0.55674857
0.09915118 0.5168097 0.08268139 -0.30279675 0.6782831 0.04620816 -0.2666711 0.26472467
-0.92852587 0.54549974 0.08019507 -0.073872894 -0.18323456 -0.6791389 0.2533011 -0.14957228
-0.93447316 0.5607582 -0.8254366 0.9823611 -0.47169706 -1.2504368 -0.80854833 -0.38777748
-0.15105708 -0.0749534 0.025643555 0.25317526 0.84339136 1.5445272 0.10520992 0.41262287
-0.36643782 0.029917391 -0.14195763 0.22511257 2.0799575 0.9724858 0.23073661 -0.13012047
0.69606 1.1887835 -0.3416587 0.23794726 -0.2663109 0.4419517 -0.464761 -0.05587444
0.31286457 0.963267 -0.048925202 -0.19336167 0.5651062 0.63482976 -0.24107756 0.65198964
-0.5135491 1.4499699 -0.033718765 0.1878749 0.26191595 -1.5072875 0.37565592 0.52863723
-2.0059958 -0.031449992 -0.851336 -0.387486 0.20691746 -0.50331515 -0.77244246 -0.23004968
-0.3119484 -0.75683564 -0.04377532 -0.048341624 0.92199653 0.056606594 -0.018103609 -1.1100051
-0.37329793 -0.34376764 -0.3357577 0.14825769 -0.6834232 1.0258106 1.1886948 0.25373894
0.36727893 0.28751475 0.34777522 -0.5771241 0.2145683 -0.58851874 -1.2295895 0.23180255
0.18003587 -0.06633519 -0.2793532 -0.122252546 0.5499487 0.5020802 -3.0966356 0.3577332
0.09081307 0.14292689 -0.08796299 0.09011776 0.32484403 0.36025 -0.80262405 1.4679589
-0.4127284 0.30857107 -0.6187484 -0.50898373 0.46919665 -1.7335055 -1.6484824 -0.010541772
-0.14279279 -0.25320092 0.46767607 0.30803543 0.7119344 -0.26663065 -1.1010175 0.0066709295
-0.2223646 -0.29817033 0.15590413 0.41812596 0.18534577 -0.573773 0.59044117 -0.43782336
-0.28342664 0.9926326 -0.0920841 0.07532069 0.21766335 -1.9153755 -0.309621 -0.052850332
-0.11818293 0.9526159 0.18157262 0.08483644 0.13859543 0.6765283 0.5322045 -0.13954861
0.019431492 0.33356142 0.13782991 0.39637583 0.5088692 1.3779751 -0.088371 1.7323326
0.67583936 0.2996671 -0.3042075 -0.7137358 -0.8202201 0.2822105 -0.31246886 -0.11341578
-0.061373394 0.1805836 -0.15247865 0.031772636 0.07212143 0.32241723 -0.4360414 -0.7356397

fc1.bias f4 [164]
00000000: d018 51bf cd50 1fbf 3eab 57bf a28b a7be
00000010: af79 a2bf 83c9 8bbe f9bf 62bf 11e9 0dbf
00000020: ac7d 85bf bedc 9fbe 5e52 9abe 9d7a 3fbe
00000030: b8f4 143f 95fd 4e3e 0ed8 19bf 64fa 72bf
00000040: b990 48be 8dd4 1f3e 29de 73bf c024 173e
00000050: 4e32 21bf 7688 27be 3b88 8cbf 15c2 80bf
00000060: bb68 b4bf a764 b8bf e086 aabf 3641 c83e
00000070: 8694 1cbf 8755 92be 9d8b 7ebf ead5 80bf
00000080: 9101 c13e b458 11bf 3fda e9be 9cad 68bf
00000090: 5834 37bf 2f60 e1be 5ce6 ad3d bc4a c9bf
000000a0: e466 f9be eb4c 14bf ab6c 7dbe a3e9 5f3e
000000b0: 17d1 80bf 4b0f eebe 6f4c 01bf 190f 193f
000000c0: 8144 68bf f604 cc3c 7e20 00be 5a48 91be
000000d0: 2ee4 87bf 67a6 30bf eefc b0bf f8a0 5dbf
000000e0: d356 79bf ac0b 6cbe 29ed babe f662 35bf
000000f0: 2bb5 5fbf 1e76 96bf 9065 07be 9925 48bf
00000100: de6c 0e3e 4605 dcbe 35e3 08bf 4703 e0be
00000110: 2821 15bf b293 e8be e236 64bf 18e6 a1bf
00000120: ae97 87bf 3590 45bf 123d f3be acb3 0bbf
00000130: 1dce 0ebf a1bb a5be 8f1c 60bf 19e7 33bf
00000140: 83a3 67be 7a2d 0abe 01e0 eebc ea36 c8bf
00000150: 2f19 89be 23eb 2f3d 2695 1cbf a9a9 6fbe
00000160: 25bd 71be 7128 a8bf b642 7cbe fce9 52bf
00000170: 1fb8 9dbf ded1 a8bf 1648 3bbf 3973 933e
00000180: 0f50 98be feb7 8cbf 19a0 1e3e eb91 89bf
00000190: 95d5 9ebe 7c76 9cbf b80e e5bd 2a01 88bf
000001a0: 2704 94bf e1ae c1be 12b1 7a3e 67c5 483e
000001b0: 4683 66be 4bb8 b2bf 99b7 6cbe ad8f 25bf
000001c0: e98c 7fbe 3686 a0bf 6a13 64be e416 1abf
000001d0: 0b64 35bf 35ac 723d 30cd 28be 20c8 9bbf
000001e0: 6ea8 78bf d5f4 52bf c1a4 1ebf 3f4b d1bb
000001f0: bc29 03bf 395e 3bbf 9247 1a3e 646a 263c
00000200: 01fe a53d a152 d2be e0fd f8bd 698d 16bf
00000210: 3a70 22bf d164 65bf daf3 86be f3e2 d23c
00000220: 723f 723e ad80 47bf 6eff 95be d5f9 9b3d
00000230: 08d8 83bf 597b 71be 7882 25bf c2ad 033f
00000240: d1dd cebe 98db e5be 972f 2bbf bc07 13bf
00000250: b9a7 47bf 5299 03bf 3a71 4d3e 4db6 1ebf
00000260: ebf6 f6bd 4dfa 413e 1de1 ba3d b35a 5cbf
00000270: e8c5 09bf 51e6 8ebf 2558 56bd 060a 6dbf
00000280: 147d 9cbe 389d 27bf 43e0 74bf 9167 aebf
-0.81678486 -0.6223267 -0.8424567 -0.3272372 -1.2693385 -0.2730218 -0.8857418 -0.55433756
-1.0428977 -0.312231 -0.30140966 -0.18699117 0.5818591 0.20213921 -0.600953 -0.94913316
-0.19586457 0.15608425 -0.95260864 0.14760113 -0.62967384 -0.1636065 -1.0979074 -1.0059229
-1.4094461 -1.4405717 -1.332241 0.39112252 -0.6116413 -0.28580877 -0.9943178 -1.0065281
0.37696508 -0.56775975 -0.4567432 -0.90889907 -0.71564245 -0.44018695 0.08491203 -1.5725932
-0.48711312 -0.5792987 -0.24748485 0.21866469 -1.0063809 -0.46496043 -0.50507253 0.5978866
-0.9072953 0.02490471 -0.12512395 -0.28375512 -1.061651 -0.6900391 -1.3827188 -0.86573744
-0.9739811 -0.23051327 -0.36509064 -0.7085413 -0.87385815 -1.1754797 -0.13222337 -0.7818237
0.13908717 -0.42972773 -0.5347169 -0.437525 -0.5825372 -0.45425183 -0.89146245 -1.2648344
-1.0593164 -0.7717317 -0.4750753 -0.5457103 -0.55783254 -0.32369712 -0.87543577 -0.702745
-0.22620969 -0.1349391 -0.029159548 -1.5641758 -0.26777026 0.042948853 -0.6116508 -0.23404564
-0.23607309 -1.3137342 -0.24634823 -0.8238828 -1.2321814 -1.3189046 -0.7315687 0.28798845
-0.2974858 -1.099365 0.1549076 -1.0747656 -0.31022325 -1.2223659 -0.11184448 -1.0625355
-1.1563767 -0.37828735 0.2448161 0.19606553 -0.22511014 -1.3962492 -0.23116912 -0.64672357
-0.24956097 -1.2540958 -0.22273031 -0.6019118 -0.7085578 0.05924626 -0.16484523 -1.2170448
-0.97132003 -0.82404834 -0.61970145 -0.006387144 -0.51235557 -0.7319065 0.15066364 0.010157201
0.08105088 -0.41078666 -0.12157798 -0.58809525 -0.63452494 -0.8960696 -0.2635792 0.025742983
0.23657015 -0.7793072 -0.2929644 0.07616011 -1.0300303 -0.2358221 -0.64652205 0.5143701
-0.40403607 -0.448941 -0.6686949 -0.57433677 -0.779903 -0.51405823 0.20062724 -0.6199692
-0.120588146 0.18943138 0.09124968 -0.86075896 -0.53817606 -1.1164037 -0.052330155 -0.9259342
-0.30564177 -0.6547427 -0.95654696 -1.3625356

fc2.weight f4 [100, 164]
00000000: d854 a93d 610f 083f 1076 f5bf 8be5 dabe
00000010: a2d1 29c0 835c 43be 6092 30bf 63e1 8b3e
00000020: 5e33 f9bd 5bec 7cbf ce57 dc3e e36f a23c
00000030: a5ea 4a3e fcfa 03c0 5b45 2ebe a6fa e93e
00000040: 19a6 7a3e 0080 8bbf 5ad4 b13e 9c41 89be
00000050: c8b8 013e 5dd7 b2bf 1347 87bf d856 dbbe
00000060: aee3 67be 1ce3 79bf c910 0c40 982f e53d
00000070: 854b 1040 7252 163e 2834 a03f df9c bb3f
00000080: 1bf1 52bf 9b59 7d3e c9a0 7fbe c99a 07be
00000090: 33b3 92bf 7491 293f 06b6 b63f 5261 3dbf
000000a0: 8f1e 72bf 5c6a 93bf d383 203f d1fa afbe
000000b0: fc5b 27c0 1aa6 d2bf fcbb 05c0 966c 7fbe
000000c0: bea4 5b3f 176e f2be 6775 823f 240f 18bf
000000d0: 42fa 793f ed82 94bf 7689 d4bf d1cc 81bf
000000e0: 1270 13bf 0083 ccbf 83d7 e13f 71d7 b2bf
000000f0: 06dc 52bf d4d5 74bd e0d2 e93f 2607 cc3f
00000100: 4f05 293c dd8a 91be 6208 c33e e3f1 b0bf
00000110: 9c63 f03e 2f4e 943f a9b2 263f be82 2c3f
00000120: 2886 77bf 39aa ec3e bf80 41bf 138e 7f3f
00000130: ce63 8ebf 6685 3c3e 91b1 bc3f fba1 613f
00000140: e160 5d3f b068 3ebc 11e4 213f 8f5d 32be
00000150: 7194 843f 42e2 713f c623 28be b406 9fbf
00000160: f146 083f 3963 9abf 499e efbf c338 81bf
00000170: 84cf 57bf 7915 b8bf a665 b6bd 9b1c 25c0
00000180: 061d 8d3f bbc9 17c0 d9ea da3f 23b1 0d3e
00000190: 45b9 97bf e5cb 87bd d3ff 1bbf d825 3a3f
000001a0: aa3a 483e 4ca0 f0be 1e5a 94bd 4f55 f9be
000001b0: 8c52 4f3f 9161 70bf e8d0 593f a5e8 bf3b
000001c0: 716e 1bc0 194f 61bf 52d3 3c3e de9e e63e
000001d0: d7fd 9d3e defb bd3e 10f1 6fbf 853c 63bf
000001e0: 181a 01c0 c7a8 0cbe 38dd 883e 2c52 9dbf
000001f0: 304d 823e c6cd f63e 5edb 2c40 5737 813e
00000200: f9fb a83d be6a 92bd 5cce 8c3d d460 6d3f
00000210: eb44 9f3e 68d5 b13f ccd0 b93c d9e2 70bf
00000220: 58ae 03bf cc00 9bba 401a af3d 4448 19c0
00000230: 946a 563e 14b0 8d3f a6b2 a13e 5ceb 9cbe
00000240: f2bc ddbe 2c6e ddbe 6368 1bbf fab3 453f
00000250: a10e 2140 b5f5 52bf 84d0 fd3e 93ac b93f
00000260: cf88 373e 3bb7 cfbe 6da0 0c40 b77e 4abf
00000270: 2ee6 1bbf deab cbbf 5dfd 763f 4052 a0be
00000280: 1891 65c0 374c 17c0 8d48 613e e6ea dbbf
00000290: 9fad 92be 0b29 59be 88c4 17c0 6711 283f
000002a0: 57bb a43e 6da2 2dbf 4e47 1cbf 2a72 d33e
000002b0: a365 c3bf ab7f cabf e676 53bf b808 c2be
000002c0: c9fe 94be 5e5d 9abf 1563 cebf 6fba 9abf
000002d0: 683c d43e 3ce6 a0bf 1afc a4bf 7671 acbf
000002e0: ce68 dbbe d060 ccbf d05a 28bf 4cc4 4b3c
000002f0: 5418 833e 18c8 fabd f090 a23f 76cb 46bf
00000300: 9ffb 3dbf d53e f0bf 20ae bebf f2ba 7c3e
00000310: a706 4dbf 6cca debf 1325 7ebe 623d c1be
00000320: ebef d9bf 6a07 a9be c2dc 41bf 3c02 013f
00000330: e3fd d2bf cb0b d93e 9b71 2ebf 9907 e43e
00000340: 196a ebbf bdbb d6bf 9344 fabe 994c 353f
00000350: 3f7f bbbf 2493 f93e e59e 99bf 0b18 78c0
00000360: c1f4 b7bf b341 0b3f 5a03 5cbf f7bb a7be
00000370: d7d7 67bf 28a3 753f 0b43 e63f 9a63 b2bf
00000380: 1f80 fb3f 9178 5fbf 13f5 133e 941b ecbe
00000390: a7e5 c6bf f16d 83bf d31b 5bc0 b7de a6be
000003a0: 11d7 3b3e f47e d43f a47c 173f 5804 97bf
000003b0: c3bc 61bf 8017 1cc0 e1ba 56bf c4a5 c0bf
000003c0: 2228 80be 283c 1f3e c885 783f e358 313e
000003d0: 7bb1 25bf 8675 9abc 1f8e 44bf 72fd 66bd
000003e0: ff61 f5bd 55e7 4c3f 558c 9c3e d43c 88bf
000003f0: 3a02 b8bf f523 023f 01f5 babf 6b06 643e
0.08268136 0.53148466 -1.9176655 -0.42753252 -2.65342 -0.19078259 -0.6897335 0.27320394
-0.12168001 -0.9879815 0.4303574 0.019828742 0.19816072 -2.0621939 -0.17018645 0.45699042
0.24477424 -1.0898438 0.34732324 -0.26807868 0.12668145 -1.3971974 -1.0568565 -0.42839694
-0.22645447 -0.97612166 2.1885245 0.111907184 2.2546093 0.14679888 1.2515917 1.4657248
-0.8239915 0.24741213 -0.24963678 -0.1324264 -1.1460937 0.6623757 1.4274299 -0.73976624
-0.9457788 -1.1516833 0.6270115 -0.34371045 -2.6149893 -1.645694 -2.0895987 -0.24943766
0.8579825 -0.47349617 1.0192078 -0.593981 0.9764749 -1.1602455 -1.660445 -1.014063
-0.5759288 -1.5977478 1.7643894 -1.3971997 -0.8236698 -0.059774235 1.8267479 1.5939682
0.010316207 -0.28426257 0.38092333 -1.3823818 0.46950996 1.158636 0.65116364 0.67386997
-0.9668908 0.4622362 -0.75587076 0.99826163 -1.1124208 0.18410262 1.4741689 0.8813779
0.8647595 -0.011621639 0.63238627 -0.17418502 1.0357801 0.9448587 -0.16419896 -1.2423921
0.5323325 -1.206153 -1.872018 -1.0095447 -0.8430102 -1.4381553 -0.08906107 -2.579871
1.1024482 -2.3716877 1.710292 0.13837104 -1.1853415 -0.06630687 -0.6093723 0.72713995
0.19553629 -0.46997297 -0.07243751 -0.48697898 0.8098533 -0.93898875 0.8508439 0.005856591
-2.4286158 -0.8801132 0.18439987 0.4504308 0.30857727 0.37106222 -0.9372721 -0.8876422
-2.0172176 -0.13736258 0.26731277 -1.2290702 0.25449514 0.48203868 2.700889 0.25237533
0.08251185 -0.07149266 0.068752974 0.92725873 0.31107268 1.3893251 0.02268257 -0.9409614
-0.514379 -0.0011825799 0.08549929 -2.3950357 0.20939094 1.106936 0.3158161 -0.30648315
-0.43308216 -0.43248117 -0.60706156 0.7722775 2.5165179 -0.8240617 0.49573147 1.450579
0.17923282 -0.4056948 2.1972916 -0.790996 -0.608981 -1.5911825 0.9648035 -0.31312752
-3.5869808 -2.3640268 0.22000332 -1.718106 -0.28648087 -0.21207063 -2.3713703 0.65651554
0.3217418 -0.6782597 -0.610463 0.41298038 -1.5265392 -1.5820211 -0.826033 -0.37897277
-0.29100636 -1.2059743 -1.6123987 -1.2088145 0.41452336 -1.2570262 -1.2889435 -1.3472126
-0.42853397 -1.5967045 -0.6576357 0.012436938 0.25604498 -0.12245196 1.2700481 -0.77654207
-0.7421207 -1.8769175 -1.4896889 0.24680689 -0.80088276 -1.7405524 -0.2481883 -0.37742144
-1.7026342 -0.3301347 -0.75727475 0.50394034 -1.648373 0.4239181 -0.681421 0.44537047
-1.8391753 -1.6776043 -0.48880443 0.70820004 -1.4648207 0.48745072 -1.2001616 -3.8764675
-1.4371568 0.54397124 -0.85942614 -0.32760593 -0.9056372 0.9595208 1.798921 -1.3936646
1.9648474 -0.87293345 0.14448957 -0.4611479 -1.5538834 -1.0267926 -3.4235733 -0.32591793
0.1834376 1.6601243 0.5917456 -1.1798201 -0.8817865 -2.4389343 -0.83878905 -1.5050588
-0.2503062 0.15550292 0.97079134 0.17319064 -0.6472394 -0.018854868 -0.7677936 -0.056394048
-0.11981582 0.80040485 0.30575815 -1.0643563 -1.437568 0.50836116 -1.4606019 0.22268073

fc2.bias f4 [100]
00000000: 3244 dfbf f3e5 d93d 03b0 adbf 022b 5dbe
00000010: c61d 70bf 24eb 55bf fe2b 89bf 609b fa3e
00000020: 8a46 06c0 15c3 02be 6c34 b93f 94ab bbbe
00000030: 6425 06be 7fe7 7a3e 5a69 24c0 abf9 d6bf
00000040: 87e9 503e acee 683f 741e 97be b002 f7bf
00000050: d6e7 3dbf b748 583e 95ee 31be 4284 4bbf
00000060: dd2b 71bd 40d6 55bf e85f 5bbf 93cb b1bf
00000070: 8fe6 aebd 6886 65be 7d34 3bbe 6909 9bbf
00000080: 6db2 32bf 6f73 2cbf a3b9 32be 0025 09bf
00000090: 3064 6c3f b6f5 e8be 79d4 46bf a1cd e6be
000000a0: 10c5 94be e0f7 debe dc24 7d3f 8178 533f
000000b0: 8c8e b1be ac63 87bf e231 c1be 98ad c9be
000000c0: b032 f43e 3d51 07bf b7e3 c9bd 12be a7bf
000000d0: ffd5 43bf 4ea3 bebf d4bc 003f 65d5 5dbe
000000e0: 0686 85bf 555d 0fbf 9ab3 49bf 55f7 a33e
000000f0: 980c 6ebf 63ea d8bd ed69 95bf 2f5a 3d3e
00000100: fdcb eabf 8333 0cbf 213b 4ac0 a42a 63bf
00000110: db19 b8bf c32a 21bf d3cd 14bf 3de1 d1bf
00000120: 51bb 44bd 4c3a 0cbf 337b 9bbf 2cac a23d
00000130: 8e5f efbe a010 aabe 244d 2bbe 92c6 9c3e
00000140: 0a43 62bf bb96 83bf 6cd6 87be 4363 2abf
00000150: 1cc1 5a39 ff63 63bd d649 98bf 65ba 04bf
00000160: bb06 b5bf 3064 4abe 55ce 01c0 8951 733f
00000170: a1a3 86bf 928d c83d f440 513f 4387 803e
00000180: dcc3 cbbd e72c 3b3f f6d0 4e3f 29f1 b3be
-1.7442687 0.106395625 -1.356934 -0.21598437 -0.9379543 -0.8356192 -1.071655 0.48946667
-2.0980554 -0.1276973 1.4469123 -0.3665434 -0.13100201 0.24502371 -2.5689301 -1.6794943
0.20401584 0.90989184 -0.2951542 -1.9297695 -0.7418188 0.21121489 -0.17376168 -0.79498684
-0.058879722 -0.83530045 -0.85693216 -1.3890251 -0.08540069 -0.22414553 -0.18281741 -1.2112247
-0.69803506 -0.6736364 -0.17453627 -0.5357208 0.92340374 -0.45499963 -0.7766796 -0.45078757
-0.29056597 -0.4354849 0.9888437 0.8260575 -0.34679067 -1.0577292 -0.3773337 -0.39390254
0.47694921 -0.52858335 -0.09857886 -1.310488 -0.7649841 -1.4893587 0.5028813 -0.21663435
-1.0431526 -0.5600179 -0.78789675 0.32024637 -0.92987967 -0.10591581 -1.1672951 0.18491434
-1.8343502 -0.547661 -3.159859 -0.8873694 -1.438289 -0.62955874 -0.5812656 -1.6396862
-0.0480302 -0.54776454 -1.2146972 0.079429954 -0.4675259 -0.3321581 -0.16728646 0.30620247
-0.88383543 -1.0280374 -0.26530778 -0.6655771 0.00020862039 -0.055515286 -1.1897533 -0.51846915
-1.4142679 -0.19764781 -2.0282185 0.9504629 -1.0518686 0.097926274 0.81739736 0.25103197
-0.099494666 0.7311539 0.807876 -0.35144928

fc3.weight f4 [2, 100]
00000000: 592e 2d3e 43d7 1f3d d924 af3e 5bff fd3c
00000010: 3ecb 3d40 99ed 743f 0efa 85be 0fe3 5c3f
00000020: 5582 36be 085c 0fbd d3da b43e 6214 0d40
00000030: 0244 833d da72 7ebe 0e0a 7b3f 4ff8 1740
00000040: 0922 2bc0 2dd1 8cbe 91bd bd3d 35e7 5a3d
00000050: d1f9 38be 7d6c 3fbf 01a1 6f3b 4f54 553e
00000060: 2f24 22be f535 17c0 7178 943f e6a2 2a3d
00000070: 283a e13c 8b2b 81bd ff5f 9f3d 028a d6bf
00000080: 1c12 9a3d 056e 9b3d 7238 85bc ff25 e7be
00000090: e57b 3dbd b680 033f 29a6 4b3e 2c75 e03e
000000a0: 9028 00be 979d febe 79e1 cebe f854 053e
000000b0: ccdb 83bf 04eb 85c0 ffec 1d3c f2ba d9bd
000000c0: 02c8 14bd 4f31 e43e 771f 91bf 8015 743d
000000d0: 8be1 a5be 55b5 693f df43 ccbe 817a 5fbe
000000e0: 0c6f 1dbe 5faa 883d 8278 bc3f 4f95 47be
000000f0: 7612 6f3e 78bc f23d 4edd 513f abea 8140
00000100: 9fa7 7c3f 281b 9e3f 69ff b13f 2cc4 20bf
00000110: 4f14 783e 1d03 2c40 8669 6f3d 07f3 933e
00000120: 8aa1 bc3e a96a e1be 0705 2b3f 943e fb3e
00000130: b99b 84c0 366a 1240 2db7 96bf f54c 303e
00000140: db60 4bc0 80b7 1f3f cae7 b8bf 7899 423e
00000150: d00a 013c 8ef8 a5bf 3f21 f4bd 9ea7 7fc0
00000160: 5e1e 0bc0 b88a 6a3e 86bd dbbf 79bf 603e
00000170: 9265 a3be d96b 113e cb45 1b3d 3d46 3bbf
00000180: c2ca dc3f c7fd 57bd ff3d 8cbe d22e 96be
00000190: c66f 8abd c8dc 91bf 86d6 afbd 6ecf 263e
000001a0: 2831 17c0 e059 a3bc 5107 5f3f f991 3b3d
000001b0: ba5c 623f 6158 903e e7c8 19bd 6058 b2bf
000001c0: 18c4 0c3e f7d8 533e fed5 babc d1e9 febf
000001d0: cbd4 8f3f 8b85 edbf f133 f0bd d3d4 d53e
000001e0: e57c b63e 2e15 05bd fa36 3abc 1b83 4f3f
000001f0: e27b 583f 362b 983f d6f3 8b3c 39c7 103f
00000200: 9884 8b3d 6ddc 073f 8c1c d8bf 627a dd3d
00000210: 9451 2c3e d031 84be e57a b43d ff2c 87bf
00000220: 98aa 4cbf e10e 7ebd e93a 12bf c05e 86be
00000230: ef23 0d3f 420a 5bbd d8c7 693d 28ca e4bf
00000240: 57a1 173e 100d 0fbe 8f90 3f3f ed8e c1be
00000250: 2a51 93bf 44e7 afbe 9d6a 37be 6a0a ad3e
00000260: 2a88 73bf 354b 4dbf 6dc7 7fbd 44d0 793f
00000270: 1fa6 2740 fdcf 6e3f 62b5 c1bf 422c c5be
00000280: 1925 f5be e4ec 303f 6581 cc3f 4970 fb3f
00000290: 0917 73be 3bb2 c9be c904 29be 1bf0 9b3e
000002a0: 0bb7 893c 8c8f bebd c74a 79bf 4f02 113e
000002b0: b6ad cebc 3bc8 cbbc 7c61 d2bf b4f2 053e
000002c0: 570b 2c3b c510 3bbf 7322 5d3d 9910 55be
000002d0: 41ab cc3f 783d 3440 0833 683f 53fb 243f
000002e0: a106 a93e d937 bc3e 533e 0e40 7db8 8c3e
000002f0: d301 a7bf d55b 89bf 3d5e af3e e741 99bf
00000300: d40b d5bd b22c c5be 8719 f2be c891 743d
00000310: fba6 993e 9a36 01c0 b955 28c0 469f 04bf
0.16912211 0.03902365 0.342078 0.031005552 2.96553 0.95675045 -0.2616734 0.86283964
-0.17823155 -0.034999877 0.353232 2.204369 0.06409456 -0.248485 0.9806222 2.3745306
-2.6739523 -0.27503338 0.092646725 0.053443152 -0.18064047 -0.74774915 0.0036564472 0.20832942
-0.15834115 -2.3626683 1.1599256 0.04165926 0.027493551 -0.06307133 0.07781982 -1.6760867
0.07522985 0.07589344 -0.016262267 -0.45146176 -0.046260733 0.5136827 0.19887604 0.43839395
-0.12515473 -0.49729607 -0.40406397 0.13020694 -1.0301452 -4.1849384 0.009639024 -0.1063136
-0.036323555 0.4456887 -1.1337727 0.059590816 -0.32398638 0.91292316 -0.39895532 -0.21824075
-0.15374392 0.06673121 1.4724276 -0.1949055 0.23346886 0.11852354 0.8197831 4.059896
0.9869327 1.2352037 1.390607 -0.62799335 0.24226497 2.68769 0.058450244 0.28896353
0.36841995 -0.44026688 0.66804546 0.4907118 -4.144009 2.2877326 -1.1774651 0.17216857
-3.1777866 0.62389374 -1.4445736 0.19003856 0.007876113 -1.2966478 -0.11920404 -3.9946055
-2.1737285 0.2290448 -1.7167213 0.21948041 -0.3191343 0.14201297 0.037908357 -0.7315405
1.7249377 -0.052732255 -0.2739105 -0.29332596 -0.067596 -1.1395502 -0.08585839 0.16290066
-2.3623753 -0.019940317 0.8712054 0.045793507 0.8842274 0.28192428 -0.03754511 -1.393322
0.13746679 0.20688234 -0.022807118 -1.9915105 1.1236814 -1.8556379 -0.11728657 0.41763934
0.35642162 -0.0324909 -0.0113656465 0.81059426 0.8456403 1.1888187 0.017084043 0.5655399
0.068123996 0.5307072 -1.6883712 0.10814358 0.16827995 -0.25819254 0.08812503 -1.0560607
-0.79947805 -0.06202591 -0.5712114 -0.26244164 0.55132955 -0.05347658 0.05707535 -1.7874193
0.1480764 -0.13969827 0.74829954 -0.37804356 -1.1509144 -0.3435613 -0.17911763 0.33797008
-0.95129645 -0.8019288 -0.062446047 0.97583413 2.6195142 0.93286115 -1.5133479 -0.3851033
-0.47879866 0.69111466 1.5976988 1.9643642 -0.23739256 -0.39393792 -0.16505732 0.30456623
0.016810915 -0.09304723 -0.97379726 0.14161037 -0.025229316 -0.02487575 -1.6436 0.13080865
0.0026251876 -0.73072463 0.05398793 -0.20807113 1.5989763 2.8162518 0.9070287 0.6444599
0.3301287 0.36761358 2.222554 0.27484503 -1.3047432 -1.073115 0.34251586 -1.1973237
-0.10402647 -0.38510662 -0.472851 0.05970934 0.30010208 -2.0189576 -2.630232 -0.5180553

fc3.bias f4 [2]
00000000: bafc c3bd 4038 dd3e
-0.09569688 0.43206978

bn1.weight f4 [24]
00000000: 9731 1f3e c68b 8a3e 0a56 b8bd 02a3 2a3e
00000010: b718 c13f 8f06 863f 438f 343d 3661 67bb
00000020: 2ad8 8e3b 3da1 703e c66c 3f3c e061 c3bb
00000030: 2c6a 0bbe d2a5 283f cf75 c33d ac40 5d3e
00000040: f1e9 4a3f 3d2e ec3e 21e2 e03c 67af d73b
00000050: 757f f83f 609c 9f3f 692f 183e 9ac8 fb3e
0.15546261 0.27059764 -0.09000786 0.16663745 1.5085667 1.0470752 0.044081938 -0.0035305745
0.004359265 0.23499008 0.011683648 -0.0059625953 -0.1361472 0.6587802 0.095439546 0.21606702
0.79263216 0.46129027 0.027451577 0.006582189 1.9413897 1.2469597 0.14861836 0.49176484

bn1.bias f4 [24]
00000000: a3f6 463d 5c47 f6bd 67bf 3c3f 5cbd 8abd
00000010: c466 c53e 9427 593f c61f 943f 463e 7fba
00000020: bfdf a8ba 5d5f 7b3c f686 25bc 11be f1bb
00000030: 013b 23bf 60a2 233f 051b 483b 5b1a c2bd
00000040: 4a38 a63e f762 98bd e8e9 c8ba fc33 153b
00000050: 21f8 a73e 3f92 083f f375 73bb 7e18 5abd
0.048575055 -0.120253295 0.73729557 -0.06774399 0.38554966 0.84826016 1.1572196 -0.00097367575
-0.0012884064 0.015342561 -0.010102978 -0.007377394 -0.6376191 0.6391964 0.0030533683 -0.09477683
0.3246482 -0.07440751 -0.0015328499 0.002276658 0.32806495 0.53348154 -0.003714916 -0.053246014

bn1.running_mean f4 [24]
00000000: f62e ddc0 4620 21bf e701 a340 b944 c3bd
00000010: c06c b5bd 14cb 3940 e701 a340 b944 c3bd
00000020: 8962 dcc0 c4bc 20bf 766e b140 da9d b0bd
00000030: 48e4 aebd f668 3940 766e b140 da9d b0bd
00000040: f6a3 dcc0 f696 20bf f0f9 ab40 af8b bebd
00000050: 6606 b8bd 551b 3940 f0f9 ab40 af8b bebd
-6.9119825 -0.6293987 5.093982 -0.09534592 -0.08858633 2.90302 5.093982 -0.09534592
-6.887028 -0.62788033 5.544734 -0.08623858 -0.08539635 2.8970313 5.544734 -0.08623858
-6.895015 -0.6273035 5.37426 -0.09303986 -0.089855954 2.8922932 5.37426 -0.09303986

bn1.running_var f4 [24]
00000000: 434c 8641 b5da 8f3f b87c c643 b7d6 5341
00000010: 75cd d441 65dc 4540 b87c c643 b7d6 5341
00000020: ecd9 8741 c69f 903f 6334 c643 706f 5341
00000030: 0e31 d741 f55a 4740 6334 c643 706f 5341
00000040: 317c 8741 2948 913f a6c5 c443 9bc2 5041
00000050: b577 d941 09ea 4840 a6c5 c443 9bc2 5041
16.787237 1.1238619 396.97437 13.239921 26.60032 3.0915768 396.97437 13.239921
16.981407 1.1298759 396.40927 13.214706 26.898952 3.1149266 396.40927 13.214706
16.93564 1.1350147 393.54413 13.047511 27.18345 3.1392844 393.54413 13.047511
