p3_collab-compet/critic_weights.pth (torch_old, 85450 bytes, 9 tensors)

fcs1.weight f4 [164, 24]
000000 2d 73 2f 3d 1a e8 97 bd 76 05 1a bd 5b b9 a8 bd
       0.04283445 -0.07417317 -0.037602864 -0.08238479
000010 9c 39 36 bf cb 84 24 be c7 2e 09 be 21 82 d0 3c
       -0.71181655 -0.16066281 -0.1339675 0.025452675
000020 4f c1 28 3d 5c 7a 0a bb bf 05 b5 3d 87 05 ea 3c
       0.04119998 -0.002113006 0.088389866 0.028567089
000030 98 bf 0a be 5b fa 31 be dc c0 54 bd 40 f3 ba bc
       -0.1354965 -0.1738066 -0.051941738 -0.022821069
000040 cb 1f 63 3e 20 80 ad 3c 07 fc 09 3d 1d f0 3c 3e
       0.22180097 0.021179259 0.033687618 0.18450971
000050 45 d9 31 3f 81 23 8e 3e d5 1e 68 3d 43 b7 e5 bc
       0.6947215 0.27761462 0.05667003 -0.028041488
000060 d3 15 35 3d 22 fb ab be 81 30 40 bd 5a 91 8c 3d
       0.044210266 -0.33590037 -0.046921257 0.06863661
000070 b6 12 7c bd 89 f3 2a be 0d 0e ea 3e 75 ca e3 bc
       -0.06154128 -0.16694464 0.45713845 -0.0278065
000080 ac ce 51 bd d1 a1 cf be 56 78 dd 3e 92 48 2e bc
       -0.05122249 -0.40553144 0.43255872 -0.010637419
000090 ce 6a ec 3d 18 90 1c bf 84 8e 2f 3d 05 e3 52 be
       0.11543809 -0.6115737 0.042860523 -0.20594414
0000a0 bb 2c 34 3e 9e 79 6d bb aa 25 d2 be d5 d7 49 3e
       0.17595188 -0.003623582 -0.4104436 0.1971124
0000b0 99 59 de 3d de f4 0c 3f 73 f0 bb be 2c ea d7 bc
       0.10856933 0.5506114 -0.36706886 -0.026356779
0000c0 f4 d9 48 3e c8 01 00 3e 5a 90 8a bc 38 8a aa 3d
       0.19614393 0.1250068 -0.016914535 0.083271444
0000d0 dc e2 0e bd 6b aa d2 be 7e 3b 97 3d 35 f6 b2 3c
       -0.03488432 -0.41145644 0.07384394 0.021845916
0000e0 59 54 1a bd b8 47 7f bc 86 c8 80 3b 47 89 5a bd
       -0.037678096 -0.015581064 0.0039301543 -0.053353574
0000f0 7b d3 d8 bc 1a 64 93 be c1 1b 64 bd 29 e6 37 3d
       -0.02646803 -0.2878731 -0.05569053 0.044897232
000100 e7 37 18 be b5 25 ad bc 2a 95 bc bd d9 08 00 3e
       -0.14865075 -0.021136144 -0.09208138 0.12503375
000110 77 03 f3 3d fb 60 a1 be b5 f6 3d be 46 00 e9 3c
       0.11865895 -0.31519303 -0.18551143 0.028442513
000120 b9 e1 aa bc 13 7b 81 3e ef aa 93 bd 36 d8 41 bc
       -0.020859586 0.2528921 -0.07210337 -0.011831334
000130 ea be 21 3c 36 ac c6 3d 54 70 7e be 7d 77 15 bd
       0.009872178 0.097008154 -0.24847537 -0.036490906
000140 8e 3c fd 3d 23 0a 10 3e fe c2 4c 3e f2 cc 62 bd
       0.123650655 0.14066367 0.19996259 -0.055371232
000150 93 ed 49 3d f1 36 ef 3d f7 15 12 3e b1 ed fe 3d
       0.049298834 0.11680401 0.14266191 0.1244768
000160 23 33 0e be 75 6f 35 bc fe 11 5a bf b7 b6 2b 3e
       -0.13886695 -0.011073937 -0.85183704 0.16768919
000170 0e 30 92 3d 69 88 19 3e c7 cb 54 bf d6 f7 8f bc
       0.07138072 0.14993443 -0.8312344 -0.017574232
000180 65 d8 1c bc 5a ac 94 3b 0b 15 14 bd 3c e5 a6 bc
       -0.009573077 0.0045371475 -0.03615288 -0.02037298
000190 bf f2 54 3b 61 17 67 3d b7 a9 c0 bc a9 1e 8d 3d
       0.003249332 0.05641878 -0.023518426 0.068906136
0001a0 2b 1e 83 3d 06 71 01 be 68 47 92 3d 7d fa 01 bd
       0.064022385 -0.12640771 0.07142526 -0.031733025
0001b0 c0 24 10 3d bf 4c 63 bd 49 f8 4d 3d 63 56 7e bc
       0.035191298 -0.055493113 0.05028561 -0.015523526
0001c0 a1 80 ba 3d 84 0a 43 3d e9 5f 07 3c 58 78 88 bd
       0.09106565 0.04761745 0.008262613 -0.06663579
0001d0 4d 11 1f bc f4 cc 36 3b b6 1d cf bc 68 52 06 3c
       -0.009708715 0.0027893158 -0.025282722 0.008198358
0001e0 4d 08 f1 3e 54 6b 26 be 26 97 ba bc 14 a2 9e 3e
       0.47076645 -0.1625188 -0.022777151 0.3098303
0001f0 48 ed c4 3e bd 68 30 be d5 5a b1 3d dc 49 f1 3c
       0.3846228 -0.17227454 0.08659903 0.029454164
000200 e7 43 32 3d 37 32 20 3d 40 bf c7 3d a3 85 27 3c
       0.043521788 0.03911039 0.09753275 0.010224733
000210 bc c2 6d 3d 91 3c 2b be 6d 14 21 3d 96 a6 88 bd
       0.05804704 -0.16722323 0.03932612 -0.06672399
000220 2d 35 11 3f 04 92 30 3c b4 3f 4b 38 0f bd 57 3e
       0.56721765 0.010777 4.84583e-05 0.21068214
000230 86 30 03 bf 78 d5 96 3e 7b 7d ea bd ee 6a 52 3c
       -0.51245916 0.2945974 -0.11449715 0.012842877
000240 58 80 d6 be 84 c0 ed bf 15 36 90 3c 1e 41 85 be
       -0.41894794 -1.8574376 0.017603913 -0.26026243
000250 5e 88 a1 3e 2a 6f e6 be 47 cd 43 3e a5 27 6a bd
       0.31549352 -0.45006686 0.19121276 -0.057166714
000260 04 00 bf bc 9d 95 47 bf b5 a9 9e bc 02 32 36 3d
       -0.023315437 -0.77962667 -0.019368032 0.044481285
000270 3b fb d3 3c 2f a1 0e be 2e 28 23 3d da 4e 32 3d
       0.025876632 -0.13928674 0.03983324 0.04353223
000280 60 4a 9a 3e 59 6c 94 3d 6b 9a 54 be 14 7d b8 3e
       0.3013487 0.07247228 -0.20762031 0.36032927
000290 e4 28 bf be 72 17 fe 3e 08 27 0c be 21 4f f5 3d
       -0.37335885 0.49627262 -0.13686764 0.11977983
0002a0 97 53 8f bd 53 ab 8b 3e 52 70 76 3d 50 ca 05 3d
       -0.06998365 0.27279148 0.06016571 0.032663643
0002b0 03 df c2 bf cc ed 2d bf 11 51 68 be e5 25 a3 3c
       -1.5224308 -0.67940974 -0.22687174 0.01991553
0002c0 5c 5f 11 3e f4 66 97 bd 4c 1f 0d be 39 86 a4 3d
       0.14196533 -0.073926836 -0.1378147 0.080334134
0002d0 f8 12 b5 3d aa 71 58 be 34 25 fc 3c 41 7b 00 bd
       0.088415086 -0.2113711 0.030779459 -0.031367544
0002e0 f6 ec 0c be be ec 04 3e 0a 18 a7 3d 29 89 08 3c
       -0.13762268 0.12980935 0.08158882 0.008333483
0002f0 ad e4 8b 3f f7 9a c5 3e cd 88 b1 3d cf 14 5b 3d
       1.0929161 0.3859479 0.08668671 0.05348664
000300 f9 9b 6e 3e c9 0b bf 3d 84 9d 54 bd 67 5d f8 3e
       0.23301686 0.0932842 -0.05190803 0.4850876
000310 7a f2 f3 3e 26 66 11 be bf 5e dc be 66 ab 9c bd
       0.47645932 -0.14199123 -0.43041036 -0.07649879
000320 0e 2b a9 3d ae ab a6 be fc c2 b5 be a0 b6 e2 bd
       0.08260165 -0.32552856 -0.35500324 -0.11069989
000330 47 80 15 3e a8 0a 03 bc 11 e2 97 3d d1 87 eb 3c
       0.14599715 -0.007998146 0.074161656 0.028751286
000340 fe 58 bd 3d 60 35 c3 bb e0 28 3e be 15 66 ed be
       0.092454895 -0.0059572905 -0.1857028 -0.46366945
000350 af 3c c8 bd 16 b5 92 3e 09 d9 14 be 44 c0 bf 3d
       -0.097771995 0.28653783 -0.14535917 0.09362844
000360 34 94 95 b9 d2 3b 34 3e 7f 14 90 3d 34 02 47 be
       -0.00028529915 0.17600945 0.07035159 -0.19434434
000370 c9 c0 25 bf 62 5f 28 be 83 ef 7c bd 1d 08 a2 bc
       -0.6474729 -0.16442636 -0.061751854 -0.01977926
000380 52 5d 77 3d 71 2a b5 3e 6b 9e 5d 3d dd b4 8a bd
       0.06039173 0.35383943 0.054106157 -0.06772778
000390 64 52 73 be 3f 6b ab 3c 2d 2d 06 bd 29 e0 1f bd
       -0.23761898 0.020925162 -0.032757927 -0.039032135
0003a0 06 01 3d be 98 77 bf bc 54 64 8e 3b 26 31 ee 3e
       -0.18457422 -0.023372456 0.004345456 0.46521872
0003b0 39 db e7 3e 71 b0 5b be 83 36 95 3d 13 f1 02 3d
       0.4528444 -0.21454026 0.07285788 0.031968188
0003c0 a6 d5 b3 3e 89 27 2c bf 70 1a 8e 3d db c7 0e 3f
       0.35123938 -0.67247826 0.06938636 0.55773705
0003d0 95 85 04 3e 72 0f 85 3e 44 19 93 be aa 9f 78 bd
       0.12941583 0.25988346 -0.28730214 -0.060699143
0003e0 52 7a e5 bc b3 68 ac be 52 42 7b be 0a f7 7f bc
       -0.028012428 -0.3367363 -0.24537018 -0.015622864
0003f0 fe 99 ce bd 46 28 82 be 0c f8 c5 bd a7 09 09 3f
       -0.100879654 -0.2542135 -0.09666452 0.53530353

fcs1.bias f4 [164]
000000 58 ae 08 bd 13 21 90 3d 6b 7c 6d be d5 2d 2b bf
       -0.033369392 0.070375584 -0.23191993 -0.6686681
000010 6d 8d 78 be 21 35 31 be af e4 ba be 51 57 20 bf
       -0.242727 -0.17305423 -0.36502597 -0.62633234
000020 76 be 60 be 1b 76 92 be 8d e6 02 bf 8e b2 33 be
       -0.21947655 -0.28605732 -0.5113304 -0.17548582
000030 f6 43 eb be 13 80 54 bf f1 22 73 bd e7 21 ae bd
       -0.45950288 -0.83007926 -0.059359495 -0.0850256
000040 cb 2d 8f be 08 ee eb 3d d5 54 a3 3d bf 07 de be
       -0.27964625 0.1152001 0.07975165 -0.43365285
000050 e9 fe 00 bd 22 27 17 be 0c 9e 36 bf 48 9e c9 be
       -0.0314931 -0.14761022 -0.7133491 -0.39378572
000060 14 e0 e5 be c5 16 11 3d 66 56 13 3d d2 99 c4 bc
       -0.4489752 0.035422105 0.035971068 -0.023999128
000070 85 61 1f bf ef 58 1e be ca e0 98 be 83 fb 2b bf
       -0.6225818 -0.15463613 -0.29859 -0.6718065
000080 44 98 41 bf b3 dc 03 3d 38 e6 d8 3b 57 67 d8 be
       -0.75622964 0.032192897 0.006619241 -0.42266342
000090 6f b3 a0 be d3 a1 9b be 7d 1e 23 bf 19 f0 5b be
       -0.31386897 -0.303969 -0.63718396 -0.21478309
0000a0 b1 d5 c7 3c 9d 92 5f be b0 41 4a be 06 dd bb be
       0.024393888 -0.21833272 -0.1975162 -0.36692065
0000b0 ee 02 4f be c6 fc ea 3d 3b 65 e2 be 99 a7 08 3d
       -0.20215961 0.11473994 -0.44217858 0.03336296
0000c0 04 18 84 be 75 89 df bc e1 0d 8e be 53 17 f3 be
       -0.25799572 -0.027287224 -0.27744964 -0.47478732
0000d0 bf 66 00 bf 14 51 18 bf 20 e9 7b be ff 06 89 be
       -0.5015678 -0.59498715 -0.24600649 -0.2676315
0000e0 fc 59 fc be b4 a8 83 bd ce bb 2c 3e f9 7d 71 bc
       -0.49287403 -0.06428662 0.16868517 -0.014739507
0000f0 92 6e 8c be e3 07 cb be b9 c9 a7 be e9 6c 18 be
       -0.27428108 -0.39654455 -0.3277109 -0.14885296
000100 04 e7 82 bd 12 10 c6 be ec 8c 17 bd d9 2a 8e be
       -0.06391719 -0.38684136 -0.036999628 -0.27767065
000110 67 02 03 be 22 23 ab bc bc bb dd be 4a e5 01 bf
       -0.12793885 -0.020890776 -0.43307292 -0.5074049
000120 18 df c5 bd 71 ef 98 bd 69 09 19 be 1c 71 77 be
       -0.096616924 -0.07467545 -0.14944996 -0.24164242
000130 99 c5 15 be 41 af 00 be 36 df 20 bf 5e 23 3c be
       -0.14626159 -0.12566854 -0.6284059 -0.18372867
000140 f5 d5 e7 be 4b 40 8c 3d 58 b7 eb bd 86 27 a3 be
       -0.45280424 0.068482004 -0.115095794 -0.3186609
000150 f7 cf 01 bf 9e ea 17 3d 48 94 ea bd 34 d4 0a bf
       -0.50707954 0.037088983 -0.11454064 -0.54230046
000160 96 02 f8 bd ab 92 0c be 30 c3 05 be 60 e8 58 3d
       -0.12109868 -0.13727824 -0.1306274 0.052955985
000170 c4 95 7c be 3b 17 06 bf 56 7d fd be 53 2b 4f bf
       -0.24666506 -0.52379197 -0.49509686 -0.8092548
000180 fc aa 74 be ef bf 04 bf 55 fe 50 be ac a2 6e bf
       -0.2389335 -0.5185537 -0.2040952 -0.9321697
000190 53 43 83 be b7 e7 18 bd cf 4d 19 bf 10 0b 45 be
       -0.25637302 -0.037330355 -0.5988435 -0.19242501
0001a0 7d 84 a7 be 68 ac fa be d6 69 0a bf fc bf 8a be
       -0.32718268 -0.4895966 -0.5406774 -0.27099597
0001b0 38 92 63 be e8 0e f2 be c5 fe 67 bd f3 c0 1b bf
       -0.22223747 -0.47276998 -0.05663945 -0.6084129
0001c0 3e 19 f0 be 66 b9 03 bf 4e 98 67 bc 9f a8 64 be
       -0.46894258 -0.5145477 -0.014135433 -0.22329949
0001d0 8f aa f9 bd 42 04 a5 be fb de 2b 3d f0 ba 22 be
       -0.121907346 -0.3222981 0.041960698 -0.15891623
0001e0 aa 32 7d bd b8 d7 89 be 14 34 98 be b3 5c e6 be
       -0.061815895 -0.26922393 -0.29727232 -0.449926
0001f0 27 a4 64 be be d2 7a bb 72 69 de 3d a4 ae cd 3d
       -0.22328244 -0.0038272585 0.10859956 0.10043076
000200 ef 29 06 bf 44 68 51 3c 27 98 14 bf e0 22 b5 be
       -0.52407736 0.0127812065 -0.58044666 -0.3537817
000210 f7 ac 0a bf d6 d2 ca be eb dc 3d be 48 f1 8f be
       -0.54170173 -0.3961398 -0.18541305 -0.2811377
000220 48 75 85 3e f3 a1 82 be 84 e0 b1 be b5 ad f5 be
       0.2606604 -0.25514182 -0.34741604 -0.4798409
000230 11 e5 a4 bc 45 1a 94 be 74 d6 76 be 0c 29 92 3d
       -0.020128759 -0.28926292 -0.24105245 0.07136735
000240 42 e0 9d be a9 33 a7 be 13 0d a8 be 3b 18 3f bd
       -0.30835158 -0.326566 -0.32822475 -0.046653967
000250 43 b4 06 bf ac 53 5e bd 2d c0 43 be 6d 19 28 be
       -0.5261881 -0.054279014 -0.19116278 -0.16415949
000260 f1 49 27 bf 49 4b 57 be d3 98 3a be e8 19 fc be
       -0.653472 -0.21024813 -0.1822236 -0.49238515
000270 f7 94 91 be 99 39 86 be 99 82 8c 3d 02 ab 83 be
       -0.28433964 -0.2621582 0.06860847 -0.25716406
000280 ef 79 2d 3c cc b6 0d bf 60 49 21 bf af 10 82 be
       0.010588153 -0.5535705 -0.63002586 -0.25403354

fc2.weight f4 [100, 166]
000000 f6 16 86 bc 46 7b 64 bd 93 6c 93 3d 0c 64 bd bb
       -0.01636837 -0.055781625 0.07198443 -0.005779749
000010 a3 fb 99 bd 50 5c 00 bd 2c 5d d6 bd 59 04 9c 3b
       -0.07518699 -0.031338036 -0.1046699 0.0047612605
000020 85 a0 87 3d a8 2f 0a 3d bd c2 8e bb ef af 14 bd
       0.066224135 0.033736855 -0.0043567107 -0.036300596
000030 63 f0 40 bd 46 1f d1 3b d0 05 14 bd 27 31 67 3d
       -0.04710425 0.006381902 -0.036138356 0.05644336
000040 29 0d 75 bd 07 a1 1e be 62 d0 f6 bd ea 60 95 3d
       -0.059827004 -0.15491115 -0.120514646 0.072938755
000050 df 73 fa 3c 51 df 35 bc 45 61 a3 bd 15 48 a1 3d
       0.03057283 -0.011100606 -0.07977537 0.07875077
000060 11 88 04 3d 06 84 fb bd a2 60 d9 bc 8f 8f a3 3b
       0.032356326 -0.12281041 -0.026535336 0.0049914788
000070 10 00 0e bd 99 3b 35 bd bc 9f 99 bd e3 dc 4d 3d
       -0.03466803 -0.04424629 -0.0750117 0.050259482
000080 b2 a2 8e 3d 75 b7 9b bd ed 0a 01 bd ef 94 3e bb
       0.069646254 -0.07603351 -0.03150456 -0.002908047
000090 49 0c 6b bd bf 87 14 3d da 88 90 3d d8 af 8a 3c
       -0.057384763 0.03626227 0.07057352 0.016929552
0000a0 28 71 6f bd fe e8 73 3d a2 4b 36 bd 83 e6 1a 3e
       -0.058457524 0.05954837 -0.044505723 0.15126996
0000b0 28 19 8e 3c b4 d7 82 bd 6f c6 84 3d e5 c0 01 be
       0.01734598 -0.06388798 0.06483161 -0.1267124
0000c0 93 be e7 bc db f2 67 3d ff e8 39 3d 1a f9 9d bd
       -0.028289115 0.05662809 0.045388218 -0.07713528
0000d0 68 5f 79 bd 3f b8 16 ba 35 61 fb 3c 48 15 0e be
       -0.060882002 -0.00057495007 0.030686 -0.13875306
0000e0 27 61 9b bd f5 35 4f bc 83 c8 8a 3c c7 9b 5b bd
       -0.0758689 -0.012647142 0.016941315 -0.053615358
0000f0 e3 5f 0c be db 8b 95 3c b7 c1 e1 bd 39 60 4e bd
       -0.13708453 0.018255165 -0.11023276 -0.050384734
000100 d9 b1 d0 bd c8 aa 8f 3d ce 6e 31 be 42 77 9d 3d
       -0.10190172 0.07014996 -0.17327425 0.07688762
000110 ed 11 19 be f7 20 ce bd 87 f3 b1 bd b0 de 86 bd
       -0.14948244 -0.10064881 -0.08689027 -0.06585443
000120 31 40 bf bd 0f e2 d9 bd 7e 66 0f bc b4 7b aa bd
       -0.093384154 -0.106388204 -0.008752463 -0.08324376
000130 f7 46 07 be 15 ef 75 3b d7 3b a2 bd 9a a9 e2 bd
       -0.13210665 0.0037526537 -0.0792157 -0.11067505
000140 be 26 df bd 11 12 25 be e0 9f aa bd 37 b7 6f bd
       -0.10896061 -0.16120173 -0.08331275 -0.058524337
000150 4e a6 93 bd 06 35 48 3d 6d f2 81 bd 22 d9 0d bc
       -0.072094545 0.048878692 -0.06345067 -0.0086577255
000160 8d 01 11 be ee ae a0 bc 7d a9 a6 3c 40 46 11 be
       -0.14160748 -0.019614663 0.02034449 -0.14186954
000170 7b 15 c5 3c 64 57 94 bd e4 17 01 3d c7 1b 98 bd
       0.024058094 -0.07243231 0.031516925 -0.07427173
000180 42 a2 0a 3c 6d 3b 02 3d b9 06 a6 bd fe 65 15 3d
       0.008461537 0.031794954 -0.08106751 0.03647422
000190 9b 6c 42 bd 89 db 2c bd ae ab 50 bc 27 36 c7 3d
       -0.047466855 -0.042201553 -0.012736244 0.097271256
0001a0 d9 9e 90 bd 94 25 6b bd bb c9 b5 3d 5a e7 cd bd
       -0.07061548 -0.057408884 0.08876368 -0.100538924
0001b0 47 f8 db bd 79 a9 52 3c 22 96 e4 bd e1 d3 88 3c
       -0.107407145 0.012857788 -0.11161448 0.016702594
0001c0 ca 81 d0 bd f3 39 62 be d5 5d 25 3d 4a 03 1d 3d
       -0.10181005 -0.22092418 0.04037269 0.038333215
0001d0 6d d1 40 bd a2 a4 66 bd db 64 7a bd 1e a1 f5 bc
       -0.047074724 -0.05630935 -0.06113134 -0.029984053
0001e0 0f 37 8b 3d c9 e6 5e bd 5a ae d8 bd 8a 57 9a bd
       0.06797611 -0.054419313 -0.1058013 -0.07536228
0001f0 8e 93 9a 3d 07 bb 32 bd 9e 04 0e be 41 8d a3 3c
       0.07547675 -0.043635394 -0.13868949 0.019964816
000200 80 0b c3 bc c3 32 19 3d b4 0f c3 bd 36 1f c1 bc
       -0.023809195 0.037401926 -0.095244795 -0.023574453
000210 a3 67 5f bc 66 b6 d9 3d e9 76 c5 bb 3c d3 87 bd
       -0.013635549 0.10630493 -0.006026138 -0.06632087
000220 7a 64 bd bd 3a fc 28 bd 83 da 93 bd 97 ec c1 bc
       -0.0924768 -0.041256167 -0.07219412 -0.023672385
000230 78 09 ab bd 99 20 cc 3b 0c 25 51 be d3 ad 01 bd
       -0.083514154 0.006229472 -0.20424289 -0.031659912
000240 53 63 4f be 53 05 29 3d 82 24 c8 3c ae 96 d2 bc
       -0.20252733 0.041264843 0.02443147 -0.025706615
000250 ad f7 e3 bd 5a 2a fa bd 6f 3e 62 3c 6b 18 bd bc
       -0.11131225 -0.12215109 0.013808831 -0.023082932
000260 88 52 a1 bc f2 91 14 3d 80 43 aa bc 7f e7 90 3d
       -0.019692674 0.036271997 -0.02078414 0.070754044
000270 94 5c 1d bd 94 4c 7c bd d0 70 3a bd 58 4b 65 3d
       -0.038418368 -0.061596468 -0.045517743 0.055980057
000280 11 9c 3a be 75 6b e2 bd c1 4f 9f 3d 4f 2d 04 bd
       -0.18223597 -0.11055652 0.07778884 -0.032269772
000290 7b 21 99 ba ed d3 82 bc 90 35 15 3e d9 35 af bf
       -0.0011682952 -0.015970195 0.14571214 -1.3688308
0002a0 bc 9f 84 3e 58 18 cb bf 72 9d b2 3d cc ba 4c bf
       0.25903118 -1.5866804 0.087214366 -0.7997253
0002b0 e9 b5 ce be 0d 0d 4e bd a8 1d 1e 3e e2 e0 b4 bc
       -0.4037316 -0.050305415 0.15441 -0.022079889
0002c0 8d f1 c9 be e3 be 31 3b 89 57 6a 3d 38 d7 9a be
       -0.394421 0.0027121834 0.057212386 -0.30242324
0002d0 34 4f 82 bf 91 3e 40 bf b3 c2 af bc 88 81 05 bf
       -1.0180421 -0.7509547 -0.021455145 -0.52150774
0002e0 83 9a 31 3d e7 ec 69 be 85 dd 9d 3d 1f 77 42 be
       0.043360244 -0.22844277 0.07708267 -0.18990754
0002f0 10 af 7e bf 81 e6 9f be cd d4 57 be 8f 73 06 be
       -0.99485874 -0.31230548 -0.21077271 -0.1313002
000300 93 a8 19 bf 73 e6 55 3e a9 9f 90 3e ac b7 b0 bc
       -0.6002285 0.2088869 0.2824681 -0.021571957
000310 6b 2a 9c 3d 81 a8 c1 bf 78 da 66 3c 85 84 d4 3d
       0.07625278 -1.5129548 0.014090173 0.103768386
000320 eb fb 32 be be 0d 71 be 3f b7 73 be 60 4e 5e bf
       -0.17478912 -0.23540398 -0.23800372 -0.8683834
000330 82 42 56 bf 08 09 8d bd 3f 6f 5d 3e 69 c6 41 be
       -0.8369523 -0.06886488 0.21624468 -0.18923344
000340 37 bd 62 bf 3d 62 05 bf 7a f2 0f bf 9a ae 12 be
       -0.8856997 -0.52103025 -0.56229365 -0.14324418
000350 f0 3a c1 be 0b a2 2e 3e a9 22 8b 3e cf 98 c3 bf
       -0.37740278 0.17054002 0.2717488 -1.5281008
000360 51 57 ed be 84 29 60 bf 98 b2 1f bf 96 39 b9 3e
       -0.4635568 -0.8756335 -0.6238189 0.36176747
000370 d4 27 2e 3f e0 52 86 3e 66 a2 e5 bf 44 9c 49 be
       0.6802952 0.26235104 -1.7940185 -0.19688517
000380 69 8f d2 bb 9e 95 da bc b8 91 ca 3e 28 35 d6 be
       -0.006425787 -0.026682671 0.395643 -0.4183743
000390 0b f6 f9 be 69 ec 8a 3e 86 de 24 bf a3 43 c6 bc
       -0.48820528 0.27133492 -0.64402044 -0.024202174
0003a0 77 87 f5 be 1f f7 a4 bb 2f a9 76 bf b5 86 8b be
       -0.47954914 -0.005034342 -0.96351904 -0.2725121
0003b0 35 b6 cd bf ce 73 9e bf 39 10 e3 be 02 dd ad 3e
       -1.607123 -1.2379091 -0.44348314 0.33957678
0003c0 a4 7d 7d 3d 28 e2 86 bf 74 75 a0 be 72 00 4a bd
       0.0618874 -1.0537767 -0.3133961 -0.04931683
0003d0 bd 61 16 3e a8 e3 4d be 59 07 da be a0 6c 6c bf
       0.14685722 -0.20106375 -0.4258373 -0.9235325
0003e0 a1 7f 94 bd 2b 1e 84 3d 46 92 de 3e 95 f6 29 bf
       -0.07250906 0.064510666 0.43470973 -0.6639188
0003f0 9a 66 db bd 25 f6 18 be 1c 6a ed 3e 0e 59 e1 3e
       -0.10712929 -0.14937647 0.46370018 0.44013256

fc2.bias f4 [100]
000000 2f 2d 00 be 18 41 b7 bb 5f bd 03 be e7 73 d9 3d
       -0.12517236 -0.0055924766 -0.12865208 0.1061781
000010 37 8a c7 3d 71 58 05 bd e0 41 08 be ed 61 14 bd
       0.09743159 -0.032555047 -0.1330638 -0.0362262
000020 c3 e2 0c 3e ee 19 e9 bd 68 9e a2 bd 8f 66 87 bd
       0.13758378 -0.11381899 -0.0794037 -0.066113584
000030 85 f6 cc be 4e 6f 35 bd 8a 78 db bd bc 55 55 bc
       -0.4003183 -0.0442956 -0.107163504 -0.013020929
000040 b1 86 10 bd ef 4d bc be 78 a8 d8 3d 0c 55 62 3e
       -0.0352847 -0.3677821 0.10579008 0.22102755
000050 81 81 b4 bc 59 33 51 bd d2 56 83 be 39 ac c6 3d
       -0.022034409 -0.05107436 -0.25652176 0.097008176
000060 1a 0e 91 bc b4 ca d5 bd 02 ce 9c bd 12 c1 f1 3d
       -0.01770692 -0.10439053 -0.0765648 0.11804403
000070 f3 82 b6 bd 2f 63 7f bc 97 b5 84 3a f3 e2 09 3e
       -0.08911695 -0.015587612 0.0010124919 0.1346548
000080 2f f0 fd bc d6 e2 47 be 40 c3 04 be 51 39 ea bd
       -0.030998318 -0.19520125 -0.12965107 -0.114367135
000090 bb 1d 91 be 1f 94 bf 3d e5 9d ce bd 1e dd 75 bd
       -0.28342995 0.09354424 -0.1008871 -0.060025327
0000a0 91 90 89 3c fe 65 44 3e 43 a9 b3 bc 72 58 25 be
       0.016792567 0.19179532 -0.021931296 -0.1614702
0000b0 3c 0c 72 be 23 50 9a bd 5d 9a 9f bd c2 37 35 bd
       -0.2363748 -0.07534816 -0.07793114 -0.044242628
0000c0 38 3a 15 be f9 96 49 3d a9 ed df bd 44 2e 49 be
       -0.1457299 0.049216244 -0.10934002 -0.19646555
0000d0 bb b3 bc bd b5 c9 08 be 58 65 4b bb 26 c5 ac bd
       -0.09213968 -0.13358195 -0.0031035747 -0.084360406
0000e0 ef a3 4e be e3 6a 02 be 6f e1 2b be 98 64 32 be
       -0.20179723 -0.12736087 -0.16785215 -0.17421186
0000f0 fa 16 f7 bc cf b7 51 bd e1 02 e5 bb 4a df 9d bd
       -0.030162323 -0.051200684 -0.0069888686 -0.07708605
000100 3c 81 17 be ee 87 b8 bb c8 95 3b bd 66 af 34 be
       -0.14795393 -0.0056314385 -0.04579714 -0.17645034
000110 49 b9 a2 bd aa b7 14 be d2 02 15 be f9 fe 8d bc
       -0.079454966 -0.14523187 -0.14551857 -0.017333494
000120 5e fa e0 bd a1 b0 f9 bd d6 60 94 bc 27 78 b6 bd
       -0.10985254 -0.121918924 -0.018112581 -0.08909636
000130 d1 4b 15 be a4 69 26 be ae a4 93 bd 17 46 b5 bd
       -0.14579703 -0.16251236 -0.072091445 -0.08851259
000140 98 e9 f2 bd 4b 82 0c be 1e 75 42 bd b0 9b a0 bd
       -0.11860961 -0.13721578 -0.047474973 -0.07842195
000150 9b 45 80 bd 87 66 c8 3d 27 e5 43 bd e4 b7 10 3e
       -0.06263276 0.097851805 -0.04782596 0.14132649
000160 3d c2 25 3e 99 e5 04 be 4d a6 e4 bd 46 ad 08 be
       0.16187377 -0.1297821 -0.11164532 -0.13347349
000170 18 93 c5 bd a4 67 c0 3d a9 72 0e be c8 4f 08 be
       -0.096471965 0.09394768 -0.13910927 -0.13311684
000180 0f e4 5b 3e e8 84 7b bd 80 dd 01 be c8 f0 cc bd
       0.21473716 -0.061406046 -0.12682152 -0.10006863

fc3.weight f4 [1, 100]
000000 0b bc b3 bc d0 17 44 3e fb 05 6a bd b7 41 d5 bd
       -0.021940252 0.19149709 -0.05713461 -0.10412925
000010 22 7d 9c bd 85 97 31 3e 1b 28 41 3c ee fb 14 bb
       -0.07641055 0.17342956 0.011789347 -0.002273317
000020 91 8a 2e be 3d 29 a5 3c 13 30 96 bc e9 30 2a 3c
       -0.17045046 0.020161266 -0.01833347 0.010387638
000030 58 23 90 bd 95 9e 05 3e 3d c9 35 3c 41 33 69 3d
       -0.07037991 0.13048775 0.011095342 0.056933645
000040 4e 3f dd 3c 49 d5 f4 bd 85 0f 51 bd cc 47 14 3e
       0.027007725 -0.119547434 -0.05104019 0.14480513
000050 fd 5c 6a 3e b1 be 8e 3c 8d 5f 10 3e d9 33 29 3e
       0.22887035 0.017424913 0.1409895 0.16523685
000060 4a 25 ca bb 9c f6 d2 bc ba 0f 60 3c 59 16 24 3e
       -0.006168996 -0.025752358 0.0136756245 0.1602415
000070 ea 50 b7 bc 9d 83 06 be 66 d1 27 bd b6 cc 85 bd
       -0.02237745 -0.13136144 -0.040971182 -0.06533186
000080 3f 37 08 bd 7c 18 b5 be 34 08 43 be 9f 3c 2c bd
       -0.03325581 -0.35370243 -0.19046098 -0.04205
000090 c1 67 1f be 79 d0 24 be a1 95 ef bc 15 64 18 bc
       -0.15566923 -0.16095151 -0.029246153 -0.009301205
0000a0 32 73 96 3d 4f f8 81 bd 58 b3 65 3d fc df 91 ba
       0.073461905 -0.06346189 0.05607924 -0.0011129375
0000b0 c2 db 24 bd 2a 93 4c bd df 78 69 3c 39 45 92 3b
       -0.04024864 -0.049945034 0.014250009 0.0044638184
0000c0 e8 90 f1 ba 18 8c 8b 3d 92 b1 ac bb b3 60 8d be
       -0.0018430026 0.0681383 -0.0052701915 -0.27612838
0000d0 82 4c 33 bd 23 22 dd bc d5 73 d6 bd 9d df 9e 3c
       -0.043774135 -0.026993817 -0.10471312 0.019393736
0000e0 f5 37 27 b9 77 02 eb bb 67 1c 2f bd 68 51 46 bb
       -0.00015947207 -0.0071719247 -0.042751696 -0.0030260924
0000f0 da a9 1d bd a0 dc 6f be 6e 6e 38 3c e2 32 16 bd
       -0.03849206 -0.23424006 0.011256797 -0.03666962
000100 8f 6f be bb 24 21 8d bc 67 0b 30 bc 93 39 02 bc
       -0.0058116387 -0.017227717 -0.010744906 -0.007948297
000110 9a 43 fc 3b e9 11 e9 3a 7e de f3 3c f0 9e 45 bd
       0.0076984884 0.0017781827 0.029769178 -0.048247278
000120 02 db 13 bb a8 d5 c5 bd bd 45 4b 3b 00 b0 42 3d
       -0.0022560959 -0.09659892 0.003101691 0.047531128
000130 c2 11 fc bd f9 c5 ee bd 7b 97 2a 3d 5c d8 88 3c
       -0.123080745 -0.11658854 0.04164837 0.01670473
000140 bd 13 75 3d 50 a5 82 3b d3 a4 05 3b c6 96 49 3b
       0.059833277 0.003986992 0.0020392432 0.0030760034
000150 91 7b 4d 3d e0 9c cd 3e 14 e5 e3 3a d7 61 b9 bd
       0.05016667 0.4015875 0.0017386996 -0.090518646
000160 7e 99 8e be 2b 67 52 bd b5 0a d6 3c 67 57 62 3c
       -0.2785148 -0.05136792 0.026128152 0.013814784
000170 f4 ca 8b bc 7c 5f 7e be d9 ad 50 3c 3f d2 45 3d
       -0.017064549 -0.24841112 0.012736761 0.04829621
000180 18 4a 5f bd 53 03 47 3b 40 39 3d bd a6 ea 28 bd
       -0.05451402 0.0030366972 -0.046197176 -0.041239403

bn1.weight f4 [24]
000000 ea 74 08 be ff 69 64 3e 51 3e a0 bc 05 35 b7 3d
       -0.13325849 0.2230606 -0.019560965 0.089456595
000010 60 38 29 3f 8c 17 bf 3e 2e 51 ad 3d 73 cb 9f ba
       0.66101646 0.37322652 0.084627494 -0.001219137
000020 27 fc 32 3c 7b dd 80 3e 85 16 fb 3d b7 bc 99 ba
       0.010924376 0.25168976 0.12260155 -0.0011729215
000030 5c ed 25 3e 34 5c fd 3e 46 3c 7f bc 6f 08 ac 3d
       0.16203827 0.49484408 -0.015578335 0.08400046
000040 4f 8b ba 3e 2c 38 8d 3a 3c 8a db 3d 96 78 57 3e
       0.3643441 0.0010774187 0.107197255 0.21042094
000050 a0 b2 6c 3f 94 48 34 3f 86 2e 06 3e 7c 2e b6 bb
       0.9246006 0.70423245 0.13103685 -0.0055597406

bn1.bias f4 [24]
000000 ca 66 46 bd 0c 9a ef 3d e2 b0 fd ba ae 38 16 3c
       -0.04843787 0.11699304 -0.0019355083 0.009168787
000010 55 38 dd 3d c6 1a 5c 3e 51 b4 ff ba f0 05 6b ba
       0.1080176 0.21494588 -0.0019508695 -0.00089654233
000020 d6 de 84 ba 36 f2 0a 3e 47 e0 f7 3a e2 23 7a bb
       -0.0010137211 0.13568959 0.0018911444 -0.003816836
000030 89 56 09 3e 5e d9 a5 3e 4c 97 1b bc 9f de 4b 3b
       0.13411917 0.323924 -0.009496521 0.0031108034
000040 9f 29 be bd 61 7b c8 3b 6c 1a 2e 3c ce 8e 94 bc
       -0.09285282 0.0061182235 0.010626417 -0.0181345
000050 fd ce 2d 3e ae 40 57 3e 32 d9 0c 3c d7 ca e6 bb
       0.16973491 0.21020767 0.008596705 -0.0070432234

bn1.running_mean f4 [24]
000000 d4 7d e2 c0 43 e8 ac bf ed 64 3d 40 49 22 ea 3c
       -7.07786 -1.3508381 2.959285 0.028580802
000010 66 af 8c 3d 18 00 0e 40 ed 64 3d 40 49 22 ea 3c
       0.06869392 2.2187557 2.959285 0.028580802
000020 44 46 e6 c0 dc 84 af bf 7c a8 48 40 d5 79 4a bc
       -7.1960773 -1.371242 3.1352835 -0.012358149
000030 39 97 8c 3d 60 d5 0b 40 7c a8 48 40 d5 79 4a bc
       0.06864781 2.1848984 3.1352835 -0.012358149
000040 3a 2d e9 c0 2e 83 b2 bf ee 4a 5d 40 e5 af 2d bd
       -7.286771 -1.3946283 3.4576983 -0.042404074
000050 bd 3f 96 3d f4 09 09 40 ee 4a 5d 40 e5 af 2d bd
       0.07336376 2.1412325 3.4576983 -0.042404074

bn1.running_var f4 [24]
000000 05 1f 5f 41 1b 57 4a 3f 60 4d 69 43 0a 09 84 40
       13.945073 0.7903916 233.30225 4.1261034
000010 31 7e f3 41 c1 54 68 40 60 4d 69 43 0a 09 84 40
       30.436617 3.630173 233.30225 4.1261034
000020 7e 2e 58 41 9c f7 46 3f 1a 01 70 43 6c a2 84 40
       13.511351 0.7772157 240.0043 4.144827
000030 72 ba fd 41 24 cc 72 40 1a 01 70 43 6c a2 84 40
       31.716038 3.7937098 240.0043 4.144827
000040 81 5c 4e 41 08 80 42 3f b8 f1 6e 43 10 45 8e 40
       12.897584 0.7597661 238.94421 4.4459305
000050 71 4d 04 42 81 db 80 40 b8 f1 6e 43 10 45 8e 40
       33.075626 4.026795 238.94421 4.4459305
