p3_collab-compet/critic_final_weights.pth (torch_old, 85450 bytes, 9 tensors)

fcs1.weight f4 [164, 24]
0	0x3c0d6baa	0.008631626
1	0x3d4caafb	0.049967747
2	0xbd247832	-0.04015369
3	0xbeae75d2	-0.34074265
4	0xc0167603	-2.3509529
5	0xbe24d7e7	-0.16097985
6	0x3e4ae30b	0.19813173
7	0xbd12bcb4	-0.035824493
8	0xbe5aeaf7	-0.21378694
9	0xbbef75f8	-0.007307764
10	0xbe1bde5c	-0.15221542
11	0x3c78bb44	0.015181366
12	0xbf77a33d	-0.96733457
13	0xbf2c08ce	-0.67200935
14	0x3b77a83a	0.003778948
15	0xbde254dd	-0.11051343
16	0x3c60c3cf	0.013718559
17	0x3d34018b	0.043946784
18	0x3d20500d	0.039138842
19	0x3d584c32	0.05280704
20	0x401240b8	2.2852
21	0x3f1eb4b6	0.61994493
22	0xbe0bf156	-0.13666281
23	0x3da9b5b8	0.08286613
24	0x3f26984b	0.6507613
25	0xbc633fd9	-0.013870203
26	0x3d881d86	0.06646256
27	0x3e3a0cdc	0.18168968
28	0x3de43667	0.11143189
29	0x3ebe0b4f	0.37118003
30	0x3ccf0fda	0.025276113
31	0xbe1138eb	-0.14181869
32	0xbd4f472c	-0.050604984
33	0xbeb91212	-0.361466
34	0xbdba4783	-0.09095671
35	0xbe2b63ba	-0.16737261
36	0xbf6c7a61	-0.92374235
37	0xbfe7c718	-1.8107634
38	0xbe0354a1	-0.12825252
39	0x3d70737e	0.058703892
40	0x3e806f9e	0.25085157
41	0xbd9c5ec5	-0.07635263
42	0x3c766d13	0.015040654
43	0xbda22dce	-0.07918893
44	0x3f353178	0.7077861
45	0x3fa87bca	1.3162777
46	0xbd14eae5	-0.036356825
47	0xbda899de	-0.08232473
48	0x400afc55	2.1716511
49	0xbdbeb27b	-0.09311386
50	0x3e79bb48	0.24387848
51	0x3fb43795	1.4079462
52	0x3e631e14	0.22179443
53	0xbeb645d6	-0.35600156
54	0xbe5b0747	-0.21389495
55	0x3ee0738a	0.4383815
56	0xbdc1c51c	-0.09461424
57	0x40010bf6	2.016355
58	0xbe2d157b	-0.16902725
59	0xbb82aeec	-0.0039881375
60	0x3d0cc164	0.03436412
61	0xbe35f516	-0.17769274
62	0x3d4ac605	0.049505252
63	0x3f6d9702	0.92808545
64	0xbde04c58	-0.109520614
65	0xbee463d0	-0.446074
66	0xbd95473b	-0.07288977
67	0x3fba90ef	1.457548
68	0x3e246107	0.16052638
69	0xbf80fa81	-1.0076448
70	0x3eb3d49d	0.3512315
71	0x3e31e23f	0.17371462
72	0xbffa4b46	-1.9554222
73	0x3f1ad5e8	0.60482645
74	0x3d2d8fd0	0.04237348
75	0xbf4e962a	-0.8069788
76	0x3e7f220e	0.24915335
77	0xbf653a02	-0.8954164
78	0xbecae8d5	-0.39630762
79	0x3e9e6e58	0.3094356
80	0xbe5e3340	-0.21699238
81	0x3f9f541c	1.2447543
82	0x4008fd21	2.1404498
83	0xbedc50e8	-0.43030477
84	0xbf7ba3a6	-0.9829658
85	0x3f358074	0.7089913
86	0xbe944c09	-0.2896426
87	0xbf37e1b3	-0.71828765
88	0x3dc90796	0.098159
89	0x3e730e0d	0.23735829
90	0x3f11f2d1	0.57011133
91	0x402a6f35	2.6630375
92	0x3f03ec37	0.5153231
93	0xbe86a9d8	-0.26301455
94	0xc01c75b5	-2.4446843
95	0xbeb96784	-0.3621179
96	0xbc1cd865	-0.009573077
97	0x3b94ac5a	0.0045371475
98	0xbd14150b	-0.03615288
99	0xbca6e53c	-0.02037298
100	0x3b54f2bf	0.003249332
101	0x3d671761	0.05641878
102	0xbcc0a9b7	-0.023518426
103	0x3d8d1ea9	0.068906136
104	0x3d831e2b	0.064022385
105	0xbe017106	-0.12640771
106	0x3d924768	0.07142526
107	0xbd01fa7d	-0.031733025
108	0x3d1024c0	0.035191298
109	0xbd634cbf	-0.055493113
110	0x3d4df849	0.05028561
111	0xbc7e5663	-0.015523526
112	0x3dba80a1	0.09106565
113	0x3d430a84	0.04761745
114	0x3c075fe9	0.008262613
115	0xbd887858	-0.06663579
116	0xbc1f114d	-0.009708715
117	0x3b36ccf4	0.0027893158
118	0xbccf1db6	-0.025282722
119	0x3c065268	0.008198358
120	0xbecff70c	-0.4061817
121	0xbe7786bc	-0.24172491
122	0xbe3c766c	-0.1840455
123	0xbde0d9cb	-0.10979041
124	0x3f09495f	0.5362758
125	0xbf08d226	-0.5344566
126	0x3f85f066	1.0463989
127	0xbdc404dd	-0.0957124
128	0x3e004fe1	0.12530471
129	0x3f70e12e	0.94093597
130	0x3d9fbe42	0.07799961
131	0x3c636463	0.0138789145
132	0xbd99223c	-0.07477233
133	0xbfbd6271	-1.4795667
134	0xbd5b4939	-0.053536627
135	0x3eec394b	0.4613746
136	0x3f74e8d7	0.95667785
137	0xbe2f6883	-0.17129712
138	0x3d8b5fbd	0.0680537
139	0xbdcb27bf	-0.0991969
140	0xbf959aba	-1.1687844
141	0x3fb3a574	1.4034867
142	0x3d04f790	0.032462656
143	0xbe01e53d	-0.12685104
144	0x3f6dea61	0.9293576
145	0x3dba0f63	0.09084966
146	0x3f185490	0.5950403
147	0x3fcd629e	1.604572
148	0x3e6b8ff7	0.23004137
149	0xbeab92b5	-0.33510366
150	0x3edb746a	0.42862254
151	0xbda79f7b	-0.08184715
152	0x3cfc9fd2	0.030837927
153	0x3f20c8c1	0.62806326
154	0x3ee1ec6d	0.4412569
155	0x3d897284	0.06711295
156	0xbf958624	-1.1681561
157	0xbff25398	-1.8931761
158	0xbde91098	-0.11380118
159	0xbefa9226	-0.48939627
160	0x4033fe69	2.812403
161	0xbd5be351	-0.053683583
162	0x3d22a58f	0.03970867
163	0xbe5e4b14	-0.21708328
164	0x3e06a087	0.13147174
165	0x3ea0f082	0.31433493
166	0xbf51e884	-0.81995416
167	0xbe8b2080	-0.27173233
168	0xbe969008	-0.29406762
169	0x3c1e8514	0.009675283
170	0xbc84f65c	-0.016230755
171	0x3ccaea46	0.024769913
172	0xc02c1def	-2.689327
173	0xbf4aafd1	-0.79174525
174	0xbccb00d0	-0.02478066
175	0x3d117a2b	0.0355169
176	0xbc7232e9	-0.014782646
177	0xbd8ae34a	-0.06781633
178	0x3e2b751e	0.16743895
179	0xbd329f08	-0.043608695
180	0xbf2166be	-0.630474
181	0xbe8edeea	-0.27904445
182	0x3c3bf2e9	0.0114714885
183	0x3dc5e258	0.09662312
184	0xbe2e60da	-0.17029133
185	0xbd4ec85e	-0.050484054
186	0x3b8d3a98	0.0043099634
187	0x3d85edc8	0.06539494
188	0x402148a1	2.520058
189	0x3f4780a1	0.7793065
190	0x3dc9fe7c	0.09862992
191	0xbdb5aff2	-0.088714495
192	0xbd3d8748	-0.046271592
193	0x3d940d57	0.07229107
194	0xbd000626	-0.031255864
195	0x3d5e0a61	0.054209117
196	0x3fa63ad5	1.2986704
197	0xc001bf11	-2.0272868
198	0xbe99dcdb	-0.30051312
199	0xbbdd638d	-0.006756252
200	0xbd33251d	-0.043736566
201	0xbe8b6f1f	-0.27233216
202	0xbecec7d0	-0.4038682
203	0xb9dfbf48	-0.0004267639
204	0x3e2e9ad7	0.17051254
205	0xbeb9bf9a	-0.36278993
206	0x3c23ae6f	0.009990319
207	0x3d14f614	0.03636749
208	0x3f26895c	0.65053344
209	0x3c5250ca	0.012836644
210	0xbe1999ee	-0.15000126
211	0xbe12bfbb	-0.14330952
212	0xbec6448d	-0.38724175
213	0x40033e8a	2.050692
214	0x3edf826d	0.43654194
215	0xbd79d6af	-0.060995754
216	0x3d276f68	0.04087773
217	0x3e83a44c	0.25711286
218	0xbe86e045	-0.2634298
219	0x3ec31f23	0.38109693
220	0xbf9bb8a1	-1.2165719
221	0x3dbbb667	0.0916565
222	0xbf673d46	-0.9032787
223	0x3d8fe9e5	0.07027034
224	0xbd74d512	-0.059773512
225	0x3f91daa3	1.1394848
226	0x3d429dbe	0.047513716
227	0xbe5a3815	-0.21310456
228	0xbf397e12	-0.72457993
229	0x3bb5eca1	0.00555189
230	0x3cd0ec94	0.025503434
231	0x3fa60d6f	1.297285
232	0x3f405ac3	0.7513849
233	0xbd9f4319	-0.0777647
234	0xbe74ce2b	-0.23906772
235	0x3faf1af0	1.3680096
236	0x3f22a1e5	0.6352828
237	0xbf93af01	-1.1537782
238	0x3fc43722	1.5329325
239	0x3e69a0fb	0.22815315
240	0x3e0f81e1	0.14014389
241	0x3b1461bc	0.0022641262
242	0xbd9cd571	-0.07657898
243	0x3eba8ae7	0.364341
244	0x3f8d8eb2	1.1059172
245	0x3f8be995	1.0930659
246	0x3f9bd17a	1.2173302
247	0x3d64ca71	0.055857126
248	0xbe82601f	-0.2546396
249	0x3f444309	0.7666479
250	0x3fdb413a	1.712928
251	0xbc644741	-0.013933004
252	0xbe177589	-0.1479093
253	0xbf2aac17	-0.6666884
254	0x3ddfb3b7	0.1092295
255	0xbea12bb5	-0.31478658

fcs1.bias f4 [164]
0	0xbe8f21bc	-0.27955425
1	0x3e81a142	0.25318342
2	0xbfece86d	-1.8508431
3	0xbfd6f745	-1.6794211
4	0xbe788d6d	-0.242727
5	0xbf929bfb	-1.1453851
6	0xbfddf984	-1.7341771
7	0xbfc70a7a	-1.5550072
8	0xbfdf9191	-1.7466298
9	0xbfd5ca1e	-1.6702306
10	0xbfffa69a	-1.9972718
11	0xbf75ea69	-0.96060807
12	0xbfac938d	-1.3482529
13	0xc062e426	-3.545175
14	0xbf2f4ea7	-0.6847939
15	0xbf44f3e8	-0.7693467
16	0xbea35bfc	-0.31906116
17	0xbf42e04e	-0.7612351
18	0xbf93af28	-1.1537828
19	0xbfafcca7	-1.373433
20	0xbfad943a	-1.356086
21	0xbf056ff8	-0.52123976
22	0xbffcccb8	-1.9749975
23	0xbfbbd5b7	-1.4674596
24	0xc016dc3d	-2.3571923
25	0x3f04bb28	0.5184808
26	0xbf666dd8	-0.9001136
27	0xbe90a696	-0.28252095
28	0xbf2e0d00	-0.67988586
29	0xbd9d3be1	-0.076774366
30	0xbf3c3b8d	-0.7352837
31	0xbffee29d	-1.9912907
32	0xc01f723c	-2.4913473
33	0x3e54d2c9	0.20783533
34	0xbf12d543	-0.5735666
35	0xbff3e51e	-1.9054296
36	0xbf9d0b99	-1.2269164
37	0xbd8b51b6	-0.068026945
38	0xbfe10b0c	-1.7581496
39	0xbe9b41f9	-0.3032377
40	0x3f1546b2	0.58311
41	0xbf8e2d0c	-1.1107497
42	0xbe8dfe93	-0.27733287
43	0xbf8bb6d8	-1.0915174
44	0xbf54545a	-0.8294121
45	0x3dba6e17	0.09103029
46	0xbfe91eba	-1.8212502
47	0xbfde278e	-1.7355821
48	0xbfba517c	-1.4556117
49	0xbea8a99b	-0.329419
50	0xbfcfac85	-1.6224524
51	0xc00b118b	-2.1729457
52	0xbfcb66a9	-1.5890704
53	0xc002d07d	-2.043975
54	0xbf91b4f2	-1.1383345
55	0xbd6538d3	-0.055962395
56	0xbfc3937f	-1.5279387
57	0xbf169b34	-0.5883057
58	0xbeec71b3	-0.46180496
59	0xbf0c632e	-0.54838836
60	0xbf88cc1a	-1.0687287
61	0xbfa252f1	-1.2681562
62	0xbffe69ce	-1.9876039
63	0xbfb90243	-1.4453815
64	0xbeb198e6	-0.34686965
65	0xbfa75f0d	-1.3075882
66	0xbf80b4e2	-1.0055201
67	0xbe8e2ad9	-0.27767065
68	0xc019a6ad	-2.400798
69	0xbf0a312d	-0.53981286
70	0xc006519e	-2.0987315
71	0xbf8b317a	-1.0874474
72	0xbf178bc3	-0.59197634
73	0xbf38b457	-0.72150177
74	0xbeccb2d4	-0.39980185
75	0xbf0a9cc0	-0.5414543
76	0xbeb2fa6f	-0.3495669
77	0xbf34ef91	-0.7067805
78	0xc017a8f7	-2.3696878
79	0xbf3cc2cd	-0.7373474
80	0xbf84bc5b	-1.0369982
81	0x3f19e6b1	0.6011763
82	0xbf4e8a95	-0.8068021
83	0xbeb7eeb5	-0.35924307
84	0xbf65e02f	-0.897952
85	0x3cf69cf9	0.030104147
86	0xbfcb0fa8	-1.5864153
87	0xbf584ddf	-0.8449382
88	0xc0113fd9	-2.269522
89	0xbf688a4e	-0.90836036
90	0xbf823996	-1.0173824
91	0xbe9b426b	-0.3032411
92	0xbf26a8bb	-0.6510121
93	0xbf9f0583	-1.2423557
94	0xbfd65cee	-1.674711
95	0xc030cbd5	-2.762441
96	0xbe74aafc	-0.2389335
97	0xbffbf568	-1.9684267
98	0xbf900e6e	-1.1254404
99	0xc045b0a3	-3.088906
100	0xbfb06332	-1.3780272
101	0xbef2480d	-0.47320595
102	0xc032824a	-2.7892022
103	0xbed5582e	-0.41668838
104	0xbf90052b	-1.1251577
105	0xbf474c3e	-0.7785071
106	0xc00ddcde	-2.2166057
107	0xbfe1b64a	-1.7633755
108	0xbe81a10b	-0.2531818
109	0xbf61b33a	-0.88164103
110	0xbf5ddebb	-0.86667985
111	0xc007f581	-2.1243594
112	0xbfe1aa31	-1.7630063
113	0xc00b816f	-2.179775
114	0xbfc95162	-1.5727961
115	0xbe6792dc	-0.22614616
116	0xbf4dadd5	-0.8034337
117	0xbf22f82f	-0.6365995
118	0xbd31e328	-0.043429524
119	0xbf3ddb55	-0.741628
120	0xbf410b49	-0.75407845
121	0xbfc26d24	-1.5189557
122	0xc0107726	-2.2572722
123	0xbfea8c53	-1.8324074
124	0xbfa31926	-1.274205
125	0x3e748593	0.2387908
126	0x3ea9a624	0.33134568
127	0x3f272918	0.6529708
128	0xc034106a	-2.8135018
129	0xbf9e6d87	-1.2377175
130	0xc017d8e7	-2.3726137
131	0xbfdf1f0e	-1.7431352
132	0xbfadecea	-1.3587925
133	0xbf9ead9e	-1.2396734
134	0xbe3ddceb	-0.18541305
135	0xbfc2022a	-1.515691
136	0x3efdf4aa	0.49600726
137	0xbfa64e34	-1.2992616
138	0xbfa44132	-1.2832396
139	0xbff1b558	-1.8883467
140	0xbfc527d8	-1.5402784
141	0xbfe8a0db	-1.8174089
142	0xbfd3ab0c	-1.6536574
143	0xbe28e9ca	-0.16495433
144	0xbeb77681	-0.358326
145	0xbf6a335f	-0.91484636
146	0xbfe9d724	-1.8268781
147	0xbf375da9	-0.7162729
148	0xc02dd36a	-2.7160287
149	0xbfbe2b7d	-1.4857022
150	0xbf83099f	-1.0237311
151	0xbf951592	-1.1647208
152	0xbfcf5dd1	-1.6200505
153	0xbf2a5f74	-0.665519
154	0xbe63b4a2	-0.22236875
155	0xc008fbe2	-2.1403737
156	0xbf432621	-0.76230055
157	0xbfd6bc70	-1.6776257
158	0x3ee5a797	0.44854423
159	0xbe92ad4d	-0.28647843
160	0xbe109803	-0.14120488
161	0xbfa84b68	-1.3148012
162	0xc00d96c5	-2.2123272
163	0xbfecdce1	-1.8504907

fc2.weight f4 [100, 166]
0	0xbc8616f6	-0.01636837
1	0xbd647b46	-0.055781625
2	0x3d936c93	0.07198443
3	0xbbbd640c	-0.005779749
4	0xbd99fba3	-0.07518699
5	0xbd005c50	-0.031338036
6	0xbdd65d2c	-0.1046699
7	0x3b9c0459	0.0047612605
8	0x3d87a085	0.066224135
9	0x3d0a2fa8	0.033736855
10	0xbb8ec2bd	-0.0043567107
11	0xbd14afef	-0.036300596
12	0xbd40f063	-0.04710425
13	0x3bd11f46	0.006381902
14	0xbd1405d0	-0.036138356
15	0x3d673127	0.05644336
16	0xbd750d29	-0.059827004
17	0xbe1ea107	-0.15491115
18	0xbdf6d062	-0.120514646
19	0x3d9560ea	0.072938755
20	0x3cfa73df	0.03057283
21	0xbc35df51	-0.011100606
22	0xbda36145	-0.07977537
23	0x3da14815	0.07875077
24	0x3d048811	0.032356326
25	0xbdfb8406	-0.12281041
26	0xbcd960a2	-0.026535336
27	0x3ba38f8f	0.0049914788
28	0xbd0e0010	-0.03466803
29	0xbd353b99	-0.04424629
30	0xbd999fbc	-0.0750117
31	0x3d4ddce3	0.050259482
32	0x3d8ea2b2	0.069646254
33	0xbd9bb775	-0.07603351
34	0xbd010aed	-0.03150456
35	0xbb3e94ef	-0.002908047
36	0xbd6b0c49	-0.057384763
37	0x3d1487bf	0.03626227
38	0x3d9088da	0.07057352
39	0x3c8aafd8	0.016929552
40	0xbd6f7128	-0.058457524
41	0x3d73e8fe	0.05954837
42	0xbd364ba2	-0.044505723
43	0x3e1ae683	0.15126996
44	0x3c8e1928	0.01734598
45	0xbd82d7b4	-0.06388798
46	0x3d84c66f	0.06483161
47	0xbe01c0e5	-0.1267124
48	0xbce7be93	-0.028289115
49	0x3d67f2db	0.05662809
50	0x3d39e8ff	0.045388218
51	0xbd9df91a	-0.07713528
52	0xbd795f68	-0.060882002
53	0xba16b83f	-0.00057495007
54	0x3cfb6135	0.030686
55	0xbe0e1548	-0.13875306
56	0xbd9b6127	-0.0758689
57	0xbc4f35f5	-0.012647142
58	0x3c8ac883	0.016941315
59	0xbd5b9bc7	-0.053615358
60	0xbe0c5fe3	-0.13708453
61	0x3c958bdb	0.018255165
62	0xbde1c1b7	-0.11023276
63	0xbd4e6039	-0.050384734
64	0xbdd0b1d9	-0.10190172
65	0x3d8faac8	0.07014996
66	0xbe316ece	-0.17327425
67	0x3d9d7742	0.07688762
68	0xbe1911ed	-0.14948244
69	0xbdce20f7	-0.10064881
70	0xbdb1f387	-0.08689027
71	0xbd86deb0	-0.06585443
72	0xbdbf4031	-0.093384154
73	0xbdd9e20f	-0.106388204
74	0xbc0f667e	-0.008752463
75	0xbdaa7bb4	-0.08324376
76	0xbe0746f7	-0.13210665
77	0x3b75ef15	0.0037526537
78	0xbda23bd7	-0.0792157
79	0xbde2a99a	-0.11067505
80	0xbddf26be	-0.10896061
81	0xbe251211	-0.16120173
82	0xbdaa9fe0	-0.08331275
83	0xbd6fb737	-0.058524337
84	0xbd93a64e	-0.072094545
85	0x3d483506	0.048878692
86	0xbd81f26d	-0.06345067
87	0xbc0dd922	-0.0086577255
88	0xbe11018d	-0.14160748
89	0xbca0aeee	-0.019614663
90	0x3ca6a97d	0.02034449
91	0xbe114640	-0.14186954
92	0x3cc5157b	0.024058094
93	0xbd945764	-0.07243231
94	0x3d0117e4	0.031516925
95	0xbd981bc7	-0.07427173
96	0x3c0aa242	0.008461537
97	0x3d023b6d	0.031794954
98	0xbda606b9	-0.08106751
99	0x3d1565fe	0.03647422
100	0xbd426c9b	-0.047466855
101	0xbd2cdb89	-0.042201553
102	0xbc50abae	-0.012736244
103	0x3dc73627	0.097271256
104	0xbd909ed9	-0.07061548
105	0xbd6b2594	-0.057408884
106	0x3db5c9bb	0.08876368
107	0xbdcde75a	-0.100538924
108	0xbddbf847	-0.107407145
109	0x3c52a979	0.012857788
110	0xbde49622	-0.11161448
111	0x3c88d3e1	0.016702594
112	0xbdd081ca	-0.10181005
113	0xbe6239f3	-0.22092418
114	0x3d255dd5	0.04037269
115	0x3d1d034a	0.038333215
116	0xbd40d16d	-0.047074724
117	0xbd66a4a2	-0.05630935
118	0xbd7a64db	-0.06113134
119	0xbcf5a11e	-0.029984053
120	0x3d8b370f	0.06797611
121	0xbd5ee6c9	-0.054419313
122	0xbdd8ae5a	-0.1058013
123	0xbd9a578a	-0.07536228
124	0x3d9a938e	0.07547675
125	0xbd32bb07	-0.043635394
126	0xbe0e049e	-0.13868949
127	0x3ca38d41	0.019964816
128	0xbcc30b80	-0.023809195
129	0x3d1932c3	0.037401926
130	0xbdc30fb4	-0.095244795
131	0xbcc11f36	-0.023574453
132	0xbc5f67a3	-0.013635549
133	0x3dd9b666	0.10630493
134	0xbbc576e9	-0.006026138
135	0xbd87d33c	-0.06632087
136	0xbdbd647a	-0.0924768
137	0xbd28fc3a	-0.041256167
138	0xbd93da83	-0.07219412
139	0xbcc1ec97	-0.023672385
140	0xbdab0978	-0.083514154
141	0x3bcc2099	0.006229472
142	0xbe51250c	-0.20424289
143	0xbd01add3	-0.031659912
144	0xbe4f6353	-0.20252733
145	0x3d290553	0.041264843
146	0x3cc82482	0.02443147
147	0xbcd296ae	-0.025706615
148	0xbde3f7ad	-0.11131225
149	0xbdfa2a5a	-0.12215109
150	0x3c623e6f	0.013808831
151	0xbcbd186b	-0.023082932
152	0xbca15288	-0.019692674
153	0x3d1491f2	0.036271997
154	0xbcaa4380	-0.02078414
155	0x3d90e77f	0.070754044
156	0xbd1d5c94	-0.038418368
157	0xbd7c4c94	-0.061596468
158	0xbd3a70d0	-0.045517743
159	0x3d654b58	0.055980057
160	0xbe3a9c11	-0.18223597
161	0xbde26b75	-0.11055652
162	0x3d9f4fc1	0.07778884
163	0xbd042d4f	-0.032269772
164	0xba99217b	-0.0011682952
165	0xbc82d3ed	-0.015970195
166	0xc091bed5	-4.554545
167	0x3e05ec86	0.13078508
168	0xbe28f1a1	-0.16498424
169	0xbeabe2c3	-0.33571443
170	0x3db29d72	0.087214366
171	0x3bc4b688	0.0060032047
172	0x3ec65f2c	0.38744485
173	0xbd8a209e	-0.067445025
174	0xc02c280b	-2.689944
175	0x3f32f94f	0.69911665
176	0xbe44f7aa	-0.19235101
177	0x3f5a9e1e	0.8539752
178	0x3f1ec39b	0.6201722
179	0xbf8510c9	-1.0395747
180	0xbfa46a11	-1.2844869
181	0xbe9d8b77	-0.30770466
182	0xbcafc2b3	-0.021455145
183	0xbda589c5	-0.08082918
184	0xbe900dd5	-0.28135553
185	0xbf8ee74f	-1.116434
186	0xbf756318	-0.9585433
187	0x3cddc43c	0.02707111
188	0xc012ac72	-2.2917752
189	0x3f6d0b91	0.92595774
190	0x3e2708c1	0.16311933
191	0x3f7203ff	0.9453735
192	0xbe4066e7	-0.18789254
193	0xbf050d39	-0.519733
194	0x3f393e3a	0.72360575
195	0xbea34bc7	-0.3189375
196	0x3fb0fdf0	1.3827496
197	0xbfffb3df	-1.9976767
198	0xbf560e40	-0.83615494
199	0x3d8e4638	0.06946987
200	0x3e646ef6	0.22307953
201	0x3f40d364	0.75322556
202	0x3e5c912d	0.21539755
203	0xbfd9258b	-1.6964582
204	0x3e029768	0.1275307
205	0xbd8d0908	-0.06886488
206	0x3eb1f1bd	0.34754744
207	0xc04ad381	-3.1691592
208	0xc09fe1e8	-4.9963264
209	0xc0145ebd	-2.3182824
210	0xc0249840	-2.5717926
211	0xc044acc6	-3.0730453
212	0xbf9f9976	-1.2468708
213	0x3f304e2b	0.68869275
214	0x3ff8f4b2	1.9449675
215	0xc04b2987	-3.1744096
216	0xbdb26045	-0.08709768
217	0xbf8b6215	-1.0889307
218	0xc060637c	-3.506072
219	0x3ea9e84e	0.33185047
220	0x3f239fe5	0.63915855
221	0x3e88d339	0.2672365
222	0x3f033c49	0.5126386
223	0x3f2241a8	0.63381433
224	0xbf1d68a5	-0.614878
225	0xbd4829a8	-0.04886785
226	0x3e9568ac	0.2918142
227	0xbf8ae0ba	-1.0849831
228	0xc0172533	-2.3616455
229	0xbf45fe27	-0.7734093
230	0xc046bbcc	-3.1052122
231	0x3e455712	0.19271496
232	0xbdd496e5	-0.10380343
233	0xbba4f71f	-0.005034342
234	0x3f8fc9b3	1.1233429
235	0xbea254f0	-0.31705427
236	0xbe438ad6	-0.1909593
237	0xbe2eb016	-0.17059359
238	0xbf3a642b	-0.72809094
239	0x3ed51633	0.416185
240	0xbf9dc402	-1.2325442
241	0xbdc374c8	-0.09543759
242	0x3e4ea43b	0.20179836
243	0xbf0a291e	-0.5396899
244	0x3fd238e4	1.6423612
245	0xbfad293f	-1.3528212
246	0x3dcbc358	0.09949368
247	0x3f43f355	0.7654317
248	0xbdf94d71	-0.12172974
249	0x3d841e2b	0.064510666
250	0xbfc1ac2c	-1.5130668
251	0xc04f1bbd	-3.236068
252	0x3f6d806c	0.9277408
253	0xbf6ac1d7	-0.91702026
254	0x3f8f1b48	1.11802
255	0xbf7d58ec	-0.9896381

fc2.bias f4 [100]
0	0xbe002d2f	-0.12517236
1	0x3e8166bb	0.2527369
2	0xbe03bd5f	-0.12865208
3	0xbe8fd9ad	-0.2809576
4	0x3f24ea05	0.64419585
5	0xc01512bb	-2.3292682
6	0xbe35c940	-0.17752552
7	0xbf3ad512	-0.7298137
8	0x3ffbfba6	1.9686172
9	0xbe2de2fa	-0.16981116
10	0xbda29e68	-0.0794037
11	0xbe0cb02a	-0.13739076
12	0xbfca4043	-1.5800861
13	0xbeae6fb4	-0.34069598
14	0xbe34761c	-0.1762318
15	0xbc5555bc	-0.013020929
16	0xbdba1b1d	-0.09087203
17	0xbf8a9348	-1.0826197
18	0xbd6f4ce4	-0.058422938
19	0x3f5a6da9	0.8532358
20	0x3e1b7592	0.15181568
21	0xbdd85ac3	-0.105641864
22	0xbf99a61b	-1.2003816
23	0x3f23d2ea	0.63993704
24	0xbd1f4413	-0.03888328
25	0xbdd5cab4	-0.10439053
26	0xbdfb0215	-0.122562565
27	0xbef3400d	-0.47509804
28	0xbdd01b3a	-0.10161443
29	0xbee882f1	-0.454124
30	0xbf4dacfa	-0.80342066
31	0xbf6f8fc2	-0.9357873
32	0xbd56a28d	-0.052401114
33	0xbfb47076	-1.409682
34	0xbf5ef3f4	-0.8709099
35	0xbe3ffa39	-0.18747796
36	0xbfd4976f	-1.6608714
37	0xbe829de3	-0.25511083
38	0xbdce9de5	-0.1008871
39	0xbd8d3d42	-0.068964496
40	0xbe49ad14	-0.1969493
41	0xbee3aab4	-0.44466174
42	0xbcb3a943	-0.021931296
43	0xbe4a5622	-0.1975942
44	0xbe720c3c	-0.2363748
45	0xbe09f888	-0.13473713
46	0xbdee5bbb	-0.1163859
47	0xbd4ab440	-0.049488306
48	0xbe153a38	-0.1457299
49	0x3ebace46	0.364855
50	0xbddfeda9	-0.10934002
51	0xbededc03	-0.4352723
52	0xbe13d32f	-0.14436029
53	0xbe08c9b5	-0.13358195
54	0xbfa256ef	-1.268278
55	0xbe458484	-0.19288832
56	0xbe6c23e1	-0.23060562
57	0xbe3d9606	-0.1851426
58	0xbe2be16f	-0.16785215
59	0xbe4f6ce3	-0.2025638
60	0xbcf716fa	-0.030162323
61	0x3f142a1e	0.57876766
62	0xbd2d050d	-0.042241145
63	0xbe1715a2	-0.14754346
64	0xbe6d123c	-0.23151487
65	0xbe056565	-0.1302696
66	0xbdc0f052	-0.094208375
67	0xbe6e3231	-0.23261334
68	0xbe01d2f0	-0.12678123
69	0xbe14b7aa	-0.14523187
70	0xbe1502d2	-0.14551857
71	0xbd82da9a	-0.06389351
72	0xbe0b4b1e	-0.13602874
73	0xbfbea0f3	-1.4892868
74	0xbdd6ff8c	-0.104979604
75	0xbdb2bdbf	-0.087275974
76	0xc04caf2a	-3.1981912
77	0xc01181c2	-2.2735448
78	0xbd93a4ae	-0.072091445
79	0xbe5892c7	-0.21149741
80	0xbdf2e998	-0.11860961
81	0xbe3faec2	-0.18719009
82	0xbdb2babd	-0.08727024
83	0xbda09bb0	-0.07842195
84	0xbe0b83b9	-0.13624467
85	0xbf18c406	-0.5967411
86	0xbe0ce726	-0.13760051
87	0x3e8cec0d	0.27523842
88	0x3ec99432	0.39370877
89	0xbe2e9678	-0.17049587
90	0xbdffad48	-0.12484223
91	0xbe08ad46	-0.13347349
92	0xbe19aa31	-0.15006329
93	0xbf2b5b94	-0.6693661
94	0xbe4b0a70	-0.198282
95	0xbe486446	-0.19569501
96	0x3f0182dd	0.50590307
97	0xbe0865bd	-0.1332006
98	0xbeaa4efa	-0.3326338
99	0xbe352cf8	-0.17692935

fc3.weight f4 [1, 100]
0	0xbcb3bc0b	-0.021940252
1	0x3ca53de9	0.020171123
2	0xbd6a05fb	-0.05713461
3	0xbd1a1e36	-0.037626468
4	0xbd019e9b	-0.0316454
5	0x3dcf8487	0.101326995
6	0xbc8b0627	-0.016970707
7	0x3d784871	0.06061596
8	0xbd31cc3f	-0.043407675
9	0xbcea4a5d	-0.028599912
10	0xbc963013	-0.01833347
11	0xbc9e90af	-0.0193561
12	0xbd04a27a	-0.032381512
13	0x3d66d51a	0.056355573
14	0x3d166afb	0.03672312
15	0x3d693341	0.056933645
16	0x3c8d44aa	0.017244656
17	0xbd58bc9f	-0.052914258
18	0xbcd3a5fc	-0.025835983
19	0x3d81c70f	0.063367955
20	0x3d0a29cf	0.033731278
21	0x3c53ef03	0.012935403
22	0x3d28615e	0.04110848
23	0x3d10f2c0	0.035387754
24	0x3c17c94b	0.009264301
25	0xbcd2f69c	-0.025752358
26	0xbce9cf5c	-0.02854126
27	0x3ce9d6da	0.028544832
28	0xbca2a5fe	-0.019854542
29	0xbcf5b711	-0.02999452
30	0xbd5f7069	-0.054550562
31	0xbdbbf939	-0.09178395
32	0x3ca7eb60	0.020497978
33	0xbd42e096	-0.047577463
34	0xbd94fe18	-0.07275027
35	0xbcd9aa26	-0.02657039
36	0xbd80e46a	-0.062935665
37	0xbcc836e2	-0.024440233
38	0xbcef95a1	-0.029246153
39	0xbcfb59c2	-0.030682448
40	0x3d0ab115	0.033860285
41	0xbce288fd	-0.027653212
42	0x3d65b358	0.05607924
43	0x3d0eca38	0.03486082
44	0xbd24dbc2	-0.04024864
45	0xbcbead6b	-0.023276052
46	0xbba973da	-0.0051712813
47	0x3ae7ea37	0.0017693703
48	0xbaf190e8	-0.0018430026
49	0x3d01d17d	0.031693924
50	0xbbacb192	-0.0052701915
51	0xbd24ce55	-0.040235836
52	0xbd1ec59f	-0.038762685
53	0xbcdd2223	-0.026993817
54	0xbd427b16	-0.047480665
55	0x3d3fbbe3	0.046810042
56	0x3a8b3dcc	0.0010623275
57	0x3cec82b7	0.028870923
58	0xbd2f1c67	-0.042751696
59	0xbd45b2d4	-0.048266247
60	0xbd1da9da	-0.03849206
61	0xbd935cb9	-0.0719542
62	0xbc26bc51	-0.010176734
63	0x3c9adf08	0.018905178
64	0xbcda8e1f	-0.026679097
65	0xbcd4d8d8	-0.025982305
66	0xbc7a2442	-0.015267434
67	0x3d46da4b	0.048548024
68	0xbc4913e9	-0.012272813
69	0x3ae911e9	0.0017781827
70	0x3cf3de7e	0.029769178
71	0xbce81da1	-0.02833444
72	0x3c7af28b	0.015316616
73	0xbda4080b	-0.080093466
74	0x3bacd6eb	0.0052746437
75	0xbb7d4e89	-0.0038651547
76	0xbdaaf870	-0.08348167
77	0xbd88c6da	-0.06678553
78	0x3d2a977b	0.04164837
79	0x3bc0b64f	0.005881108
80	0x3d7513bd	0.059833277
81	0xbca3d040	-0.019996762
82	0x3d189974	0.03725572
83	0x3b4996c6	0.0030760034
84	0x3a1fefeb	0.0006101119
85	0x3d652286	0.055941127
86	0x3b8973e5	0.004194724
87	0xbd82e8ca	-0.06392057
88	0xbd227abe	-0.039667837
89	0xbb3485ab	-0.0027545493
90	0x3c97b46e	0.018518653
91	0x3c625767	0.013814784
92	0x3bb103cf	0.0054020653
93	0xbdb916c1	-0.09037543
94	0xbd3a992d	-0.045556236
95	0xba82adf1	-0.0009970051
96	0xbd18350d	-0.03715997
97	0xbc7b99df	-0.01535651
98	0xbdb9a530	-0.0906471
99	0xbd1ec92d	-0.038766075

bn1.weight f4 [24]
0	0xbdaaf26b	-0.08347019
1	0xbc964647	-0.018344058
2	0x3c75905f	0.014988034
3	0x3d8e1374	0.06937304
4	0x3f54aa86	0.830727
5	0x3ef02dc4	0.46909916
6	0x3d37d9ce	0.04488545
7	0x3bd4ea3c	0.0064976495
8	0xbc0bbc9f	-0.0085288575
9	0x3e864519	0.26224592
10	0x3d663c5e	0.056209914
11	0xbbf5a529	-0.0074964953
12	0x3f28b6ae	0.6590375
13	0x3f1bfafc	0.60929847
14	0x3bc9016c	0.0061342027
15	0x3e0f8166	0.14014205
16	0x3eaf4df3	0.34239158
17	0xbb03fb1a	-0.0020138682
18	0xb7b79a40	-2.1887128e-05
19	0x3e7ec5b1	0.24880101
20	0x3f9aa584	1.2081761
21	0x3f3c1dcc	0.73482966
22	0x3ded8723	0.11598041
23	0x37df2148	2.659917e-05

bn1.bias f4 [24]
0	0xbd40bed1	-0.047056977
1	0x3ba4b0e6	0.0050259707
2	0x3c565d4a	0.013083765
3	0xbcc78132	-0.024353597
4	0x3e732bcf	0.2374718
5	0x3e78466c	0.24245614
6	0x3be6cd03	0.0070434823
7	0x3aa37bbf	0.0012472792
8	0x3bb02501	0.005375505
9	0x3d21ba4c	0.039484307
10	0x3b992295	0.004673312
11	0x3b6e3232	0.0036345837
12	0x3ebe5c29	0.37179688
13	0x3f1dfe59	0.6171623
14	0xbc7a8367	-0.015290118
15	0xbce18ae7	-0.027532054
16	0xbe05a3ce	-0.13050768
17	0xbb62733d	-0.003455355
18	0xbc2f68ef	-0.01070617
19	0xbc8e1eda	-0.017348696
20	0x3eb45fad	0.35229245
21	0x3f116d18	0.5680709
22	0x3c595a2f	0.01326613
23	0x3c533ac2	0.012892427

bn1.running_mean f4 [24]
0	0xc0e28844	-7.079134
1	0xbf10de4d	-0.56589204
2	0x40902e9d	4.50569
3	0xbde3de40	-0.11126375
4	0xb9c9fe76	-0.00038527296
5	0x403abae9	2.917658
6	0x40902e9d	4.50569
7	0xbde3de40	-0.11126375
8	0xc0e270b1	-7.0762563
9	0xbf1103c9	-0.566464
10	0x40955453	4.6665435
11	0xbdc224c2	-0.09479667
12	0xbc0adb5d	-0.008475152
13	0x403c0d30	2.938305
14	0x40955453	4.6665435
15	0xbdc224c2	-0.09479667
16	0xc0e30369	-7.0941663
17	0xbf0fdb97	-0.5619444
18	0x40939dd5	4.6130166
19	0xbd3beeb1	-0.04588193
20	0xbc85906a	-0.016304214
21	0x403cfb70	2.9528465
22	0x40939dd5	4.6130166
23	0xbd3beeb1	-0.04588193

bn1.running_var f4 [24]
0	0x418402a0	16.501282
1	0x3f8ee48b	1.1163496
2	0x43c1ab4c	387.33826
3	0x41562c37	13.385795
4	0x41d305a1	26.377748
5	0x404d1766	3.2045531
6	0x43c1ab4c	387.33826
7	0x41562c37	13.385795
8	0x418470f8	16.55516
9	0x3f8f39d1	1.1189519
10	0x43c034df	384.41306
11	0x415c3d36	13.764944
12	0x41d20ee0	26.257263
13	0x4048755d	3.1321633
14	0x43c034df	384.41306
15	0x415c3d36	13.764944
16	0x4184088d	16.504175
17	0x3f8e94cd	1.113916
18	0x43c3e1a8	391.76294
19	0x41565697	13.39614
20	0x41d2f6b5	26.370462
21	0x40470d31	3.1101801
22	0x43c3e1a8	391.76294
23	0x41565697	13.39614
