p3_collab-compet/critic_weights_best_avg_max.pth (torch_old, 85450 bytes, 9 tensors)

fcs1.weight f4 [164, 24]
0	0xbd400a6f	-0.04688495
1	0x3dbe6faf	0.09298646
2	0xbdc1486b	-0.09437641
3	0xbe1e2e8e	-0.15447447
4	0xc0153686	-2.3314528
5	0xbe8b4f50	-0.27208948
6	0x3db9f4fd	0.09079931
7	0x3d4403b9	0.047855113
8	0x3cb2c84e	0.021824028
9	0xbce2a93b	-0.027668586
10	0xbd8cbe9d	-0.06872294
11	0x3cb6b7f9	0.022304522
12	0xbf6ed40c	-0.9329231
13	0xbf0babe0	-0.54559135
14	0xbce8ffbf	-0.028442262
15	0xbc7bfcab	-0.015380065
16	0x3d5d73b7	0.054065432
17	0x3c8cb62a	0.017176706
18	0x3dc1affa	0.09457393
19	0x3c534363	0.012894484
20	0x400f168d	2.2357514
21	0x3f1d574e	0.6146134
22	0xbcf2ee74	-0.029654719
23	0x3de077be	0.10960339
24	0x3ecff1ce	0.4061417
25	0xbc206bde	-0.009791343
26	0x3da6dd0c	0.0814763
27	0x3e0c5747	0.13705169
28	0xbc3f2c9a	-0.011668349
29	0x3e6886f6	0.22707734
30	0x3db0dbb4	0.08635655
31	0x3dc0e90a	0.09419449
32	0x3cee5dc9	0.029097455
33	0xbf09ee97	-0.53879684
34	0xbd9a8cd4	-0.07546392
35	0xbdc49c69	-0.09600145
36	0xbf72af92	-0.9479915
37	0xbfd44ba1	-1.658558
38	0xbe2ef753	-0.17086534
39	0xbe816005	-0.2526857
40	0x3ee38c4a	0.4444297
41	0x3db5ddef	0.08880221
42	0x3c44f878	0.01202213
43	0xbc0bc30e	-0.008530391
44	0x3f1c4ae5	0.6105178
45	0x3fac54ac	1.346334
46	0x3e005059	0.1253065
47	0xbd41f97d	-0.04735707
48	0x4008b4b1	2.1360285
49	0xbd271a0a	-0.040796317
50	0x3e27a652	0.1637204
51	0x3faeb112	1.3647788
52	0x3e968e23	0.29405317
53	0xbe064a82	-0.1311436
54	0xbf810f25	-1.0082747
55	0xbe958604	-0.29203808
56	0xbeb44d1b	-0.35215077
57	0x3feac279	1.8340598
58	0xbf44e145	-0.76906234
59	0xbea0115e	-0.3126325
60	0x3dc72907	0.09724622
61	0xbd4bde53	-0.04977257
62	0xbef8d798	-0.48601985
63	0x3f14befe	0.5810393
64	0xbed67d48	-0.41892457
65	0xbee9f166	-0.45691985
66	0x3ec6a708	0.3879931
67	0x3fa62067	1.2978638
68	0x3e536c35	0.20646746
69	0xbf66c996	-0.90151346
70	0x3e006bec	0.12541169
71	0x3dd426bb	0.1035895
72	0xbfd45584	-1.6588597
73	0x3f319ed4	0.6938298
74	0x3e5fa871	0.21841599
75	0xbf0091a4	-0.5022223
76	0x3d09e563	0.033666026
77	0xbf71a6e3	-0.94395274
78	0xbf65f060	-0.8981991
79	0xbb6cdf56	-0.003614386
80	0x3dbf44e9	0.093393154
81	0x3f840ccf	1.0316409
82	0x401fd9c4	2.4976664
83	0xbee77ceb	-0.45212492
84	0xbf85bbe9	-1.0447971
85	0x3f20d3dd	0.6282328
86	0xbeba4d5b	-0.36387143
87	0xbf1ac213	-0.60452384
88	0xbce80812	-0.02832416
89	0x3ecc3795	0.39886156
90	0x3e01d349	0.12678255
91	0x401cf715	2.4525807
92	0x3ea2ca61	0.31795028
93	0xbe3cc319	-0.18433799
94	0xc0093717	-2.1439874
95	0x3df08a71	0.117451556
96	0xbc1cd865	-0.009573077
97	0x3b94ac5a	0.0045371475
98	0xbd14150b	-0.03615288
99	0xbca6e53c	-0.02037298
100	0x3b54f2bf	0.003249332
101	0x3d671761	0.05641878
102	0xbcc0a9b7	-0.023518426
103	0x3d8d1ea9	0.068906136
104	0x3d831e2b	0.064022385
105	0xbe017106	-0.12640771
106	0x3d924768	0.07142526
107	0xbd01fa7d	-0.031733025
108	0x3d1024c0	0.035191298
109	0xbd634cbf	-0.055493113
110	0x3d4df849	0.05028561
111	0xbc7e5663	-0.015523526
112	0x3dba80a1	0.09106565
113	0x3d430a84	0.04761745
114	0x3c075fe9	0.008262613
115	0xbd887858	-0.06663579
116	0xbc1f114d	-0.009708715
117	0x3b36ccf4	0.0027893158
118	0xbccf1db6	-0.025282722
119	0x3c065268	0.008198358
120	0xbe9b2a15	-0.30305544
121	0xbe8b2817	-0.27179024
122	0xbc939312	-0.018014465
123	0xbb9c9cbd	-0.004779427
124	0x3f1c32c6	0.61014974
125	0xbf30c538	-0.6905093
126	0x3f427434	0.7595856
127	0x3e52035d	0.20509095
128	0x3e3ff069	0.18744053
129	0x3f59cc11	0.85077006
130	0x3e3d870b	0.18508546
131	0xbe0ffc45	-0.14061077
132	0xbe0c71ff	-0.13715361
133	0xbf9e5215	-1.23688
134	0xbe559961	-0.2085929
135	0x3f22d880	0.636116
136	0x3f920ad5	1.1409556
137	0xbd755428	-0.05989471
138	0xbda79c12	-0.08184065
139	0xbdc8d97a	-0.09807105
140	0xbf8dfb99	-1.1092407
141	0x3fa744dc	1.3067889
142	0x3e9db871	0.3080478
143	0xbe4d987c	-0.200777
144	0x3f6c6cd4	0.9235356
145	0xbe60760d	-0.21920033
146	0x3bf7c123	0.0075608655
147	0x3fc108f3	1.5080856
148	0x3e7602bc	0.2402448
149	0xbec96cb7	-0.39340755
150	0x3e96d528	0.294595
151	0xbe506a07	-0.20352946
152	0x3b7c1600	0.0038465261
153	0x3e66a3f0	0.22523475
154	0x3e930d48	0.2872107
155	0xbeff85ea	-0.49906856
156	0xbf92b0bb	-1.1460184
157	0xbfe6c3ac	-1.8028464
158	0xbd545147	-0.051835325
159	0xbf00b907	-0.5028233
160	0x40319bf2	2.7751431
161	0x3e219610	0.157799
162	0xbe7e49de	-0.24832866
163	0xbc8398c2	-0.016064052
164	0x3da96976	0.08272068
165	0x3ec997b3	0.3937355
166	0xbeff6dad	-0.49888363
167	0xbd93462b	-0.07191118
168	0xbead0a24	-0.337968
169	0xbd8b6b14	-0.06807533
170	0x3d45980c	0.048240706
171	0x3e47df25	0.19518717
172	0xc02c3bb5	-2.6911442
173	0xbf34310f	-0.7038736
174	0x3caefa1f	0.021359501
175	0xbd1cb3ba	-0.038257338
176	0x3bdbc517	0.0067068445
177	0xbe2817b4	-0.16415292
178	0x3dd8767d	0.10569475
179	0x3da5fc77	0.081047945
180	0xbf0e71bb	-0.5564229
181	0xbe919bcf	-0.28439185
182	0xbd4c47a1	-0.049873
183	0x3da6a258	0.08136433
184	0xbe4447c3	-0.19168
185	0xbd9680ca	-0.07348783
186	0xbd75f6f1	-0.060049955
187	0xbc8e17f6	-0.01734541
188	0x401cfa61	2.452782
189	0x3f44e76a	0.7691561
190	0x3df66fe5	0.12033061
191	0x3dee0eb8	0.11623901
192	0x3df80902	0.12111093
193	0x3ddc355c	0.10752365
194	0xbad12a01	-0.0015957953
195	0x3e91e2dd	0.28493395
196	0x3fa838ac	1.3142295
197	0xbff9131c	-1.9458957
198	0xbe216cda	-0.1576418
199	0xbe092de6	-0.13396415
200	0xbda0f455	-0.07859103
201	0xbe98f4b9	-0.2987421
202	0xbe4d6b5a	-0.20060483
203	0xbe80cb58	-0.2515514
204	0x3e37c40c	0.1794588
205	0xbe9c0528	-0.30472684
206	0x3d475c9e	0.04867231
207	0x3e01db81	0.1268139
208	0x3f1b9a77	0.6078257
209	0x3e2a83c2	0.16651824
210	0x3e083f5c	0.1330542
211	0xbe93dcc0	-0.28879356
212	0xbecf1117	-0.40442726
213	0x3ff76ef2	1.9330733
214	0x3ef5f6c8	0.48039842
215	0xbd56f6f7	-0.052481618
216	0xbeb99d21	-0.36252692
217	0x3e9a7ad3	0.30171832
218	0xbd22da8f	-0.039759215
219	0x3ee16152	0.44019562
220	0xbfa47622	-1.2848551
221	0xbe178959	-0.14798488
222	0xbef0e03e	-0.47046083
223	0xbe17161a	-0.14754525
224	0xbe7febee	-0.24992344
225	0x3fb7e79b	1.4367555
226	0xbe01f823	-0.12692313
227	0xbeec1b51	-0.4611459
228	0xbf5c9a0c	-0.86172557
229	0x3ddd1fb7	0.10797065
230	0x3e335fac	0.17516965
231	0x3fadde4c	1.3583465
232	0x3f342521	0.70369154
233	0xbd8ed3a9	-0.06973965
234	0xbe1f8304	-0.15577322
235	0x3f96e2ca	1.178796
236	0x3f0bef02	0.5466157
237	0xbf88f742	-1.0700457
238	0x3fd434ab	1.6578573
239	0x3e8c8663	0.2744628
240	0x3ddfe377	0.10932057
241	0xbd6989e6	-0.057016276
242	0x3e84826b	0.2588075
243	0x3ec1eb75	0.37874952
244	0x3f783ca6	0.9696754
245	0x3f860902	1.0471499
246	0x3f9a9641	1.2077104
247	0x3d3f8aa2	0.04676307
248	0x3d5f62a0	0.054537416
249	0x3ef5bbca	0.47994834
250	0x3fc20f19	1.5160857
251	0x3d377586	0.044789813
252	0xbe4daf21	-0.20086338
253	0xbf19c506	-0.6006626
254	0x3dc97332	0.09836425
255	0x3d8511c3	0.064975284

fcs1.bias f4 [164]
0	0xbe55a068	-0.20861971
1	0x3e963c45	0.29342857
2	0xbfe4e97b	-1.7883753
3	0xbfcd4c19	-1.6038848
4	0xbe788d6d	-0.242727
5	0xbf87cbad	-1.0609032
6	0xbfc6bf99	-1.5527221
7	0xbfc1748e	-1.5113695
8	0xbfcfd3af	-1.6236476
9	0xbfc978c3	-1.5739979
10	0xbff0132d	-1.8755852
11	0xbf8a76db	-1.0817522
12	0xbfb4f881	-1.4138337
13	0xc055546d	-3.333278
14	0xbf2eb032	-0.682376
15	0xbf398ad1	-0.7247744
16	0xbe92da45	-0.2868215
17	0xbf3f5c1b	-0.74749917
18	0xbf79a635	-0.97519237
19	0xbfa402b0	-1.281332
20	0xbfb08954	-1.3791909
21	0xbf013041	-0.50464255
22	0xbfee31f2	-1.8608992
23	0xbfc81e32	-1.5634215
24	0xc00ddb68	-2.2165165
25	0x3eeae98f	0.45881316
26	0xbf2feda4	-0.68721986
27	0xbeaf5514	-0.34244597
28	0xbf4a5014	-0.7902844
29	0xbda083a6	-0.0783761
30	0xbf4053c9	-0.75127846
31	0xbffc40ca	-1.9707272
32	0xc01db58e	-2.4642062
33	0x3e3a6275	0.18201621
34	0xbf056e57	-0.5212149
35	0xbfe43492	-1.7828543
36	0xbf96a902	-1.1770327
37	0xbdb2cfe0	-0.08731055
38	0xbfdb1d2e	-1.711828
39	0xbe9b41f9	-0.3032377
40	0x3f0e3ee1	0.55564696
41	0xbf7c945c	-0.9866388
42	0xbe916d03	-0.28403482
43	0xbf790843	-0.9727823
44	0xbf542e8f	-0.8288354
45	0x3d436c63	0.047710788
46	0xbfdf9b87	-1.7469338
47	0xbfc2361a	-1.517276
48	0xbfad3914	-1.3533044
49	0xbeb6aed8	-0.3568027
50	0xbfc21225	-1.5161787
51	0xc004686d	-2.0688736
52	0xbfc946fa	-1.5724785
53	0xbff2a715	-1.8957239
54	0xbf999999	-1.1999999
55	0xbde777a2	-0.11302115
56	0xbfac0fab	-1.3442281
57	0xbef86932	-0.48517758
58	0xbeea287c	-0.45734012
59	0xbede71d1	-0.4344621
60	0xbf76bfaa	-0.96386206
61	0xbf988da7	-1.1918229
62	0xbff30c95	-1.8988215
63	0xbfbaa6cc	-1.4582152
64	0xbeab961e	-0.33512968
65	0xbfa5e652	-1.2960913
66	0xbf4df69d	-0.80454427
67	0xbe8e2ad9	-0.27767065
68	0xc00cbb77	-2.198942
69	0xbef2c66e	-0.47417015
70	0xc003929e	-2.0558238
71	0xbf819d5d	-1.0126148
72	0xbf1e50cd	-0.6184204
73	0xbf296024	-0.66162324
74	0xbed6a04a	-0.41919166
75	0xbee36f60	-0.4442091
76	0xbeb799a9	-0.3585942
77	0xbf3a1bce	-0.72698677
78	0xc013b118	-2.307684
79	0xbf31a47d	-0.69391614
80	0xbf7ae0d8	-0.97999334
81	0x3ef7df5d	0.484126
82	0xbf3de4fe	-0.7417754
83	0xbeb7eeb5	-0.35924307
84	0xbf87373c	-1.0563731
85	0xbc8d426c	-0.017243586
86	0xbfb05b49	-1.3777858
87	0xbf70a7fc	-0.94006324
88	0xbff5601d	-1.9169956
89	0xbf5df43a	-0.86700785
90	0xbf659387	-0.89678234
91	0xbe8647be	-0.2622661
92	0xbf0a734b	-0.54082173
93	0xbf924729	-1.1427966
94	0xbfc68fbd	-1.5512615
95	0xc02a689e	-2.6626353
96	0xbe74aafc	-0.2389335
97	0xbff24419	-1.8927032
98	0xbf821ec5	-1.016564
99	0xc03a2c86	-2.9089675
100	0xbfab318f	-1.3374499
101	0xbeff7b61	-0.49898818
102	0xc0256ad3	-2.584645
103	0xbed91bde	-0.42404073
104	0xbf8e7f62	-1.1132624
105	0xbf40fad2	-0.7538272
106	0xc00a0216	-2.1563773
107	0xbfd58a92	-1.6682913
108	0xbeb88137	-0.36036083
109	0xbf78f0f6	-0.9724268
110	0xbf40002b	-0.75000256
111	0xbffb5059	-1.9633895
112	0xbfc5a845	-1.5441977
113	0xc003f578	-2.0618572
114	0xbfbed0e4	-1.4907498
115	0xbe6792dc	-0.22614616
116	0xbf434a54	-0.7628529
117	0xbf4ceaba	-0.80045664
118	0xbcfd5cc9	-0.030928032
119	0xbf3510dc	-0.7072885
120	0xbf2843e6	-0.65728605
121	0xbfabf64a	-1.3434536
122	0xc0123032	-2.2841916
123	0xbfe21e07	-1.7665414
124	0xbfa49d15	-1.2860438
125	0x3e5ef78b	0.21774118
126	0x3ea44423	0.32083234
127	0x3f0deef0	0.55442715
128	0xc026a96e	-2.6040912
129	0xbf883200	-1.0640259
130	0xc0107a93	-2.2574813
131	0xbfdcadb3	-1.7240509
132	0xbfa1e9dd	-1.2649494
133	0xbf88052c	-1.0626578
134	0xbe3ddceb	-0.18541305
135	0xbfae6e22	-1.362736
136	0x3f0abe25	0.5419639
137	0xbf98eccb	-1.1947263
138	0xbf937f73	-1.152327
139	0xbfceb5e2	-1.6149256
140	0xbfa70578	-1.3048544
141	0xbfcfe281	-1.6240999
142	0xbfcd7b45	-1.6053244
143	0xbe0c4ee1	-0.13701965
144	0xbeb3aa64	-0.35090935
145	0xbf60759d	-0.87679464
146	0xbfc41a4f	-1.5320529
147	0xbf2b639f	-0.66948885
148	0xc024ede4	-2.5770197
149	0xbfb9c66b	-1.4513677
150	0xbf7adfc4	-0.9799769
151	0xbf891c44	-1.0711751
152	0xbfc63dc2	-1.5487597
153	0xbf181b8e	-0.59417045
154	0xbe3a98d3	-0.1822236
155	0xc004e1e4	-2.0762873
156	0xbf40141c	-0.75030684
157	0xbfcb370c	-1.5876174
158	0x3ecb82bb	0.39748177
159	0xbe92ad4d	-0.28647843
160	0xbe09bb7c	-0.13450426
161	0xbfa43e67	-1.2831544
162	0xbfedac4a	-1.8568203
163	0xbfe51182	-1.7895968

fc2.weight f4 [100, 166]
0	0xbc8616f6	-0.01636837
1	0xbd647b46	-0.055781625
2	0x3d936c93	0.07198443
3	0xbbbd640c	-0.005779749
4	0xbd99fba3	-0.07518699
5	0xbd005c50	-0.031338036
6	0xbdd65d2c	-0.1046699
7	0x3b9c0459	0.0047612605
8	0x3d87a085	0.066224135
9	0x3d0a2fa8	0.033736855
10	0xbb8ec2bd	-0.0043567107
11	0xbd14afef	-0.036300596
12	0xbd40f063	-0.04710425
13	0x3bd11f46	0.006381902
14	0xbd1405d0	-0.036138356
15	0x3d673127	0.05644336
16	0xbd750d29	-0.059827004
17	0xbe1ea107	-0.15491115
18	0xbdf6d062	-0.120514646
19	0x3d9560ea	0.072938755
20	0x3cfa73df	0.03057283
21	0xbc35df51	-0.011100606
22	0xbda36145	-0.07977537
23	0x3da14815	0.07875077
24	0x3d048811	0.032356326
25	0xbdfb8406	-0.12281041
26	0xbcd960a2	-0.026535336
27	0x3ba38f8f	0.0049914788
28	0xbd0e0010	-0.03466803
29	0xbd353b99	-0.04424629
30	0xbd999fbc	-0.0750117
31	0x3d4ddce3	0.050259482
32	0x3d8ea2b2	0.069646254
33	0xbd9bb775	-0.07603351
34	0xbd010aed	-0.03150456
35	0xbb3e94ef	-0.002908047
36	0xbd6b0c49	-0.057384763
37	0x3d1487bf	0.03626227
38	0x3d9088da	0.07057352
39	0x3c8aafd8	0.016929552
40	0xbd6f7128	-0.058457524
41	0x3d73e8fe	0.05954837
42	0xbd364ba2	-0.044505723
43	0x3e1ae683	0.15126996
44	0x3c8e1928	0.01734598
45	0xbd82d7b4	-0.06388798
46	0x3d84c66f	0.06483161
47	0xbe01c0e5	-0.1267124
48	0xbce7be93	-0.028289115
49	0x3d67f2db	0.05662809
50	0x3d39e8ff	0.045388218
51	0xbd9df91a	-0.07713528
52	0xbd795f68	-0.060882002
53	0xba16b83f	-0.00057495007
54	0x3cfb6135	0.030686
55	0xbe0e1548	-0.13875306
56	0xbd9b6127	-0.0758689
57	0xbc4f35f5	-0.012647142
58	0x3c8ac883	0.016941315
59	0xbd5b9bc7	-0.053615358
60	0xbe0c5fe3	-0.13708453
61	0x3c958bdb	0.018255165
62	0xbde1c1b7	-0.11023276
63	0xbd4e6039	-0.050384734
64	0xbdd0b1d9	-0.10190172
65	0x3d8faac8	0.07014996
66	0xbe316ece	-0.17327425
67	0x3d9d7742	0.07688762
68	0xbe1911ed	-0.14948244
69	0xbdce20f7	-0.10064881
70	0xbdb1f387	-0.08689027
71	0xbd86deb0	-0.06585443
72	0xbdbf4031	-0.093384154
73	0xbdd9e20f	-0.106388204
74	0xbc0f667e	-0.008752463
75	0xbdaa7bb4	-0.08324376
76	0xbe0746f7	-0.13210665
77	0x3b75ef15	0.0037526537
78	0xbda23bd7	-0.0792157
79	0xbde2a99a	-0.11067505
80	0xbddf26be	-0.10896061
81	0xbe251211	-0.16120173
82	0xbdaa9fe0	-0.08331275
83	0xbd6fb737	-0.058524337
84	0xbd93a64e	-0.072094545
85	0x3d483506	0.048878692
86	0xbd81f26d	-0.06345067
87	0xbc0dd922	-0.0086577255
88	0xbe11018d	-0.14160748
89	0xbca0aeee	-0.019614663
90	0x3ca6a97d	0.02034449
91	0xbe114640	-0.14186954
92	0x3cc5157b	0.024058094
93	0xbd945764	-0.07243231
94	0x3d0117e4	0.031516925
95	0xbd981bc7	-0.07427173
96	0x3c0aa242	0.008461537
97	0x3d023b6d	0.031794954
98	0xbda606b9	-0.08106751
99	0x3d1565fe	0.03647422
100	0xbd426c9b	-0.047466855
101	0xbd2cdb89	-0.042201553
102	0xbc50abae	-0.012736244
103	0x3dc73627	0.097271256
104	0xbd909ed9	-0.07061548
105	0xbd6b2594	-0.057408884
106	0x3db5c9bb	0.08876368
107	0xbdcde75a	-0.100538924
108	0xbddbf847	-0.107407145
109	0x3c52a979	0.012857788
110	0xbde49622	-0.11161448
111	0x3c88d3e1	0.016702594
112	0xbdd081ca	-0.10181005
113	0xbe6239f3	-0.22092418
114	0x3d255dd5	0.04037269
115	0x3d1d034a	0.038333215
116	0xbd40d16d	-0.047074724
117	0xbd66a4a2	-0.05630935
118	0xbd7a64db	-0.06113134
119	0xbcf5a11e	-0.029984053
120	0x3d8b370f	0.06797611
121	0xbd5ee6c9	-0.054419313
122	0xbdd8ae5a	-0.1058013
123	0xbd9a578a	-0.07536228
124	0x3d9a938e	0.07547675
125	0xbd32bb07	-0.043635394
126	0xbe0e049e	-0.13868949
127	0x3ca38d41	0.019964816
128	0xbcc30b80	-0.023809195
129	0x3d1932c3	0.037401926
130	0xbdc30fb4	-0.095244795
131	0xbcc11f36	-0.023574453
132	0xbc5f67a3	-0.013635549
133	0x3dd9b666	0.10630493
134	0xbbc576e9	-0.006026138
135	0xbd87d33c	-0.06632087
136	0xbdbd647a	-0.0924768
137	0xbd28fc3a	-0.041256167
138	0xbd93da83	-0.07219412
139	0xbcc1ec97	-0.023672385
140	0xbdab0978	-0.083514154
141	0x3bcc2099	0.006229472
142	0xbe51250c	-0.20424289
143	0xbd01add3	-0.031659912
144	0xbe4f6353	-0.20252733
145	0x3d290553	0.041264843
146	0x3cc82482	0.02443147
147	0xbcd296ae	-0.025706615
148	0xbde3f7ad	-0.11131225
149	0xbdfa2a5a	-0.12215109
150	0x3c623e6f	0.013808831
151	0xbcbd186b	-0.023082932
152	0xbca15288	-0.019692674
153	0x3d1491f2	0.036271997
154	0xbcaa4380	-0.02078414
155	0x3d90e77f	0.070754044
156	0xbd1d5c94	-0.038418368
157	0xbd7c4c94	-0.061596468
158	0xbd3a70d0	-0.045517743
159	0x3d654b58	0.055980057
160	0xbe3a9c11	-0.18223597
161	0xbde26b75	-0.11055652
162	0x3d9f4fc1	0.07778884
163	0xbd042d4f	-0.032269772
164	0xba99217b	-0.0011682952
165	0xbc82d3ed	-0.015970195
166	0xc08f8a9a	-4.485669
167	0xbec7b388	-0.3900416
168	0xbe2b8e89	-0.16753592
169	0xbecc17c7	-0.3986189
170	0x3db29d72	0.087214366
171	0xbecd3906	-0.40082568
172	0x3e1007ee	0.14065525
173	0xbd8a209e	-0.067445025
174	0xc02d4874	-2.7075472
175	0x3ef9302a	0.4866956
176	0xbe3af611	-0.1825793
177	0x3eb35088	0.35022378
178	0x3f09ec34	0.5387604
179	0xbf8510c9	-1.0395747
180	0xbf7b9da7	-0.98287433
181	0xbfb198f8	-1.3874807
182	0xbcafc2b3	-0.021455145
183	0xbe126395	-0.142958
184	0xbe22d603	-0.15901951
185	0xbfb3d7f9	-1.4050285
186	0xbed3c87b	-0.41363892
187	0x3bdf64c7	0.0068174335
188	0xc032554b	-2.7864559
189	0x3fa8c7a6	1.3185928
190	0xbc15ec72	-0.009150611
191	0x3f9bd235	1.2173525
192	0xbe58ebe8	-0.21183741
193	0xbf124eeb	-0.5715167
194	0x3f3b0649	0.73056465
195	0xbe2e153e	-0.17000291
196	0x3fa9c039	1.3261787
197	0xc00501e6	-2.0782409
198	0xbf55d8b7	-0.83533806
199	0x3d30cd75	0.04316469
200	0x3ef361fd	0.47535697
201	0x3f1ac5d8	0.60458136
202	0x3e4dd6eb	0.20101516
203	0xbfeb633d	-1.838966
204	0x3e7068f1	0.23477532
205	0xbd8d0908	-0.06886488
206	0x3ef68aa2	0.48152643
207	0xc0466d53	-3.1004226
208	0xc090f14d	-4.5294557
209	0xc01cc91f	-2.4497755
210	0xc02b04fc	-2.6721792
211	0xc06c3a73	-3.6910675
212	0xbf7b03ce	-0.9805268
213	0x3f304e2b	0.68869275
214	0x3ffc5990	1.9714832
215	0xc04c71a4	-3.194436
216	0xbf155dda	-0.5834633
217	0xbf8b6215	-1.0889307
218	0xc060637c	-3.506072
219	0xbc8bde12	-0.017073665
220	0x3b582a46	0.0032984181
221	0x3e60e3ee	0.21961948
222	0x3e1f4bb9	0.1555623
223	0x3f32cfc7	0.69848293
224	0x3d4a97c4	0.04946114
225	0xbe417e25	-0.18895777
226	0x3eb7b590	0.3588071
227	0xbfc46ab3	-1.5345062
228	0xc036ab06	-2.8541884
229	0xbf014828	-0.50500727
230	0xc046bbcc	-3.1052122
231	0x3ef6bb75	0.48189893
232	0xbe80c621	-0.2515116
233	0xbba4f71f	-0.005034342
234	0x3fb32be0	1.3997765
235	0xbea55d50	-0.32297754
236	0xbe41ad4e	-0.18913767
237	0xbe709a40	-0.23496342
238	0xbf4e0a29	-0.80484253
239	0x3eb32233	0.3498703
240	0xbfcb2f11	-1.5873739
241	0xbe8e2823	-0.27764997
242	0x3e28f3ce	0.16499254
243	0xbf738d4a	-0.95137465
244	0x3fde1418	1.7349882
245	0xbf4301f4	-0.76174855
246	0x3df247be	0.1183009
247	0x3f59a632	0.8501922
248	0xbdced9ea	-0.101001576
249	0x3d841e2b	0.064510666
250	0xbf7119d1	-0.9418002
251	0xc06748ff	-3.6138303
252	0x3f6d806c	0.9277408
253	0xbeb36270	-0.3503604
254	0x3fddf92b	1.7341665
255	0xbfd027a1	-1.6262094

fc2.bias f4 [100]
0	0xbe002d2f	-0.12517236
1	0x3e81ec8f	0.25375792
2	0xbe03bd5f	-0.12865208
3	0xbe30ce71	-0.17266251
4	0x3f3e09ff	0.74234
5	0xc00a1876	-2.157743
6	0xbe35c940	-0.17752552
7	0xbf2a3dcd	-0.6650055
8	0x3fe8708a	1.8159344
9	0xbe2de2fa	-0.16981116
10	0xbda29e68	-0.0794037
11	0xbe0cb02a	-0.13739076
12	0xbfcb0b96	-1.5862911
13	0xbe992a1d	-0.29914942
14	0xbe34761c	-0.1762318
15	0xbc5555bc	-0.013020929
16	0xbdba1b1d	-0.09087203
17	0xbf8e6f5e	-1.1127737
18	0x3cbc1e3d	0.022963637
19	0x3f5f623c	0.8725927
20	0x3e2a00b4	0.1660183
21	0xbd513359	-0.05107436
22	0xbf91f00f	-1.1401385
23	0x3f20f986	0.6288074
24	0xbd1f4413	-0.03888328
25	0xbdd5cab4	-0.10439053
26	0xbdfb0215	-0.122562565
27	0xbee18dd4	-0.4405352
28	0xbdd01b3a	-0.10161443
29	0xbec588c5	-0.3858091
30	0xbf308dc8	-0.6896634
31	0xbf47bbbb	-0.7802083
32	0xbd56a28d	-0.052401114
33	0xbfac8eb6	-1.3481052
34	0xbf4e18a4	-0.8050635
35	0xbe3ffa39	-0.18747796
36	0xbfcf65ef	-1.6202983
37	0xbdb3af91	-0.08773721
38	0xbdce9de5	-0.1008871
39	0xbd8d3d42	-0.068964496
40	0xbd5fc425	-0.054630417
41	0xbeb5f9ec	-0.35542238
42	0xbcb3a943	-0.021931296
43	0xbe4a5622	-0.1975942
44	0xbe720c3c	-0.2363748
45	0xbe09f888	-0.13473713
46	0xbd9f9a5d	-0.07793114
47	0xbd3537c2	-0.044242628
48	0xbe153a38	-0.1457299
49	0x3eebaeb6	0.4603173
50	0xbddfeda9	-0.10934002
51	0xbecff8a9	-0.406194
52	0xbe13d32f	-0.14436029
53	0xbe08c9b5	-0.13358195
54	0xbf98afdf	-1.1928672
55	0xbe458484	-0.19288832
56	0xbe6c23e1	-0.23060562
57	0xbe3d9606	-0.1851426
58	0xbe2be16f	-0.16785215
59	0xbe4f6ce3	-0.2025638
60	0xbcf716fa	-0.030162323
61	0x3f11d980	0.56972504
62	0xbd2d050d	-0.042241145
63	0xbe1715a2	-0.14754346
64	0xbe6d123c	-0.23151487
65	0xbe056565	-0.1302696
66	0xbdc0f052	-0.094208375
67	0xbe6e3231	-0.23261334
68	0xbe01d2f0	-0.12678123
69	0xbe14b7aa	-0.14523187
70	0xbe1502d2	-0.14551857
71	0xbd82da9a	-0.06389351
72	0xbe0b4b1e	-0.13602874
73	0xbfbb79ce	-1.4646547
74	0xbdd6ff8c	-0.104979604
75	0xbdb2bdbf	-0.087275974
76	0xc04a56c3	-3.1615455
77	0xc00c6952	-2.1939282
78	0xbd93a4ae	-0.072091445
79	0xbe5892c7	-0.21149741
80	0xbdf2e998	-0.11860961
81	0xbe3faec2	-0.18719009
82	0xbdb2babd	-0.08727024
83	0xbda09bb0	-0.07842195
84	0xbe0b83b9	-0.13624467
85	0xbefeb534	-0.49747622
86	0xbe0ce726	-0.13760051
87	0x3e8a42cc	0.27004087
88	0x3ecb353b	0.3968905
89	0xbe2e9678	-0.17049587
90	0xbdffad48	-0.12484223
91	0xbe08ad46	-0.13347349
92	0xbe19aa31	-0.15006329
93	0xbf05c8d1	-0.52259547
94	0xbe4b0a70	-0.198282
95	0xbe486446	-0.19569501
96	0x3ee238eb	0.4418405
97	0xbe0865bd	-0.1332006
98	0xbeaa4efa	-0.3326338
99	0xbe352cf8	-0.17692935

fc3.weight f4 [1, 100]
0	0xbcb3bc0b	-0.021940252
1	0x3d03bf87	0.032165077
2	0xbd6a05fb	-0.05713461
3	0xbc9df960	-0.01928395
4	0xbcec19aa	-0.028820831
5	0x3dc8dc7f	0.09807681
6	0xbc8b0627	-0.016970707
7	0x3cdd1e1f	0.026991902
8	0xbd3c9a43	-0.046045553
9	0xbcea4a5d	-0.028599912
10	0xbc963013	-0.01833347
11	0xbc9e90af	-0.0193561
12	0xbca37fe0	-0.019958436
13	0x3d3bfef7	0.04589745
14	0x3d166afb	0.03672312
15	0x3d693341	0.056933645
16	0x3c8d44aa	0.017244656
17	0xbd2d2195	-0.042268354
18	0xbce04557	-0.027376814
19	0x3d801a1f	0.06254982
20	0x3d27b362	0.040942557
21	0x3c8ebeb1	0.017424913
22	0x3d5aa356	0.053378426
23	0x3d1c46bd	0.0381534
24	0x3c17c94b	0.009264301
25	0xbcd2f69c	-0.025752358
26	0xbce9cf5c	-0.02854126
27	0x3d9404f9	0.07227511
28	0xbca2a5fe	-0.019854542
29	0xbd5f2de8	-0.05448714
30	0xbd654065	-0.055969615
31	0xbd91317c	-0.070895165
32	0x3ca7eb60	0.020497978
33	0xbd217761	-0.03942049
34	0xbda31383	-0.07962706
35	0xbcd9aa26	-0.02657039
36	0xbd9b6b66	-0.07588844
37	0xbcff699c	-0.031178288
38	0xbcef95a1	-0.029246153
39	0xbcfb59c2	-0.030682448
40	0x3cb004a3	0.021486586
41	0xbcd6ac3e	-0.026205178
42	0x3d65b358	0.05607924
43	0x3d0eca38	0.03486082
44	0xbd24dbc2	-0.04024864
45	0xbcbead6b	-0.023276052
46	0x3c6978df	0.014250009
47	0x3b924539	0.0044638184
48	0xbaf190e8	-0.0018430026
49	0x3d09dc4b	0.033657353
50	0xbbacb192	-0.0052701915
51	0xbd21f807	-0.039543178
52	0xbd1ec59f	-0.038762685
53	0xbcdd2223	-0.026993817
54	0xbd3152cf	-0.043291863
55	0x3d3fbbe3	0.046810042
56	0x3a8b3dcc	0.0010623275
57	0x3cec82b7	0.028870923
58	0xbd2f1c67	-0.042751696
59	0xbd45b2d4	-0.048266247
60	0xbd1da9da	-0.03849206
61	0xbd8b2d30	-0.06795728
62	0xbc26bc51	-0.010176734
63	0x3c9adf08	0.018905178
64	0xbcda8e1f	-0.026679097
65	0xbcd4d8d8	-0.025982305
66	0xbc7a2442	-0.015267434
67	0x3d46da4b	0.048548024
68	0xbc4913e9	-0.012272813
69	0x3ae911e9	0.0017781827
70	0x3cf3de7e	0.029769178
71	0xbce81da1	-0.02833444
72	0x3c7af28b	0.015316616
73	0xbdb1a15f	-0.08673357
74	0x3bacd6eb	0.0052746437
75	0xbb7d4e89	-0.0038651547
76	0xbd9be978	-0.0761289
77	0xbd209e3c	-0.039213404
78	0x3d2a977b	0.04164837
79	0x3bc0b64f	0.005881108
80	0x3d7513bd	0.059833277
81	0xbca3d040	-0.019996762
82	0x3d189974	0.03725572
83	0x3b4996c6	0.0030760034
84	0x3a1fefeb	0.0006101119
85	0x3d475ce7	0.048672583
86	0x3b8973e5	0.004194724
87	0xbd15b729	-0.03655163
88	0xbd319163	-0.043351542
89	0xbb3485ab	-0.0027545493
90	0x3c97b46e	0.018518653
91	0x3c625767	0.013814784
92	0x3bb103cf	0.0054020653
93	0xbdc39103	-0.09549143
94	0xbd3a992d	-0.045556236
95	0xba82adf1	-0.0009970051
96	0xbd1a75e2	-0.037710078
97	0xbc7b99df	-0.01535651
98	0xbdb9a530	-0.0906471
99	0xbd1ec92d	-0.038766075

bn1.weight f4 [24]
0	0xbdbba11c	-0.091615885
1	0x3aec1042	0.0018010216
2	0x3c051b7b	0.008124228
3	0x3d9769b7	0.073932104
4	0x3f538dc8	0.82638216
5	0x3eea1beb	0.45724425
6	0x3d467272	0.048448987
7	0x3c244a99	0.010027551
8	0x3bae23bb	0.005314318
9	0x3e8e3b1f	0.2777948
10	0x3da096d3	0.078412674
11	0xbbe6a7b8	-0.0070390366
12	0x3f194280	0.59867096
13	0x3f157d02	0.5839387
14	0xbc885aba	-0.016644824
15	0x3e15215b	0.14563505
16	0x3eb14cb7	0.3462884
17	0x3c1b48b8	0.009477787
18	0xba6efc6f	-0.0009116595
19	0x3e6e1a14	0.23252136
20	0x3f989e2d	1.1923271
21	0x3f3821bd	0.7192648
22	0x3dbc571c	0.09196302
23	0xbc73a225	-0.014870201

bn1.bias f4 [24]
0	0xbd907a1f	-0.07054543
1	0x3b7fb3a0	0.0039016977
2	0x3abe1fed	0.0014505364
3	0xbcdbec47	-0.026846064
4	0x3e7252ad	0.23664351
5	0x3e8b0caa	0.271581
6	0x3ccfb681	0.02535558
7	0xbbf927ca	-0.00760362
8	0xbb8e6777	-0.00434583
9	0x3d6db2f7	0.058032002
10	0x3cd5310a	0.02602436
11	0xbb8b6e3f	-0.0042550857
12	0x3eb53590	0.35392427
13	0x3f21270d	0.6295021
14	0x3bd4b493	0.0064912527
15	0xbcd1d925	-0.025616238
16	0xbe0ca225	-0.13733728
17	0x3aeaffe8	0.0017929049
18	0x3b38d244	0.00282015
19	0xbc5386c5	-0.0129105495
20	0x3eb07637	0.3446519
21	0x3f166915	0.5875409
22	0xbb27081d	-0.0025487014
23	0xbc34146a	-0.010991195

bn1.running_mean f4 [24]
0	0xc0dce20d	-6.902594
1	0xbf20f3ce	-0.62872016
2	0x40a2377d	5.0692735
3	0xbd6b58f3	-0.057457875
4	0xbdf684a2	-0.120370165
5	0x403a2ed5	2.9091084
6	0x40a2377d	5.0692735
7	0xbd6b58f3	-0.057457875
8	0xc0db7b46	-6.858798
9	0xbf1fa8dc	-0.62367034
10	0x40b6beeb	5.7108054
11	0xbd4f0e0f	-0.050550517
12	0xbdf614cb	-0.12015685
13	0x4039ab97	2.901098
14	0x40b6beeb	5.7108054
15	0xbd4f0e0f	-0.050550517
16	0xc0dbdca6	-6.8706846
17	0xbf1e7e35	-0.61911327
18	0x40aaa954	5.33317
19	0xbd685bd8	-0.056728214
20	0xbe0394b2	-0.12849692
21	0x40390ac5	2.8912823
22	0x40aaa954	5.33317
23	0xbd685bd8	-0.056728214

bn1.running_var f4 [24]
0	0x4185e22e	16.73544
1	0x3f9016ea	1.1256993
2	0x43c7483b	398.5643
3	0x41522cba	13.13592
4	0x41d31d3f	26.38928
5	0x40467c58	3.1013393
6	0x43c7483b	398.5643
7	0x41522cba	13.13592
8	0x41884166	17.031933
9	0x3f9178e4	1.1365018
10	0x43c712a4	398.14563
11	0x41505327	13.020301
12	0x41d5d4a8	26.728836
13	0x404745c3	3.113633
14	0x43c712a4	398.14563
15	0x41505327	13.020301
16	0x418804f2	17.002415
17	0x3f9226b2	1.1418059
18	0x43c54547	394.54123
19	0x414d2931	12.8225565
20	0x41d857ca	27.042866
21	0x40484ecd	3.1298096
22	0x43c54547	394.54123
23	0x414d2931	12.8225565
