p2_continuous-control/checkpoint_critic.pth (torch_old, 549487 bytes, 9 tensors)

fcs1.weight f4 [400, 33]
00000000: 22fa 25bd d932 6bbc 4d77 c63d 22a5 30bc
00000010: 3155 e8bd db88 2ebd 7567 8d3d 83f9 b83c
00000020: 32e0 60bc e2ef 053d e40b 8dbc ffc7 e83c
00000030: 5518 92bc ba87 223d aa28 c43c 5728 833d
00000040: fede 0cbe d218 08bd f5a9 c7bc 82eb 233d
00000050: 83b9 19bd 0d6f 7fbd b701 c93c 360c a1bb
00000060: 9fad 153d bbc0 1fbd f556 433d b571 663d
00000070: 48fd 393d 260f f13c de9d 313c 7bd3 4abd
00000080: 135f 1bbd 371a 393c 8695 c9bb a6c3 bf3d
00000090: 227d 41bd f758 ac3d 2768 2fbe 7595 19bd
000000a0: afaa 093d 2440 6dbc aadf afbd c916 00bd
000000b0: 4c99 9b3c 530f 97bd 5bdd 633d 7358 233c
000000c0: e65e 833d ff03 acbc 721a 573a 4a4d 28bd
000000d0: b131 c7bd fdcd 86bd 4d77 a23d 6d86 9b3d
000000e0: 5c60 533a 08da 323c 80f7 003d 0591 3b3c
000000f0: dc63 833c 2ed6 a53c 05f9 2b3d 0f18 34bc
00000100: 0056 19bd 23e7 31bb 4089 efbb 774f 36bd
00000110: c051 583d 2824 773d 2b72 54bd 0464 21be
00000120: af88 70bd 6057 8abd 648e aebc 3e8b 45bc
00000130: c275 92bd d16b f7bc 14b1 a53d b08c 00bd
00000140: c1f3 753d ef4c 003d e74d 063d 0d90 073c
00000150: 5558 023d df45 373d 7f9e 80bd 90bf 1abd
00000160: ea0e 193d 827b 203c a057 03bd d6c1 55bd
00000170: 28a8 7c3c 7c7e 07bd f986 ff3b 27f5 0d3d
00000180: 9976 d4ba 3528 483d 96df b3bd 84e5 fabc
00000190: 3d66 3b3d 2cda ac3d 82e1 d5bc ec03 c93d
000001a0: f859 09bc 903c 04be a40b cc3c 7ae8 8f3d
000001b0: b9f2 9c3d 3687 923d 76c5 373b fc92 243d
000001c0: 5dbb 533c f7e2 cd3b 5cfc 0a3d 61e6 f53c
000001d0: eb89 003b b2b7 843c 316d 133d 148a 2bbc
000001e0: f463 ec3c 19fa 873d dcc2 4abd cb6c 22bd
000001f0: 3906 52bd 8f9d abbc a001 2c3d d992 073d
00000200: 2021 363c cad6 97bc cb4f 423d f5ff c4bd
00000210: c2fc 9cbd b7b2 ca3b a51d a5bb e717 d33c
00000220: 24c3 293d 1565 bb3d 6413 a83d 35d4 f93d
00000230: 2bda 6b3d 1a2e 373e 301e 963d 97b5 c23d
00000240: 7aa3 813d da24 b83c 5e77 153d 6906 343d
00000250: bbe0 313e fc35 66bd 8f24 42be af03 98bd
00000260: 9216 e2bc 2435 d4bd 36cc 513d 2837 8439
00000270: be8a 34bd af12 0cbd ffb1 b0bd 41dc 543d
00000280: aff6 ca3c 14fe 8ebc bc3a 90bc 5151 403d
00000290: 51f5 413e 29a7 22bc 987e 49bb 340c 9fbb
000002a0: 4567 8c3c e1ab 3cbc accd 513d 691f 743d
000002b0: fe2d 18bd 9080 35bc 8e2b 743c a746 e93c
000002c0: 105d 5abc 3b07 893d fe4f ad3d a735 453d
000002d0: ddd4 cabc 037e 1eba 5bdf 143e bf4d 12bd
000002e0: 31be bcbc f630 bfba 65b8 013d bc46 1c3d
000002f0: 2308 56bc 58a9 86b8 a6c4 46bd eefc 8fbd
00000300: 402a c639 376c 9a3c b26d 14bd 000a febc
00000310: 582d 17bc 8471 79bd 03b7 9a3d dcf3 94bc
00000320: 6ae7 813d 4d9b d7bc be54 d1bd 3ba3 143d
00000330: 3d63 453c e665 5b3d c7a7 33bd 3b37 bcbd
00000340: 9800 4cbb b93d d8bc 13e1 7e3d b294 9b3d
00000350: 146d 08bd c0f0 c13c 7394 3ebe 7692 fbbd
00000360: 0f61 22be 0641 ce3d 4395 03bc 83c1 5b3d
00000370: c0e2 82bb d71f 08bd 61ab d03c 8bc5 9fbd
00000380: c1a5 ccbc 611b 87bc 91fe 533d ea24 8b3c
00000390: 2c93 82bd 1588 0a3d e4fd f5bd ced7 373c
000003a0: 8704 533d 3143 613d 1261 31bc 20de 673d
000003b0: d5c6 f43a 5d14 023e 5418 313c 5f15 20bd
000003c0: 5001 8bbc 620a bc3c 63cb 1f3c ed65 7939
000003d0: fbb3 543c ae54 493d 3f01 953b 2cef 89bd
000003e0: 1821 afbc 908a ce3d 246f c03c 26af 3c3d
000003f0: f871 e6bd 11b7 863d aed5 073d c504 9c3c
-0.04052175 -0.014355385 0.096907236 -0.010781558 -0.11344374 -0.042610984 0.069044985 0.022579914
-0.013725327 0.032699473 -0.017217584 0.028415678 -0.017833868 0.03968022 0.023945171 0.064041786
-0.1375694 -0.033226795 -0.024373034 0.04001952 -0.037530433 -0.062361766 0.02453695 -0.0049147857
0.03654253 -0.03900216 0.04769035 0.056260783 0.045407563 0.029426169 0.010840861 -0.04951809
-0.037932467 0.011297754 -0.006151858 0.09363489 -0.047238477 0.08415406 -0.17129575 -0.03749605
0.033610042 -0.014480624 -0.085875824 -0.03127173 0.018993996 -0.0737597 0.055631023 0.009969818
0.06414585 -0.020998 0.000820554 -0.041089334 -0.09726275 -0.06582258 0.07932911 0.07593999
0.000806337 0.0109162405 0.031486034 0.01144815 0.016038828 0.02024373 0.04198553 -0.010992064
-0.03743553 -0.0027145825 -0.0073100626 -0.044509377 0.052812338 0.060337216 -0.05186669 -0.15760809
-0.0587241 -0.06754947 -0.021308132 -0.012057124 -0.07151367 -0.030202778 0.080904156 -0.03138417
0.060046915 0.03132337 0.032789137 0.0082740905 0.03182252 0.04474437 -0.06280231 -0.037780344
0.03736774 0.009795072 -0.032065988 -0.05218681 0.015420951 -0.03307961 0.0077980724 0.034657624
-0.0016209661 0.04886647 -0.0878288 -0.03062702 0.0457518 0.084400505 -0.026108507 0.09815201
-0.008383267 -0.12913728 0.024907894 0.07026763 0.07663483 0.07154696 0.002804128 0.040179238
0.012923089 0.00628316 0.033932075 0.03001708 0.0019613456 0.016200874 0.035992805 -0.010469932
0.028856255 0.06639499 -0.04950224 -0.039654534 -0.051275466 -0.020949153 0.041993737 0.03309903
0.011116296 -0.018535037 0.047439378 -0.096191324 -0.07665397 0.0061858553 -0.0050389343 0.025768233
0.041445866 0.09150139 0.082068235 0.121986784 0.057581108 0.1788868 0.073299766 0.09507292
0.06330009 0.02247851 0.03649079 0.043951426 0.17370884 -0.056203827 -0.18959258 -0.074225776
-0.027598653 -0.10361698 0.05122014 0.00025218097 -0.044077627 -0.034197506 -0.086277 0.051967863
0.024775831 -0.017455138 -0.017606132 0.04695255 0.18941237 -0.009927549 -0.0030745622 -0.0048537496
0.017139086 -0.0115155885 0.051221535 0.059600268 -0.037153237 -0.011078015 0.014902962 0.028476072
-0.013327852 0.06690832 0.08462523 0.04814687 -0.024759704 -0.0006045999 0.14538328 -0.035718676
-0.02303991 -0.0014586735 0.031669993 0.038153395 -0.013063463 -6.421161e-05 -0.048527382 -0.070306644
0.00037796982 0.018850429 -0.036237426 -0.031010628 -0.009227119 -0.060899273 0.07554438 -0.018182687
0.06342967 -0.02631917 -0.102212414 0.03628848 0.012047586 0.053563975 -0.043861177 -0.09190222
-0.0031128284 -0.02639662 0.062226366 0.07596721 -0.03330715 0.023674369 -0.18611316 -0.122837946
-0.15857337 0.10070996 -0.008031192 0.053651344 -0.003994316 -0.03323349 0.025472345 -0.0780135
-0.024981381 -0.016492547 0.051756445 0.016985375 -0.06375727 0.033821184 -0.120113164 0.011220885
0.05151799 0.05499572 -0.010826366 0.05660832 0.0018674979 0.1270308 0.010809023 -0.03908288
-0.0169684 0.02295417 0.009753081 0.00023784461 0.012982364 0.049153022 0.0045472677 -0.067350715
-0.021378085 0.100850224 0.023490496 0.046065472 -0.112522066 0.06577886 0.033162765 0.019045243

fcs1.bias f4 [400]
00000000: 7d94 003e 241d 22be a2b2 8c3d 05a0 c2bd
00000010: 723a f9bc e355 dcbc 9a47 30bd 5818 02be
00000020: a7ac 20be fc42 31be abfb 15be 6465 a03d
00000030: 9bc5 fdbd 1c01 9dbd 928a 133e d8f5 123d
00000040: 27f5 143e 3db7 1f3e df71 793d 0935 c73d
00000050: 8109 1cbe 30a7 c4bd 7f45 3abe a5c6 b7bd
00000060: b69a bc3d c64e e3bc 4144 9cbc e58e 38be
00000070: b1dd cc3c f0d3 a93d 0045 073d d3ab cfbd
00000080: 2249 5d3d 8428 52bb e52d ae3d 4680 cb3d
00000090: 6bac cabd 392e a73c 55e4 8bbd 75cb 50bd
000000a0: 60af 39be 67fb 143e 03a2 583d fa38 35bc
000000b0: 335f 30be 6eed 15be 6f49 853d 75be 3c3d
000000c0: ee4f b63d f30f 01be 8cec ee3d 2412 b9bd
000000d0: 6eb6 973d f2e4 603c a510 9abc 1a90 713a
000000e0: e332 33be 5176 8d3c 9d07 0e3e cad9 97bd
000000f0: 933f bf3d 49e4 2bbb bbdb 9e3d 343e f5bd
00000100: f28d 6e3d d7e1 fa3d dc1a febd de2a 0a3e
00000110: be7f 9fbd 7113 63bd 784f 33be 4d36 bb3d
00000120: fa67 123d d5ab 013e f1f9 f4bd 0cdd 083d
00000130: e5f3 56bd 3214 143e 775b 233d f90b 12be
00000140: c3d4 f13d af44 f73d de19 b93c 6547 143d
00000150: 8923 a53d fc94 213d 9ee5 413d ba66 f63d
00000160: 26dc bdbd 2a7c 1ebe 6369 b5bc dd33 c5bd
00000170: d2ac e9ba 9e81 863d 1f05 39bd 5a65 eabc
00000180: eff2 733d c812 18be 5610 b6bd 379d 7e3c
00000190: ac75 8f3d 5d90 1bbd c566 ecba a80b ff3d
000001a0: ba8b 2b3e 33ce 4abd 9c7b 50bd fb86 95bd
000001b0: 9f98 d3bd f4dd d33d 7208 97bd 2a54 8d3d
000001c0: 430c eebd af2c e2bd 2a83 ed3d 6808 b0bd
000001d0: 5fe0 9bbd 0522 92bd 0210 81bd d5ec 42bd
000001e0: b04a c83b eb45 8fbd 5bd7 0e3d 1b29 b83d
000001f0: bc54 23be f307 0a3e 51d2 bd3d 4ed6 c53c
00000200: fe0a 5bbd 27a9 e83d 569f c23d 0032 10be
00000210: 0670 043d 7920 19be 173c d63d b255 973d
00000220: cf4c 3f3b e160 fd3d be78 8a3c a02d 93bd
00000230: ae1f 20bd e4cd 11be da79 883d 8627 c2bb
00000240: 1677 3c3c 9c79 fbbd 2495 3c3c 6cd7 2dbc
00000250: 102b 113e 8ea0 923d 7803 063e 02b4 41be
00000260: 494b a3bd 236e 9fbc fe16 193e 6a19 c53b
00000270: e834 b5bd 3fc1 be3d 2c40 16be c51c 1d3d
00000280: 60c6 35be 520e d53d cecc 1c3e a2fa a439
00000290: ae2a b53d 3a27 093e fb13 38be d46c 9bbd
000002a0: 7259 2bbd 0e3f 3ebd e26c 173e 3c97 ad3d
000002b0: ffaa a63d d580 f93d 1d6d 54bd cf90 11bd
000002c0: a7f9 9c3d 1ef0 61ba 1541 80bd 6f32 19bc
000002d0: 1c1f 163e 6112 33be 6ec0 1a3e f075 18be
000002e0: bd4b 9abc fd68 873c 08c4 31be 99a8 f7bd
000002f0: 54c3 b43d 2076 35be 95e9 b8bd 27c1 a7bd
00000300: 417c 0cbc 97a7 0fbe 4102 fa3d b38e 24be
00000310: e613 b6bd 2d69 e83d c12b 143e 296d 213c
00000320: 0a1a a0bd 08dc 8e3b 4b39 cbbd 5a2a f53d
00000330: 52f9 90bd 7770 023c c19b 6f3b e263 4dbe
00000340: 7a11 8fbd 2fda 723d 5e25 e03b 7d77 a03c
00000350: a6bc d2bd d3c8 013e d57c 1cbe 6488 14be
00000360: b11c 5abd 5552 b03d a784 e4bd d41d 8ebd
00000370: a8b4 2bbc b0b7 f83c aac1 a0bd ef23 ba3d
00000380: 7f09 ba3d e65a 6dbc c968 563c f046 063e
00000390: 9e17 1d3d d617 22be 8579 37bd fda6 833d
000003a0: b0eb b3bd 7be6 b83d 4363 3abd ac7a e53c
000003b0: b3d6 ecbb 7eda 00bc 178d 26bd d731 8fbb
000003c0: e99d 7cbd 593c bbbc 09e1 aabd a429 c83d
000003d0: 9469 a73d dc4e 093e 54a7 ff3d bb46 a03d
000003e0: 2b06 43be d8e5 db3d d3d1 013e 71c6 e7bc
000003f0: 0a9e 93bd bfa7 7bbd 25fb d5bd 5709 9e3c
0.12556644 -0.15831429 0.06870009 -0.095031776 -0.030423377 -0.026896423 -0.043037035 -0.12704599
-0.15690862 -0.17310709 -0.14646785 0.07831839 -0.12391206 -0.07666227 0.14408329 0.035878986
0.14546643 0.15597244 0.06089961 0.097269125 -0.15238 -0.09602201 -0.18190573 -0.08973435
0.09209196 -0.027747523 -0.019075515 -0.1802326 0.025008054 0.08292377 0.033024788 -0.10140195
0.054024823 -0.0032067606 0.085048474 0.099365756 -0.09896167 0.020407783 -0.0683066 -0.05097528
-0.18133307 0.14549027 0.05288888 -0.011060948 -0.17223816 -0.14641353 0.06508147 0.04608007
0.08901964 -0.1260374 0.116662115 -0.09036663 0.074078426 0.01372646 -0.018806765 0.0009214893
-0.1749988 0.017268332 0.13870092 -0.07414587 0.09338298 -0.0026228598 0.07756754 -0.11974755
0.05824084 0.12250107 -0.12407467 0.13492915 -0.07788037 -0.055438463 -0.17510784 0.091412164
0.03574369 0.12663205 -0.11961735 0.03341393 -0.05247869 0.14460829 0.03988215 -0.1426238
0.11808159 0.12073647 0.022595342 0.0362009 0.080634184 0.039448723 0.04733812 0.12031312
-0.092705056 -0.15477052 -0.022144979 -0.09629033 -0.0017827994 0.06567691 -0.0451709 -0.028612781
0.05955785 -0.14850914 -0.088898346 0.015540413 0.07004866 -0.037979472 -0.0018035999 0.12453395
0.1675252 -0.049513053 -0.050899133 -0.07301136 -0.103318445 0.103450686 -0.07374658 0.06900819
-0.116234325 -0.11043679 0.11597283 -0.08595353 -0.07611155 -0.07135395 -0.063018814 -0.047589142
0.006112419 -0.06995758 0.034873348 0.08992215 -0.15950292 0.13479595 0.0926863 0.02415004
-0.05347728 0.11360388 0.09503047 -0.14081573 0.032333396 -0.14953794 0.1046068 0.07389392
0.0029190069 0.12371994 0.016903277 -0.07186437 -0.039092712 -0.14238697 0.06663866 -0.0059251217
0.011503002 -0.122790545 0.011510167 -0.010610443 0.14176583 0.071595296 0.1308726 -0.18916324
-0.07973344 -0.019461697 0.14950177 0.0060149925 -0.08847982 0.093142025 -0.14672917 0.038357515
-0.17751455 0.10403122 0.15312502 0.00031467254 0.08846031 0.1339387 -0.17976372 -0.07589117
-0.04183335 -0.046446852 0.14787629 0.08476111 0.08138084 0.12182776 -0.05186187 -0.03553849
0.07664805 -0.0008618849 -0.062624134 -0.009350403 0.14660305 -0.1748748 0.15112469 -0.1488874
-0.018834943 0.016529555 -0.17359936 -0.12092704 0.088263184 -0.17720842 -0.09028927 -0.08191138
-0.008574546 -0.14028774 0.12207461 -0.1607006 -0.08890514 0.11348186 0.14469816 0.009852686
-0.078174666 0.004359726 -0.09923037 0.119709685 -0.07078804 0.007961384 0.0036561342 -0.20057634
-0.06985755 0.059290107 0.006840392 0.019588226 -0.10289888 0.12674265 -0.15281995 -0.14505154
-0.05325002 0.086094536 -0.11158114 -0.06939283 -0.0104800835 0.030361027 -0.078494385 0.09088885
0.090838425 -0.014487004 0.013086506 0.13112998 0.0383526 -0.15829405 -0.044793624 0.06428335
-0.08785188 0.09028336 -0.04550482 0.028012596 -0.0072277426 -0.007864593 -0.040661898 -0.004369955
-0.061674032 -0.022855924 -0.08343703 0.09773567 0.08174434 0.13408989 0.12483087 0.07825991
-0.19045322 0.107371986 0.12677698 -0.028292866 -0.07207878 -0.061439272 -0.10448293 0.019291563

bn1.weight f4 [400]
00000000: 8daf 113f 50c3 113f 8093 ca3d c6ae 803e
00000010: 4e50 753f 7c91 203e 96bd 6e3f ab70 713f
00000020: ee9f 323f 7bcb 383f c840 0d3f 009a 153e
00000030: 645c 733f 7037 923d 3806 983e addd 0f3f
00000040: 00fc dc3a 2225 083f f958 573f 0507 213f
00000050: aaf1 9e3e 487f 083f ccb0 773e f7a1 453f
00000060: cc17 e83e 3ceb 903e 74c3 123e 7e96 973e
00000070: 24ae fb3e e808 cd3d 34d5 0c3f d66b 7c3f
00000080: 0d71 0d3f 6412 2c3e 26fe d43e a055 6f3f
00000090: 4ea7 c43e c888 be3d 8ccc 3a3f b53f 093f
000000a0: 602f 4d3d e894 e93e 1159 183f cec3 1f3f
000000b0: 54e7 213f e053 c73d 402e 703c 6a47 c83e
000000c0: 6816 e73e 54d7 b03e 4c07 393e 0007 1d3b
000000d0: fa73 293f b488 ee3e 983e 6a3e 84d3 9e3e
000000e0: 822c b53e 848d 2b3f f99e 713f 3ab8 553f
000000f0: 7e73 da3e 340a 3c3f 729f a33e c533 1b3f
00000100: 7e46 a13e 1012 c13e b881 e93d 528e e83e
00000110: 5f34 263f 4a89 1f3f 1860 293e 0d25 603f
00000120: 0d83 2d3f f897 313e 760b a93e f419 7a3e
00000130: 9043 ca3e 7b98 4b3f 809c 403c 1e89 e73e
00000140: 2e15 033f e4f7 883e e54e 6d3f efcb 1d3f
00000150: 2ce6 6a3f b3a0 433f d4ec bf3e bb2a 0b3f
00000160: 8d07 483f 5e65 793f d005 2b3e 2116 653f
00000170: b3fa 043f 3068 f93d 2723 6d3f 48be 193e
00000180: b884 733e bc1d 973e 9182 5a3f 0ac8 7d3f
00000190: 10b5 ac3d ac03 353f 68b6 533e 14e1 023f
000001a0: 4ad8 f43e d4aa 5e3f 5e31 083f 602c 2b3f
000001b0: 99a7 1a3f bed4 473f 5a55 6f3f f038 3f3d
000001c0: 7450 ed3e 7849 333f 9aeb 683f e07d 373d
000001d0: 9e22 013f a93f 2d3f 8474 fd3e d65f db3e
000001e0: a6b6 333f a0c3 6a3d 0517 303f fbef 033f
000001f0: f8b1 013e 603c 943c c0d1 073f 600f f83e
00000200: 57df 593f 3c52 633e aa5c ff3e 094a 5d3f
00000210: a02f 6c3e 7643 cd3e cc87 7a3e 49c9 1f3f
00000220: e4df d43e 76f4 383f 2fd8 3d3f e4a6 523f
00000230: 805e bb3e 8e03 6b3f 2878 793f 00f9 ba3b
00000240: d1aa 013f c984 6a3f fc87 933e da47 d03e
00000250: 98cb 4f3f ea8a fd3e 18bf b03e b2cb 4a3f
00000260: 524e 8c3e 3c74 813e 5e98 4e3f e622 f03e
00000270: 101d 3f3f de1b fa3e 0c34 8c3e 9b25 163f
00000280: 0176 573f 68f0 463e c41b 5e3f 0f0c 343f
00000290: b02a ab3e 0860 923d 0341 193f f9b2 593f
000002a0: 3033 f53d a0ba 363f 0d9d 213f 94b7 a63e
000002b0: 481d 4e3f 28d6 123e b04b 243f 23f6 7e3f
000002c0: 083a c33e a04c 1f3f 8b19 6b3f 8063 943c
000002d0: 7666 b43e 80f9 7a3c b800 b33d 964a 793f
000002e0: 38e0 bd3d 6e4a ad3e 8da1 663f 1812 f73e
000002f0: 6019 253f c0d3 443c 3eda 183f 18b0 3e3e
00000300: aac7 b13e 1003 af3d db19 393f 20fe 273f
00000310: feb0 593f 54c1 713e 4c47 3d3e aaad 3c3f
00000320: d13e 6f3f 7263 8d3e 3fab 543f d236 123f
00000330: 8c4b 7c3e 0725 5b3f 3cd7 443f 0a13 263f
00000340: 0097 e03d 67f3 223f 47d8 483f 6779 383f
00000350: 1d7e 2d3f 3a22 263f 7c47 273e 22f6 3a3f
00000360: 06b1 283f 7e00 523f 9aba 133f 85a4 513f
00000370: 3ea7 fa3e d963 6d3f 305b 5b3d 709e a63e
00000380: 0050 7c3f d0c3 593f 4c79 cb3e 4e6a 1b3f
00000390: 4081 0d3e cfd5 633f 60c7 3d3f e2eb 3a3f
000003a0: 2ee2 723f f1c6 1b3f 55fe 7e3f c934 4e3f
000003b0: 0f17 313f 4cb6 2f3f 9544 583f e85d 513f
000003c0: 4c31 823e 9edf f53e 8f48 183f 495e 553f
000003d0: 846d 573e c0c4 033c 4b6a 763f 8465 1a3f
000003e0: ba95 913e 123f 8d3e 5c51 283e 3478 f83e
000003f0: 80bd 383f 80d5 5c3e 198d 263f 385f d83d
0.56908494 0.5693865 0.09891415 0.25133342 0.9582566 0.15680498 0.93258035 0.9431254
0.69775283 0.72185487 0.55176973 0.14609528 0.9506285 0.0713948 0.29692245 0.56197625
0.001685977 0.5318166 0.84120136 0.62901336 0.3104375 0.53319216 0.24188536 0.77200264
0.45330656 0.2830447 0.14332372 0.29607004 0.49156296 0.10011464 0.5501282 0.98602045
0.55250627 0.1680389 0.4160015 0.9349003 0.38408893 0.09303433 0.72968364 0.53612834
0.05009401 0.4562142 0.59510905 0.6240815 0.63243604 0.09732795 0.014659464 0.39116985
0.45134282 0.34539282 0.1806919 0.002396047 0.6619259 0.4658867 0.2287544 0.3102075
0.3538552 0.6701281 0.943832 0.8348423 0.4266624 0.7345307 0.31957585 0.6062587
0.31499094 0.37709093 0.11401695 0.45421082 0.6492366 0.6231886 0.16540563 0.87556535
0.6777809 0.17343128 0.33016557 0.24423963 0.3950467 0.7952954 0.0117560625 0.452218
0.5120419 0.26751626 0.9269851 0.616393 0.91757464 0.7641708 0.37485373 0.54362077
0.7813652 0.974203 0.16701436 0.8948689 0.51945037 0.12178075 0.92631763 0.15013993
0.23781097 0.29514873 0.8535548 0.9913336 0.084329724 0.7070873 0.20675051 0.5112469
0.47821265 0.86979413 0.5320033 0.66864586 0.60411984 0.78058994 0.9348961 0.04668516
0.46350443 0.7003398 0.909845 0.044797778 0.50443447 0.6767526 0.49502957 0.42846555
0.70200574 0.05731547 0.68785125 0.51538056 0.12665546 0.018095195 0.5305443 0.4844923
0.85106415 0.22199339 0.49875385 0.86441094 0.23065042 0.4009053 0.24465865 0.6241651
0.41577065 0.7224802 0.74157995 0.82285905 0.36595535 0.918023 0.9744897 0.0057059526
0.5065127 0.91608864 0.28814685 0.40679818 0.81170034 0.49520046 0.34520793 0.79217064
0.27403504 0.25283992 0.80701244 0.46901625 0.7465372 0.48849386 0.2738346 0.5865113
0.84164435 0.19427645 0.86761117 0.703309 0.33431005 0.07147223 0.59864825 0.85038716
0.11972654 0.7137852 0.63130265 0.32561934 0.8051343 0.14339507 0.6417799 0.99594325
0.38130212 0.62226295 0.9183585 0.018113852 0.35234421 0.0153182745 0.087403715 0.97379434
0.09271282 0.33845848 0.90090257 0.48255992 0.64491844 0.012013376 0.5970801 0.18621862
0.34722644 0.08545506 0.7230508 0.6562214 0.85035694 0.23608905 0.18484229 0.7370249
0.93455225 0.27614933 0.830738 0.571149 0.24638194 0.85603374 0.7689092 0.648728
0.10966301 0.6365265 0.78455013 0.72060245 0.6777056 0.64895976 0.16335863 0.7303182
0.65895116 0.82032 0.57706606 0.8189166 0.4895572 0.9273048 0.05355376 0.32542753
0.9855957 0.8506441 0.3974098 0.60709083 0.13818836 0.8899812 0.7413235 0.7301618
0.9487637 0.60850435 0.9960683 0.80549294 0.6917581 0.6863754 0.8447965 0.81783915
0.25428236 0.4802217 0.59485716 0.8334699 0.2103787 0.008042514 0.9625594 0.6031115
0.28434545 0.2758718 0.16437286 0.48529208 0.72164154 0.21565819 0.6505905 0.105650365

bn1.bias f4 [400]
00000000: 0000 0000 0000 0000 0000 0000 0000 0000
00000010: 0000 0000 0000 0000 0000 0000 0000 0000
00000020: 0000 0000 0000 0000 0000 0000 0000 0000
00000030: 0000 0000 0000 0000 0000 0000 0000 0000
00000040: 0000 0000 0000 0000 0000 0000 0000 0000
00000050: 0000 0000 0000 0000 0000 0000 0000 0000
00000060: 0000 0000 0000 0000 0000 0000 0000 0000
00000070: 0000 0000 0000 0000 0000 0000 0000 0000
00000080: 0000 0000 0000 0000 0000 0000 0000 0000
00000090: 0000 0000 0000 0000 0000 0000 0000 0000
000000a0: 0000 0000 0000 0000 0000 0000 0000 0000
000000b0: 0000 0000 0000 0000 0000 0000 0000 0000
000000c0: 0000 0000 0000 0000 0000 0000 0000 0000
000000d0: 0000 0000 0000 0000 0000 0000 0000 0000
000000e0: 0000 0000 0000 0000 0000 0000 0000 0000
000000f0: 0000 0000 0000 0000 0000 0000 0000 0000
00000100: 0000 0000 0000 0000 0000 0000 0000 0000
00000110: 0000 0000 0000 0000 0000 0000 0000 0000
00000120: 0000 0000 0000 0000 0000 0000 0000 0000
00000130: 0000 0000 0000 0000 0000 0000 0000 0000
00000140: 0000 0000 0000 0000 0000 0000 0000 0000
00000150: 0000 0000 0000 0000 0000 0000 0000 0000
00000160: 0000 0000 0000 0000 0000 0000 0000 0000
00000170: 0000 0000 0000 0000 0000 0000 0000 0000
00000180: 0000 0000 0000 0000 0000 0000 0000 0000
00000190: 0000 0000 0000 0000 0000 0000 0000 0000
000001a0: 0000 0000 0000 0000 0000 0000 0000 0000
000001b0: 0000 0000 0000 0000 0000 0000 0000 0000
000001c0: 0000 0000 0000 0000 0000 0000 0000 0000
000001d0: 0000 0000 0000 0000 0000 0000 0000 0000
000001e0: 0000 0000 0000 0000 0000 0000 0000 0000
000001f0: 0000 0000 0000 0000 0000 0000 0000 0000
00000200: 0000 0000 0000 0000 0000 0000 0000 0000
00000210: 0000 0000 0000 0000 0000 0000 0000 0000
00000220: 0000 0000 0000 0000 0000 0000 0000 0000
00000230: 0000 0000 0000 0000 0000 0000 0000 0000
00000240: 0000 0000 0000 0000 0000 0000 0000 0000
00000250: 0000 0000 0000 0000 0000 0000 0000 0000
00000260: 0000 0000 0000 0000 0000 0000 0000 0000
00000270: 0000 0000 0000 0000 0000 0000 0000 0000
00000280: 0000 0000 0000 0000 0000 0000 0000 0000
00000290: 0000 0000 0000 0000 0000 0000 0000 0000
000002a0: 0000 0000 0000 0000 0000 0000 0000 0000
000002b0: 0000 0000 0000 0000 0000 0000 0000 0000
000002c0: 0000 0000 0000 0000 0000 0000 0000 0000
000002d0: 0000 0000 0000 0000 0000 0000 0000 0000
000002e0: 0000 0000 0000 0000 0000 0000 0000 0000
000002f0: 0000 0000 0000 0000 0000 0000 0000 0000
00000300: 0000 0000 0000 0000 0000 0000 0000 0000
00000310: 0000 0000 0000 0000 0000 0000 0000 0000
00000320: 0000 0000 0000 0000 0000 0000 0000 0000
00000330: 0000 0000 0000 0000 0000 0000 0000 0000
00000340: 0000 0000 0000 0000 0000 0000 0000 0000
00000350: 0000 0000 0000 0000 0000 0000 0000 0000
00000360: 0000 0000 0000 0000 0000 0000 0000 0000
00000370: 0000 0000 0000 0000 0000 0000 0000 0000
00000380: 0000 0000 0000 0000 0000 0000 0000 0000
00000390: 0000 0000 0000 0000 0000 0000 0000 0000
000003a0: 0000 0000 0000 0000 0000 0000 0000 0000
000003b0: 0000 0000 0000 0000 0000 0000 0000 0000
000003c0: 0000 0000 0000 0000 0000 0000 0000 0000
000003d0: 0000 0000 0000 0000 0000 0000 0000 0000
000003e0: 0000 0000 0000 0000 0000 0000 0000 0000
000003f0: 0000 0000 0000 0000 0000 0000 0000 0000
0.0 0.0 0.0 0.0 0.0 0.0 0.0 0.0
0.0 0.0 0.0 0.0 0.0 0.0 0.0 0.0
0.0 0.0 0.0 0.0 0.0 0.0 0.0 0.0
0.0 0.0 0.0 0.0 0.0 0.0 0.0 0.0
0.0 0.0 0.0 0.0 0.0 0.0 0.0 0.0
0.0 0.0 0.0 0.0 0.0 0.0 0.0 0.0
0.0 0.0 0.0 0.0 0.0 0.0 0.0 0.0
0.0 0.0 0.0 0.0 0.0 0.0 0.0 0.0
0.0 0.0 0.0 0.0 0.0 0.0 0.0 0.0
0.0 0.0 0.0 0.0 0.0 0.0 0.0 0.0
0.0 0.0 0.0 0.0 0.0 0.0 0.0 0.0
0.0 0.0 0.0 0.0 0.0 0.0 0.0 0.0
0.0 0.0 0.0 0.0 0.0 0.0 0.0 0.0
0.0 0.0 0.0 0.0 0.0 0.0 0.0 0.0
0.0 0.0 0.0 0.0 0.0 0.0 0.0 0.0
0.0 0.0 0.0 0.0 0.0 0.0 0.0 0.0
0.0 0.0 0.0 0.0 0.0 0.0 0.0 0.0
0.0 0.0 0.0 0.0 0.0 0.0 0.0 0.0
0.0 0.0 0.0 0.0 0.0 0.0 0.0 0.0
0.0 0.0 0.0 0.0 0.0 0.0 0.0 0.0
0.0 0.0 0.0 0.0 0.0 0.0 0.0 0.0
0.0 0.0 0.0 0.0 0.0 0.0 0.0 0.0
0.0 0.0 0.0 0.0 0.0 0.0 0.0 0.0
0.0 0.0 0.0 0.0 0.0 0.0 0.0 0.0
0.0 0.0 0.0 0.0 0.0 0.0 0.0 0.0
0.0 0.0 0.0 0.0 0.0 0.0 0.0 0.0
0.0 0.0 0.0 0.0 0.0 0.0 0.0 0.0
0.0 0.0 0.0 0.0 0.0 0.0 0.0 0.0
0.0 0.0 0.0 0.0 0.0 0.0 0.0 0.0
0.0 0.0 0.0 0.0 0.0 0.0 0.0 0.0
0.0 0.0 0.0 0.0 0.0 0.0 0.0 0.0
0.0 0.0 0.0 0.0 0.0 0.0 0.0 0.0

bn1.running_mean f4 [400]
00000000: 0000 0000 0000 0000 0000 0000 0000 0000
00000010: 0000 0000 0000 0000 0000 0000 0000 0000
00000020: 0000 0000 0000 0000 0000 0000 0000 0000
00000030: 0000 0000 0000 0000 0000 0000 0000 0000
00000040: 0000 0000 0000 0000 0000 0000 0000 0000
00000050: 0000 0000 0000 0000 0000 0000 0000 0000
00000060: 0000 0000 0000 0000 0000 0000 0000 0000
00000070: 0000 0000 0000 0000 0000 0000 0000 0000
00000080: 0000 0000 0000 0000 0000 0000 0000 0000
00000090: 0000 0000 0000 0000 0000 0000 0000 0000
000000a0: 0000 0000 0000 0000 0000 0000 0000 0000
000000b0: 0000 0000 0000 0000 0000 0000 0000 0000
000000c0: 0000 0000 0000 0000 0000 0000 0000 0000
000000d0: 0000 0000 0000 0000 0000 0000 0000 0000
000000e0: 0000 0000 0000 0000 0000 0000 0000 0000
000000f0: 0000 0000 0000 0000 0000 0000 0000 0000
00000100: 0000 0000 0000 0000 0000 0000 0000 0000
00000110: 0000 0000 0000 0000 0000 0000 0000 0000
00000120: 0000 0000 0000 0000 0000 0000 0000 0000
00000130: 0000 0000 0000 0000 0000 0000 0000 0000
00000140: 0000 0000 0000 0000 0000 0000 0000 0000
00000150: 0000 0000 0000 0000 0000 0000 0000 0000
00000160: 0000 0000 0000 0000 0000 0000 0000 0000
00000170: 0000 0000 0000 0000 0000 0000 0000 0000
00000180: 0000 0000 0000 0000 0000 0000 0000 0000
00000190: 0000 0000 0000 0000 0000 0000 0000 0000
000001a0: 0000 0000 0000 0000 0000 0000 0000 0000
000001b0: 0000 0000 0000 0000 0000 0000 0000 0000
000001c0: 0000 0000 0000 0000 0000 0000 0000 0000
000001d0: 0000 0000 0000 0000 0000 0000 0000 0000
000001e0: 0000 0000 0000 0000 0000 0000 0000 0000
000001f0: 0000 0000 0000 0000 0000 0000 0000 0000
00000200: 0000 0000 0000 0000 0000 0000 0000 0000
00000210: 0000 0000 0000 0000 0000 0000 0000 0000
00000220: 0000 0000 0000 0000 0000 0000 0000 0000
00000230: 0000 0000 0000 0000 0000 0000 0000 0000
00000240: 0000 0000 0000 0000 0000 0000 0000 0000
00000250: 0000 0000 0000 0000 0000 0000 0000 0000
00000260: 0000 0000 0000 0000 0000 0000 0000 0000
00000270: 0000 0000 0000 0000 0000 0000 0000 0000
00000280: 0000 0000 0000 0000 0000 0000 0000 0000
00000290: 0000 0000 0000 0000 0000 0000 0000 0000
000002a0: 0000 0000 0000 0000 0000 0000 0000 0000
000002b0: 0000 0000 0000 0000 0000 0000 0000 0000
000002c0: 0000 0000 0000 0000 0000 0000 0000 0000
000002d0: 0000 0000 0000 0000 0000 0000 0000 0000
000002e0: 0000 0000 0000 0000 0000 0000 0000 0000
000002f0: 0000 0000 0000 0000 0000 0000 0000 0000
00000300: 0000 0000 0000 0000 0000 0000 0000 0000
00000310: 0000 0000 0000 0000 0000 0000 0000 0000
00000320: 0000 0000 0000 0000 0000 0000 0000 0000
00000330: 0000 0000 0000 0000 0000 0000 0000 0000
00000340: 0000 0000 0000 0000 0000 0000 0000 0000
00000350: 0000 0000 0000 0000 0000 0000 0000 0000
00000360: 0000 0000 0000 0000 0000 0000 0000 0000
00000370: 0000 0000 0000 0000 0000 0000 0000 0000
00000380: 0000 0000 0000 0000 0000 0000 0000 0000
00000390: 0000 0000 0000 0000 0000 0000 0000 0000
000003a0: 0000 0000 0000 0000 0000 0000 0000 0000
000003b0: 0000 0000 0000 0000 0000 0000 0000 0000
000003c0: 0000 0000 0000 0000 0000 0000 0000 0000
000003d0: 0000 0000 0000 0000 0000 0000 0000 0000
000003e0: 0000 0000 0000 0000 0000 0000 0000 0000
000003f0: 0000 0000 0000 0000 0000 0000 0000 0000
0.0 0.0 0.0 0.0 0.0 0.0 0.0 0.0
0.0 0.0 0.0 0.0 0.0 0.0 0.0 0.0
0.0 0.0 0.0 0.0 0.0 0.0 0.0 0.0
0.0 0.0 0.0 0.0 0.0 0.0 0.0 0.0
0.0 0.0 0.0 0.0 0.0 0.0 0.0 0.0
0.0 0.0 0.0 0.0 0.0 0.0 0.0 0.0
0.0 0.0 0.0 0.0 0.0 0.0 0.0 0.0
0.0 0.0 0.0 0.0 0.0 0.0 0.0 0.0
0.0 0.0 0.0 0.0 0.0 0.0 0.0 0.0
0.0 0.0 0.0 0.0 0.0 0.0 0.0 0.0
0.0 0.0 0.0 0.0 0.0 0.0 0.0 0.0
0.0 0.0 0.0 0.0 0.0 0.0 0.0 0.0
0.0 0.0 0.0 0.0 0.0 0.0 0.0 0.0
0.0 0.0 0.0 0.0 0.0 0.0 0.0 0.0
0.0 0.0 0.0 0.0 0.0 0.0 0.0 0.0
0.0 0.0 0.0 0.0 0.0 0.0 0.0 0.0
0.0 0.0 0.0 0.0 0.0 0.0 0.0 0.0
0.0 0.0 0.0 0.0 0.0 0.0 0.0 0.0
0.0 0.0 0.0 0.0 0.0 0.0 0.0 0.0
0.0 0.0 0.0 0.0 0.0 0.0 0.0 0.0
0.0 0.0 0.0 0.0 0.0 0.0 0.0 0.0
0.0 0.0 0.0 0.0 0.0 0.0 0.0 0.0
0.0 0.0 0.0 0.0 0.0 0.0 0.0 0.0
0.0 0.0 0.0 0.0 0.0 0.0 0.0 0.0
0.0 0.0 0.0 0.0 0.0 0.0 0.0 0.0
0.0 0.0 0.0 0.0 0.0 0.0 0.0 0.0
0.0 0.0 0.0 0.0 0.0 0.0 0.0 0.0
0.0 0.0 0.0 0.0 0.0 0.0 0.0 0.0
0.0 0.0 0.0 0.0 0.0 0.0 0.0 0.0
0.0 0.0 0.0 0.0 0.0 0.0 0.0 0.0
0.0 0.0 0.0 0.0 0.0 0.0 0.0 0.0
0.0 0.0 0.0 0.0 0.0 0.0 0.0 0.0

bn1.running_var f4 [400]
00000000: 0000 803f 0000 803f 0000 803f 0000 803f
00000010: 0000 803f 0000 803f 0000 803f 0000 803f
00000020: 0000 803f 0000 803f 0000 803f 0000 803f
00000030: 0000 803f 0000 803f 0000 803f 0000 803f
00000040: 0000 803f 0000 803f 0000 803f 0000 803f
00000050: 0000 803f 0000 803f 0000 803f 0000 803f
00000060: 0000 803f 0000 803f 0000 803f 0000 803f
00000070: 0000 803f 0000 803f 0000 803f 0000 803f
00000080: 0000 803f 0000 803f 0000 803f 0000 803f
00000090: 0000 803f 0000 803f 0000 803f 0000 803f
000000a0: 0000 803f 0000 803f 0000 803f 0000 803f
000000b0: 0000 803f 0000 803f 0000 803f 0000 803f
000000c0: 0000 803f 0000 803f 0000 803f 0000 803f
000000d0: 0000 803f 0000 803f 0000 803f 0000 803f
000000e0: 0000 803f 0000 803f 0000 803f 0000 803f
000000f0: 0000 803f 0000 803f 0000 803f 0000 803f
00000100: 0000 803f 0000 803f 0000 803f 0000 803f
00000110: 0000 803f 0000 803f 0000 803f 0000 803f
00000120: 0000 803f 0000 803f 0000 803f 0000 803f
00000130: 0000 803f 0000 803f 0000 803f 0000 803f
00000140: 0000 803f 0000 803f 0000 803f 0000 803f
00000150: 0000 803f 0000 803f 0000 803f 0000 803f
00000160: 0000 803f 0000 803f 0000 803f 0000 803f
00000170: 0000 803f 0000 803f 0000 803f 0000 803f
00000180: 0000 803f 0000 803f 0000 803f 0000 803f
00000190: 0000 803f 0000 803f 0000 803f 0000 803f
000001a0: 0000 803f 0000 803f 0000 803f 0000 803f
000001b0: 0000 803f 0000 803f 0000 803f 0000 803f
000001c0: 0000 803f 0000 803f 0000 803f 0000 803f
000001d0: 0000 803f 0000 803f 0000 803f 0000 803f
000001e0: 0000 803f 0000 803f 0000 803f 0000 803f
000001f0: 0000 803f 0000 803f 0000 803f 0000 803f
00000200: 0000 803f 0000 803f 0000 803f 0000 803f
00000210: 0000 803f 0000 803f 0000 803f 0000 803f
00000220: 0000 803f 0000 803f 0000 803f 0000 803f
00000230: 0000 803f 0000 803f 0000 803f 0000 803f
00000240: 0000 803f 0000 803f 0000 803f 0000 803f
00000250: 0000 803f 0000 803f 0000 803f 0000 803f
00000260: 0000 803f 0000 803f 0000 803f 0000 803f
00000270: 0000 803f 0000 803f 0000 803f 0000 803f
00000280: 0000 803f 0000 803f 0000 803f 0000 803f
00000290: 0000 803f 0000 803f 0000 803f 0000 803f
000002a0: 0000 803f 0000 803f 0000 803f 0000 803f
000002b0: 0000 803f 0000 803f 0000 803f 0000 803f
000002c0: 0000 803f 0000 803f 0000 803f 0000 803f
000002d0: 0000 803f 0000 803f 0000 803f 0000 803f
000002e0: 0000 803f 0000 803f 0000 803f 0000 803f
000002f0: 0000 803f 0000 803f 0000 803f 0000 803f
00000300: 0000 803f 0000 803f 0000 803f 0000 803f
00000310: 0000 803f 0000 803f 0000 803f 0000 803f
00000320: 0000 803f 0000 803f 0000 803f 0000 803f
00000330: 0000 803f 0000 803f 0000 803f 0000 803f
00000340: 0000 803f 0000 803f 0000 803f 0000 803f
00000350: 0000 803f 0000 803f 0000 803f 0000 803f
00000360: 0000 803f 0000 803f 0000 803f 0000 803f
00000370: 0000 803f 0000 803f 0000 803f 0000 803f
00000380: 0000 803f 0000 803f 0000 803f 0000 803f
00000390: 0000 803f 0000 803f 0000 803f 0000 803f
000003a0: 0000 803f 0000 803f 0000 803f 0000 803f
000003b0: 0000 803f 0000 803f 0000 803f 0000 803f
000003c0: 0000 803f 0000 803f 0000 803f 0000 803f
000003d0: 0000 803f 0000 803f 0000 803f 0000 803f
000003e0: 0000 803f 0000 803f 0000 803f 0000 803f
000003f0: 0000 803f 0000 803f 0000 803f 0000 803f
1.0 1.0 1.0 1.0 1.0 1.0 1.0 1.0
1.0 1.0 1.0 1.0 1.0 1.0 1.0 1.0
1.0 1.0 1.0 1.0 1.0 1.0 1.0 1.0
1.0 1.0 1.0 1.0 1.0 1.0 1.0 1.0
1.0 1.0 1.0 1.0 1.0 1.0 1.0 1.0
1.0 1.0 1.0 1.0 1.0 1.0 1.0 1.0
1.0 1.0 1.0 1.0 1.0 1.0 1.0 1.0
1.0 1.0 1.0 1.0 1.0 1.0 1.0 1.0
1.0 1.0 1.0 1.0 1.0 1.0 1.0 1.0
1.0 1.0 1.0 1.0 1.0 1.0 1.0 1.0
1.0 1.0 1.0 1.0 1.0 1.0 1.0 1.0
1.0 1.0 1.0 1.0 1.0 1.0 1.0 1.0
1.0 1.0 1.0 1.0 1.0 1.0 1.0 1.0
1.0 1.0 1.0 1.0 1.0 1.0 1.0 1.0
1.0 1.0 1.0 1.0 1.0 1.0 1.0 1.0
1.0 1.0 1.0 1.0 1.0 1.0 1.0 1.0
1.0 1.0 1.0 1.0 1.0 1.0 1.0 1.0
1.0 1.0 1.0 1.0 1.0 1.0 1.0 1.0
1.0 1.0 1.0 1.0 1.0 1.0 1.0 1.0
1.0 1.0 1.0 1.0 1.0 1.0 1.0 1.0
1.0 1.0 1.0 1.0 1.0 1.0 1.0 1.0
1.0 1.0 1.0 1.0 1.0 1.0 1.0 1.0
1.0 1.0 1.0 1.0 1.0 1.0 1.0 1.0
1.0 1.0 1.0 1.0 1.0 1.0 1.0 1.0
1.0 1.0 1.0 1.0 1.0 1.0 1.0 1.0
1.0 1.0 1.0 1.0 1.0 1.0 1.0 1.0
1.0 1.0 1.0 1.0 1.0 1.0 1.0 1.0
1.0 1.0 1.0 1.0 1.0 1.0 1.0 1.0
1.0 1.0 1.0 1.0 1.0 1.0 1.0 1.0
1.0 1.0 1.0 1.0 1.0 1.0 1.0 1.0
1.0 1.0 1.0 1.0 1.0 1.0 1.0 1.0
1.0 1.0 1.0 1.0 1.0 1.0 1.0 1.0

fc2.weight f4 [300, 404]
00000000: ef22 76bd 0232 71bd 2259 5dbd 064d 6b3d
00000010: 5d6e 083c d37d a53a 545d 6bbc 34f7 653c
00000020: 058f 90bc 322b d1bb f1fe dd3c 4593 fabc
00000030: fbb4 273d 1392 3cbd 98ee 0cbd 4bbb 59bd
00000040: b43a 22bd 3594 d73c 42dc 543d 3043 85bd
00000050: 6952 ae3c c182 8abd e0ce e3bb 3bcd 2f3d
00000060: 1e4e 44bd a552 9fbd 3067 05bc 69d5 0f3c
00000070: a95d d5bc 5ed1 a13c 48c6 f4bc 5091 293c
00000080: ef55 83bd 6b99 b7bc 88f8 debc 9ee0 52bd
00000090: f4bd 583d 77c0 eabc 2e0c 083d 7749 6cbc
000000a0: 003e 9c3c 6ce1 04bd e832 513d dff8 94bb
000000b0: 47c3 eb3b 2569 083c ddd7 e9bb ef4c 0d3c
000000c0: 3632 a4bc d0fa 60bd 6415 03bd f69a 2d3d
000000d0: 1201 233d 5e21 3bbd 7cf2 8e3c d28b b8bc
000000e0: 08e8 9d3a fa4b d4bc d7d4 8a3c 99fd 39bd
000000f0: b3d0 b5bc 1348 24bc a177 85bb 0799 1c3d
00000100: 914d 813b 0a90 d9bc acc1 903c cf99 e33c
00000110: fead 323b 225c 48bd f220 503b 7ace 023d
00000120: 7ed4 e1bc f018 afbc 3b5f 3dbd 9e4d 973c
00000130: a0b7 ddbc 0204 adbc 6528 4cbd 8f70 61bd
00000140: c868 df3a 4068 f83c 15ec 44bd a50b 46bc
00000150: b128 7abd 6520 243b 2eba 77bd ea04 98bd
00000160: b7d4 7c3c c1cb 3bbd fa45 fdbc eb2f 89bc
00000170: 9164 253d 8706 e6ba 3c6f 5a3d a7bb 3a3d
00000180: ddfb a4bc be82 d03c bc71 a63c bd20 aa3c
00000190: 08b2 80bd 9d44 543c 9558 0a3d 1407 ecbc
000001a0: e0a4 4abd 056f 813d a0c6 12bd b91a 513d
000001b0: ba15 68bd e641 74bd a5c3 ca3a b244 343d
000001c0: 392c a63c de4d 92b9 a53c d3bc 0f28 2abd
000001d0: 711d 73bc 85fb 1b3d ace0 f7bc 70cc 28bd
000001e0: 98f6 123d 7c8a 9dbc b7bc 55bd 23ba 993c
000001f0: b1c2 d6ba 6b69 f0bc a424 57bd 35a8 68bc
00000200: b650 473d 89ed 163d 27be f3bc 9adf b7bc
00000210: 1c3e 913c 9af2 44bd 4e6d c9bc dba1 77bd
00000220: ece0 0bbd 47e4 253d 9f0f 913b 271e 82bd
00000230: 3276 de3b 0dd7 ae3c 8513 e2bc d699 003c
00000240: b038 e7bc 74bd ddbb a7a3 b4bc 8dda eabb
00000250: 0450 e33b bcac 5bbd a877 153d 8c0b 73bd
00000260: 409d 20bd 3787 85bc aea7 2dbc 77c8 a0bc
00000270: 9c3f 2dbc 0ab9 83bd dd1d 83bc 0a73 2abd
00000280: bc35 4dbd 9a39 39bd 24df 46bd b685 9fbc
00000290: cb09 183d 4d6e a93c e2d8 453d 7718 36bd
000002a0: 7c0a 92bc 0c8a f0bc 8ab7 3cbc e902 13bd
000002b0: e96f b2bb b7a1 98bc 349f 81bd 4414 23bc
000002c0: d81f febc 7dcd 16bd fb22 1b3d 6680 4ebc
000002d0: 92f4 71bd d0e8 493d 0c79 64bd 175b 1ebd
000002e0: c2a3 87bc 1f1b 1c3d 881f 383d 50a9 083d
000002f0: 8bec 30bc d4dc 823c 511f 39bd 33fa 42bd
00000300: 5e14 81bd da68 fd3b 088e 1fbd 3139 dbbc
00000310: 8a78 e53c 79f3 cf3b b7b1 2fbd 86f8 24ba
00000320: 20e2 203d b58f 223c 4f0a d0bc ea1a 11bd
00000330: f016 1f3c 0046 1ebd 2a8e b1bc 9edd 2a3d
00000340: d6ee 093d 6ab6 7b3b fe88 0e3d 1d5c 163d
00000350: 29a6 833c fbe4 303d 9878 3e3b 2935 8b3c
00000360: 0ed5 903d 953b 5cbd 8d36 30bd 9033 443c
00000370: 5653 b9bc 61d3 80bb 94b1 c03c 5468 19bc
00000380: b660 933c fbf9 98bd 51d4 31bd 5762 69bd
00000390: a9be 03bd 5b15 6b3d ce0b 1b3c b023 41bc
000003a0: e88a 8bbc dc75 163d 297c cb3c 4aed d5bc
000003b0: b7bd 2a3d ba33 1d3c 53cc 373d 1b0a d2bc
000003c0: f8cf c43c 784e 58bc 66cd efbc d416 97ba
000003d0: b7ee 393c d99d 92bd 1653 acba d245 283d
000003e0: 0cc6 1d3d e450 67bb 5b98 96bc 5125 593c
000003f0: f7a5 66bd 615e 7dbd ab85 d1bc 69e4 d2bc
-0.06009191 -0.05888558 -0.05404008 0.057446502 0.008327094 0.0012626 -0.014365513 0.014035989
-0.017646322 -0.006383323 0.027099105 -0.030587802 0.04094408 -0.046037745 -0.03440723 -0.053157132
-0.039606765 0.026315788 0.051967867 -0.065069556 0.02127953 -0.067632206 -0.0069521517 0.042920332
-0.04792606 -0.07779435 -0.008142278 0.008778908 -0.026045637 0.019753154 -0.029879704 0.010349587
-0.06412875 -0.022412023 -0.027218118 -0.051483743 0.05291553 -0.028656228 0.03321474 -0.014421812
0.019072533 -0.03244154 0.05107394 -0.0045462693 0.0071949097 0.00832585 -0.0071363286 0.008624299
-0.020043474 -0.054926693 -0.03200282 0.04238411 0.039795943 -0.04568612 0.01744961 -0.022527609
0.00120473 -0.025915135 0.016947193 -0.045407865 -0.022194242 -0.010026949 -0.004073099 0.038231876
0.003946014 -0.026557941 0.017670475 0.027783303 0.0027264352 -0.04891599 0.0031757918 0.031935193
-0.027567144 -0.021374196 -0.046233397 0.018469628 -0.027065098 -0.021120075 -0.04984321 -0.055038985
0.0017044777 0.030323148 -0.048076708 -0.012087737 -0.061073963 0.0025043723 -0.06048029 -0.07422812
0.015431575 -0.04584861 -0.030917156 -0.016746482 0.04037911 -0.0017549553 0.053328738 0.045589115
-0.020139629 0.025452968 0.020317905 0.020767564 -0.06283957 0.012955812 0.033775885 -0.028811969
-0.049473643 0.063200034 -0.035833955 0.051050875 -0.056661345 -0.05963316 0.0015469684 0.044010825
0.020284759 -0.00027905306 -0.025785754 -0.04154211 -0.014838562 0.038081665 -0.0302585 -0.04121059
0.0358797 -0.019231074 -0.052181926 0.018765515 -0.0016384927 -0.029347142 -0.052525178 -0.01420026
0.048660956 0.036847625 -0.029753758 -0.022445489 0.017729811 -0.048082925 -0.024588253 -0.06045709
-0.03415005 0.040500905 0.004426911 -0.06353407 0.0067889923 0.021342779 -0.027597198 0.007849177
-0.028225273 -0.0067669693 -0.022050692 -0.0071671666 0.006937029 -0.05363153 0.036491066 -0.059337184
-0.039212465 -0.016299827 -0.01059906 -0.01962684 -0.010574248 -0.06431778 -0.01600545 -0.041613616
-0.050100073 -0.04522095 -0.048552647 -0.019472938 0.037118714 0.020682478 0.04830254 -0.044456925
-0.017827265 -0.0293627 -0.0115183685 -0.035891447 -0.0054454696 -0.0186318 -0.06329194 -0.009953562
-0.031021044 -0.036817063 0.037875157 -0.012603855 -0.05907113 0.049294293 -0.0557795 -0.03866109
-0.016557578 0.038111802 0.044951946 0.033364594 -0.010798584 0.01597444 -0.04519588 -0.04760189
-0.06302713 0.0077334465 -0.03895381 -0.02676067 0.028011579 0.006346163 -0.04289409 -0.00062931364
0.03927815 0.009921958 -0.02539554 -0.035426058 0.009710059 -0.038640976 -0.021674234 0.041715257
0.033675037 0.0038408288 0.034798615 0.03670894 0.016070442 0.043187123 0.0029063579 0.016993122
0.07071887 -0.05376776 -0.043020774 0.011975184 -0.022622745 -0.0039314483 0.023522176 -0.009363253
0.017990451 -0.07469555 -0.04341537 -0.05697855 -0.03216425 0.057393413 0.009463264 -0.011788294
-0.01703401 0.036733493 0.024839478 -0.026114125 0.041684832 0.009594852 0.044872593 -0.025639584
0.024024948 -0.013202302 -0.029272746 -0.0011527189 0.011348418 -0.07159013 -0.001314732 0.04108221
0.03851895 -0.0035296017 -0.018383196 0.013253526 -0.05631062 -0.061857585 -0.025576433 -0.02574368

fc2.bias f4 [300]
00000000: 911b 913c f11a a33b fdd6 2f3d 9700 573c
00000010: 1efb 99ba fc85 213c 7128 99ba 5366 4abd
00000020: 845e 4b3d b9c8 f538 41bd 98bc 6747 54bd
00000030: 00d5 1c3d 3d20 69bd fad7 85bc 881b e93c
00000040: e6b8 5dbd 3936 37bd 9d09 c13c d397 42bd
00000050: 3acc ad3b 0a28 2cbd ea56 94bc afe1 cc3c
00000060: d90b 3abd df16 58bd 2efe 27bd 4bba e1bc
00000070: 6173 1dbc 7fba 0dbc eb6c 48bd 879a 40bd
00000080: cf85 2dbd 2c65 34bd c49f 8dbc d352 aabc
00000090: ce6e 85bc 3bb4 42bd 38f0 dfbc af42 c03c
000000a0: 9340 edbb 3418 093d bc25 2d3d 1145 a1bc
000000b0: 09f2 573c b6a5 d33b 4636 153d db9a 253d
000000c0: 2cc0 52bc d4f9 e33b b369 d5bc 457f 85bc
000000d0: fdda c73c 80b3 f8bc db7d bbbc 707b 013d
000000e0: 6edc 46bd f2c9 d0bc 7b13 70bd 91dd 0b3d
000000f0: 8ce5 753c 1792 5c3a b9cc 37bd 015f 0c3d
00000100: ccd9 183d ec62 5fbd 6456 023d b490 8e3c
00000110: 9f2a 62bc 9a42 b3bc ca91 883c d4c7 f03c
00000120: 4463 01bd 1075 b8bc 04aa aa3c 21d5 0d3d
00000130: 7bb6 ccbc cd0b 3abc 9ffc f8ba 5dbe edbc
00000140: b5d2 f63b 9ffc 94bb 8e7d ac3b f475 093d
00000150: b6a6 d3bc 573b fdbc 53eb 863b ee06 0a3d
00000160: b146 ed3c 3836 063c c4d3 313c 3565 303a
00000170: ac03 12bd ff99 88bb 3988 de3c bad2 33bd
00000180: cc71 6a3a b759 913b 0219 b8bc ec75 55bd
00000190: e6ab 92bc faae 013c f33e d4bc f0ed 643c
000001a0: 0105 37bc e02f 3ebd f86f 7cbc 75cf 2dbd
000001b0: 51f9 40bd ff3a 39bd e315 513b 2c26 19bd
000001c0: 1fc8 23bd b170 5ebc db0d 39bd 5d47 21bd
000001d0: 6447 3dbd 23df bc3c 07aa d83c c9be 053d
000001e0: 825d 083c 3efc d3bc b7df 66bb bb70 d53c
000001f0: f3f7 6abc 5358 1bbd caa6 67bb 6cb3 383c
00000200: f57d 0d3d 012b 253d 8e01 2abd c537 60bd
00000210: 6997 d1bc ee6d a93b ad39 1f3b bfaf c1bc
00000220: 5b30 6bbb 4967 07bd d799 653c 419e 483d
00000230: b42e 203c e08c 3fbc 57be 283d f698 033d
00000240: 3738 47bb 58a9 17bc 9f79 bebc f58e 1ebb
00000250: 6598 efba a316 b63c 72c8 013d 6604 a03c
00000260: bc04 c53c fe7f f1bc 9cdc 17bd ec27 1e3d
00000270: f7ba aebc 1026 8f3c c66b c3bc a4cf 29bd
00000280: 9bbd 20bd c153 bfbc 1b7d 7d3c 050f 93bc
00000290: be40 97bc ffc3 203c 76ad b2bc fdda 343d
000002a0: 147f 07bd 4511 163d 59ff 1a3d ae5a 0b3d
000002b0: 5bd0 d9bc 90c0 25bb e652 843c abb5 ec3c
000002c0: 71f5 31bd 98ea 1cbd 9a80 1fbc 24cb 1ebb
000002d0: 033b f3bc c545 0e3c 2c76 4d3c ddbf cfbc
000002e0: 979a 5f3c b5a5 9abc 5564 bb3c 6bd6 3fbc
000002f0: 9ccf 30bd d148 1f3d 1708 94bc 6485 ceba
00000300: 87d7 d53b 9bde c43c cf7e c13c 5004 93bc
00000310: de79 c7bc 685a 353c 100f 50bd 148c 543b
00000320: fea6 84bc ad4a 25bd 5891 cdbc 3116 3fbc
00000330: 359a 5bbd 7b4d 9cbc f46a 0dbc acd0 9b3c
00000340: a6b5 d43c 992e 03bd 2e39 e6bc 7695 8e3c
00000350: b672 bdbc a4b8 b03b 639c 50bd fefd 4fbd
00000360: bc56 6bbc 60c7 81bb 49d3 b73b e8ee e0bc
00000370: f5b7 14bc 0288 383d 4fd3 313d c1fa 983c
00000380: 519a 613c 16f6 cd3c 03dc e63c 0869 7dba
00000390: c83b f33c 9d13 24bd de4d 213d 4ecd 1c3d
000003a0: 6010 c6bb 635b eabc e750 b53c 009a a8bb
000003b0: 11a2 c6bc fb20 e33c 6e4f 0ebd e1a7 94bc
000003c0: 90ca abbc 7c07 32bc 3fdd 51bc d9dc 42bd
000003d0: 3db3 d53c 134f 80bc acc9 173d 3aab a5bb
000003e0: 682c 233c 6e7a 8cbc a526 e23c 1592 38bd
000003f0: f4ef 0abd 1c3d 0dbd 7c52 35bd 3ee3 903c
0.01771334 0.004977577 0.04292964 0.013122699 -0.0011747812 0.0098586045 -0.0011685026 -0.04941399
0.049650684 0.00011719898 -0.01864493 -0.051825907 0.03828907 -0.05691551 -0.016338337 0.02845551
-0.05413141 -0.044729445 0.023564154 -0.047508072 0.0053038867 -0.04203037 -0.01810785 0.025009958
-0.045421455 -0.052756187 -0.04101389 -0.027554652 -0.009610028 -0.008650421 -0.048931997 -0.04702237
-0.042363938 -0.044041798 -0.017288096 -0.020791447 -0.016288187 -0.047535162 -0.027336225 0.023469297
-0.007240364 0.033470348 0.042272314 -0.019686254 0.013180264 0.0064589633 0.036428712 0.040430885
-0.0128632 0.006957272 -0.026051378 -0.016296038 0.024396414 -0.03035903 -0.022887161 0.03161186
-0.048550062 -0.02548692 -0.058612328 0.03414685 0.0150083415 0.0008414103 -0.044872973 0.03427029
0.037317082 -0.0545377 0.03182067 0.017402984 -0.013804107 -0.021882344 0.01667108 0.02939216
-0.031588808 -0.022516757 0.020833023 0.034627084 -0.024989357 -0.011355353 -0.0018996185 -0.029021436
0.0075324425 -0.0045467163 0.0052639907 0.033559754 -0.02583633 -0.030912085 0.0041174083 0.033698015
0.028964372 0.008191638 0.0108537115 0.0006728948 -0.035648033 -0.0041687484 0.027164565 -0.043902136
0.00089433487 0.0044357437 -0.022472862 -0.052114412 -0.017904233 0.007915253 -0.025908923 0.013972744
-0.011170627 -0.046432376 -0.015407555 -0.042434175 -0.047112767 -0.04522228 0.0031903915 -0.03738992
-0.039985772 -0.013576672 -0.04517923 -0.039374698 -0.04621066 0.023055619 0.026448263 0.03265265
0.008323075 -0.025877114 -0.003522856 0.02605473 -0.014341342 -0.03792603 -0.0035347217 0.011273246
0.03454395 0.040324215 -0.04150539 -0.054740686 -0.025584893 0.0051705753 0.0024295852 -0.023643373
-0.0035886976 -0.033057485 0.014013729 0.048979048 0.00977676 -0.011691302 0.041197147 0.032128297
-0.0030398497 -0.009256683 -0.023251353 -0.0024194096 -0.001827967 0.02222759 0.0316853 0.019533347
0.02405011 -0.029479977 -0.037075624 0.03861229 -0.021329386 0.017474204 -0.023855101 -0.041457787
-0.039243322 -0.023355367 0.015471722 -0.017951498 -0.018463489 0.009812354 -0.021811228 0.044154156
-0.033080176 0.036637563 0.037841175 0.034022026 -0.02658861 -0.0025291778 0.01615281 0.02889522
-0.04344696 -0.038309664 -0.009735251 -0.0024229968 -0.029691225 0.008683627 0.012540381 -0.025360042
0.013647697 -0.018877843 0.02287499 -0.011708836 -0.04316674 0.038887803 -0.018070264 -0.0015756306
0.006525937 0.024031928 0.023620037 -0.017946392 -0.024350103 0.011068918 -0.050795615 0.0032432126
-0.01619291 -0.04035442 -0.02509372 -0.011663006 -0.05361386 -0.019079914 -0.008631457 0.019020401
0.025965523 -0.03202686 -0.028103437 0.017405253 -0.023125987 0.0053931046 -0.050930392 -0.050779335
-0.014363941 -0.003960535 0.005609904 -0.02745767 -0.009077062 0.045051582 0.04341441 0.018674256
0.013769702 0.025141757 0.028181082 -0.0009666835 0.029691592 -0.040057767 0.0393809 0.03828173
-0.0060444325 -0.02860803 0.022133304 -0.0051453114 -0.024247201 0.027725687 -0.03474372 -0.018146457
-0.020970613 -0.010866042 -0.012809097 -0.047573898 0.026086444 -0.015662706 0.037057564 -0.005055812
0.009959318 -0.017148223 0.027606318 -0.04506119 -0.033920243 -0.034482107 -0.044268116 0.017686483
