p2_continuous-control/checkpoint_actor.pth (torch_old, 548296 bytes, 10 tensors)

fc1.weight f4 [400, 33]
0.03179613 0.032914873 -0.10141811 0.21214195 -0.012577617 0.2936634 -0.08186184 0.36944294
0.15793708 0.082578 -0.16751313 -0.20582688 0.1608388 -0.11037466 -0.03767709 0.036712755
0.2435527 0.036933847 0.0460389 0.1413623 -0.021321854 -0.07927908 0.34877515 0.051626146
-0.010285806 -0.05116412 0.09896094 0.07786579 0.07813939 0.0118820295 -0.05655205 0.031511884
0.43195438 -0.08015832 0.019538669 -0.13965823 0.06306024 0.21238643 -0.19299503 0.2507554
0.36839846 0.14103808 -0.17971538 -0.059052475 0.048427504 0.1314421 -0.15722165 0.027445143
-0.13896514 0.0028556385 -0.16867368 0.071356155 -0.08468771 0.067232445 -0.057727635 0.13251127
0.10029712 0.03870462 0.17349882 0.06941926 0.14808682 -0.04118295 0.039971415 -0.05353697
-0.014325123 0.026897622 0.0002947515 -0.16617836 -0.023221593 0.18643513 -0.21091087 0.15267336
-0.11154612 0.30378574 0.048990965 -0.18120697 0.017740436 -0.15567721 -0.25281712 0.0130418725
-0.0945685 0.09051703 0.27714708 -0.03635144 -0.15242848 0.0015149885 0.10645458 -0.042565156
0.04432308 0.055036478 0.027136058 0.05830259 -0.0030811848 0.008111642 0.22362806 -0.025775785
0.06953904 0.005580239 0.26747516 0.017093368 0.019922342 -0.018632427 0.14345312 0.1474745
-0.052423496 -0.047150597 -0.07280597 -0.23691654 0.013118111 -0.08473312 0.17037652 -0.019780062
0.21096963 -0.050887983 -0.040751323 -0.3215029 0.031899646 -0.07142045 -0.23846526 0.23396324
0.07377331 0.093342945 -0.056800008 0.071749054 -0.004455328 0.09775227 0.019337038 0.031929936
-0.014000017 0.014638342 0.030083422 0.065998584 0.0258377 -0.019832324 -0.067260295 0.21077396
0.0060138516 0.2957962 -0.26660743 0.15554592 -0.0873522 0.034914255 -0.049854625 -0.110438526
-0.080062 -0.13881108 0.032609567 -0.14545251 0.17951186 -0.19846006 0.18269728 -0.064012356
0.24456885 -0.27476275 0.068678424 0.04587354 -0.15189728 -0.104198284 0.041897092 0.14894147
0.07313003 -0.020853598 -0.14613526 -0.010163136 -0.11880695 0.20961027 0.096659824 -0.06654962
0.019544799 0.024891416 0.11002096 0.01514122 -0.08986319 -0.029556442 0.2247669 0.05063081
-0.14227448 -0.023399778 -0.03865417 0.07179938 -0.10260225 -0.19465695 0.15500775 0.0075356783
-0.18020996 -0.009992573 0.087456405 -0.10089414 -0.07808365 -0.019692073 0.2519846 0.06207131
-0.062350012 0.0516518 -0.047107715 -0.013726113 0.012636188 -0.12960653 0.03112351 -0.011837721
-0.07741501 0.18563634 -0.056395896 -0.12427199 0.198504 -0.090645924 0.09101097 0.040228315
-0.05079041 -0.107507296 -0.1611048 -0.11701537 -0.04766624 0.008273322 -0.0172562 -0.11269335
0.008697647 0.06562977 0.022100473 0.10778342 -0.012198997 0.014458295 0.04651952 0.063645884
-0.0829587 0.1466093 -0.0924811 0.026473355 -0.090476505 0.034729455 0.10730517 0.18984795
0.29880008 0.028281176 -0.094865166 0.037373036 -0.11664236 0.108529694 -0.10752263 0.11659551
0.31642997 0.095880486 0.03218127 -0.11204709 0.07355522 0.12873869 -0.0046312828 0.18358648
0.13802601 -0.24225509 0.0052187974 -0.09675892 0.27184254 0.13911758 -0.00340563 -0.041569125
00000000: a93c 023d bfd1 063d 4cb4 cfbd bd3b 593e
00000010: 5912 4ebc 0d5b 963e 2ea7 a7bd a027 bd3e
00000020: 42ba 213e a81e a93d 9088 2bbe 48c4 52be
00000030: edb2 243e 1c0c e2bd 4b53 1abd 1d60 163d
00000040: e165 793e f247 173d 4993 3c3d 47c1 103e
00000050: 2bab aebc 125d a2bd a892 b23e f075 533d
00000060: cc85 28bc 7891 51bd 09ac ca3d 1978 9f3d
00000070: 8b07 a03d d8ac 423c 1fa3 67bd 9b12 013d
00000080: 2029 dd3e 0c2a a4bd 8f0f a03c 9102 0fbe
00000090: ba25 813d d47b 593e 7da0 45be 0363 803e
000000a0: b99e bc3e 496c 103e 4f07 38be 02e1 71bd
000000b0: eb5b 463d c298 063e b6fe 20be a3d4 e03c
000000c0: e14c 0ebe aa25 3b3b cbb8 2cbe 2d23 923d
000000d0: c070 adbd 2ab1 893d d073 6cbd 09b1 073e
000000e0: 9468 cd3d bc88 1e3d ada9 313e af2b 8e3d
000000f0: 12a4 173e 74af 28bd 11b9 233d 9549 5bbd
00000100: ecb3 6abc 6758 dc3c e088 9a39 a92a 2abe
00000110: 363b bebc dae8 3e3e 05f9 57be 6856 1c3e
00000120: 4b72 e4bd ce89 9b3e c0aa 483d 528e 39be
00000130: 6454 913c d969 1fbe 3f71 81be 94ad 553c
00000140: 21ad c1bd fe60 b93d 39e6 8d3e 3fe5 14bd
00000150: 3616 1cbe 9492 c63a dc04 da3d cd58 2ebd
00000160: 1e8c 353d ee6d 613d 704c de3c b2ce 6e3d
00000170: b4ed 49bb b1e6 043c c1fe 643e bd27 d3bc
00000180: 7c6a 8e3d 70da b63b 81f2 883e 6407 8c3c
00000190: 2e34 a33c 08a3 98bc 60e5 123e 8e03 173e
000001a0: 05ba 56bd fc20 41bd 4c1b 95bd 409a 72be
000001b0: 58ed 563c 8f88 adbd 2f77 2e3e cc09 a2bc
000001c0: 6c08 583e eb6f 50bd dcea 26bd 079c a4be
000001d0: 34a9 023d e344 92bd 3d30 74be 0f94 6f3e
000001e0: 7616 973d 962a bf3d 20a7 68bd 2bf1 923d
000001f0: 00fe 91bb 5832 c83d b568 9e3c f7c8 023d
00000200: 5460 65bc a8d5 6f3c 8271 f63c 442a 873d
00000210: 96a9 d33c 6677 a2bc c4bf 89bd 21d5 573e
00000220: d80f c53b 9972 973e c580 88be 6e47 1f3e
00000230: b6e5 b2bd 4002 0f3d 5d34 4cbd 982d e2bd
00000240: 8cf7 a3bd 7e24 0ebe 9c91 053d 81f1 14be
00000250: f5d1 373e 1d39 4bbe ff14 3b3e e918 83bd
00000260: 4270 7a3e b4ad 8cbe 46a7 8c3d e5e5 3b3d
00000270: f68a 1bbe e965 d5bd 499c 2b3d 1d84 183e
00000280: 32c5 953d 2ad5 aabc 7ba4 15be 4883 26bc
00000290: 0f51 f3bd 13a4 563e 96f5 c53d 2b4b 88bd
000002a0: 6a1c a03c 15e9 cb3c ab52 e13d e112 783c
000002b0: 310a b8bd 5a20 f2bc 4b29 663e 4162 4f3d
000002c0: 67b0 11be e4b0 bfbc d653 1ebd 8e0b 933d
000002d0: 2121 d2bd 2754 47be 5aba 1e3e daed f63b
000002e0: f688 38be e4b7 23bc 581c b33d 96a1 cebd
000002f0: 52ea 9fbd 4551 a1bc 2004 813e 7c3e 7e3d
00000300: ba62 7fbd d690 533d 05f4 40bd 7ee3 60bc
00000310: 0408 4f3c 93b7 04be bbf6 fe3c 00f3 41bc
00000320: c38b 9ebd 7417 3e3e 62ff 66bd 5082 febd
00000330: a244 4b3e 92a4 b9bd f663 ba3d 72c6 243d
00000340: 9b09 50bd c92c dcbd a8f8 24be c1a5 efbd
00000350: ad3d 43bd d48c 073c e05c 8dbc c5cb e6bd
00000360: 9380 0e3c e768 863d 0d0c b53c 8ebd dc3d
00000370: 4dde 47bc 7ce2 6c3c 418b 3e3d c658 823d
00000380: 40e6 a9bd c020 163e bb66 bdbd a6de d83c
00000390: bf4b b9bd 7940 0e3d d0c2 db3d 8067 423e
000003a0: 53fc 983e edad e73c ab48 c2bd 7814 193d
000003b0: 31e2 eebd d144 de3d d334 dcbd a0c9 ee3d
000003c0: 1c03 a23e fd5c c43d 82d0 033d f278 e5bd
000003d0: 1fa4 963d 13d4 033e 04c2 97bb 18fe 3b3e
000003e0: b156 0d3e b811 78be 7202 ab3b 8a29 c6bd
000003f0: f22e 8b3e d774 0e3e fd30 5fbb 6344 2abd

fc1.bias f4 [400]
0.040886246 -0.23897561 0.11412338 -0.09683042 -0.10700751 -0.0054317643 -0.14781983 -0.2443219
-0.13106985 -0.19440265 -0.25445244 -0.026616173 -0.24092023 -0.041576035 0.114460446 0.034657583
0.09703696 0.023932291 0.028908668 0.05262702 -0.22697584 -0.0040869964 -0.25222072 -0.13484061
0.11788405 -0.017411608 -0.08852351 -0.31724912 -0.06606727 0.011345553 -0.023641547 -0.22399329
-0.0701143 -0.1356397 0.08486342 0.070008546 -0.11438481 -0.1319127 -0.16394705 -0.225779
-0.13920617 0.087894276 -0.007874167 -0.1020412 -0.25630376 -0.25029406 0.05809467 0.10441125
0.05642917 -0.07273042 0.058182456 -0.14017104 0.027909469 -0.042648956 -0.016643643 -0.09353741
-0.20879321 0.01171279 0.07849176 -0.05488986 0.11364716 -0.13045742 0.11415058 -0.23354656
-0.0021017815 0.11656927 -0.24442111 0.16062175 -0.1862675 -0.029411541 -0.2508521 0.04601246
-0.044049606 -0.024284722 -0.08045946 0.064159274 -0.060956266 -0.041432876 -0.094074115 -0.08451597
0.0018304773 0.11583516 -0.12646146 0.0041411626 -0.0057603084 -0.007266059 -0.05422323 0.07859143
-0.17543615 -0.24151504 -0.0026736937 -0.1600916 -0.012078152 -0.025999198 -0.095231436 -0.028139172
0.03923189 -0.2937337 -0.055507686 -0.057180054 0.091235 -0.05643377 -0.071805194 -0.049316164
0.11988181 -0.1024895 -0.016890155 -0.07489984 -0.09809338 0.07527292 -0.11717421 0.086917505
-0.24942444 -0.17903396 -0.059715 -0.10353294 -0.046863392 -0.19027238 -0.1038346 -0.15899074
-0.1512971 -0.04776085 -0.10358589 0.029323267 -0.20246452 0.013110887 0.04200296 -0.12666284
-0.15629777 -0.04089913 0.069590725 -0.233947 -0.041294426 -0.22919917 0.025779631 -0.004679655
-0.089478806 0.1271706 -0.15166417 -0.11374259 -0.15169035 -0.13778487 0.02056255 -0.08834635
-0.025289772 -0.16722208 -0.14107421 -0.11068553 0.06341914 0.07623566 0.17475165 -0.29678103
-0.20814385 -0.18461512 0.095716074 -0.045732323 -0.07443813 0.054364797 -0.33411556 -0.10113854
-0.16270319 0.16217433 0.12644388 -0.06769099 -0.008050334 0.073555365 -0.278561 -0.1274564
-0.018613342 -0.11833909 0.06638268 0.0871176 -0.06307099 0.027649574 -0.12439744 -0.19438007
0.07272825 0.0029691819 0.03552498 0.011781755 0.0511664 -0.16093805 0.1036992 -0.26234162
-0.025268504 0.014614347 -0.28305322 -0.1534061 -0.031970475 -0.2861774 -0.19014977 -0.30579785
-0.111635886 -0.17889045 -0.011295811 -0.25175962 -0.038975365 0.056003045 0.12809174 -0.058458306
-0.15739198 -0.06239699 -0.18069473 -0.026810322 -0.11186615 -0.048556376 -0.2088384 -0.23947693
-0.1134066 -0.0194577 -0.100875296 0.002002054 -0.1221703 0.08265422 -0.19130482 -0.24955411
-0.01927704 0.019310607 -0.1931924 -0.18444377 -0.007481251 0.109421015 -0.11809806 0.07391159
0.08525618 -0.021323215 -0.25582907 -0.022246819 0.0013807995 -0.25545382 -0.121785514 0.0041505103
-0.21211372 0.0961638 -0.28805706 -0.110538624 -0.11419567 -0.18484463 -0.09531575 -0.09829561
-0.2134637 -0.1941176 -0.12896386 0.054249838 -0.065953106 0.038626652 -0.07319511 -0.030831657
-0.22235335 -0.03518807 0.0123341745 -0.25662982 -0.025043296 -0.16019915 -0.08058133 0.0864516
00000000: 5678 273d 06b6 74be 85b9 e93d 074f c6bd
00000010: c126 dbbd f1fc b1bb 155e 17be 852f 7abe
00000020: 2d37 06be 7d11 47be 9747 82be 290a dabc
00000030: cbb3 76be a24b 2abd 3d6a ea3d 1cf5 0d3d
00000040: 50bb c63d a70d c43c dfd1 ec3c 6e8f 573d
00000050: 5b6c 68be 36ec 85bb 1323 81be a813 0abe
00000060: 316d f13d caa2 8ebc d04b b5bd 7a6e a2be
00000070: 474e 87bd b3e2 393c ebab c1bc 7f5e 65be
00000080: 1698 8fbd 22e5 0abe dfcc ad3d a460 8f3d
00000090: 9542 eabd 1f14 07be bce1 27be 9c32 67be
000000a0: 108c 0ebe ea01 b43d a602 01bc fafa d0bd
000000b0: 3f3a 83be 8b26 80be adf4 6d3d 91d5 d53d
000000c0: 4622 673d b0f3 94bd ba50 6e3d ff88 0fbe
000000d0: 66a2 e43c acb0 2ebd 4058 88bc 8b90 bfbd
000000e0: e3cd 55be 00e7 3f3c 4ac0 a03d 31d4 60bd
000000f0: d8bf e83d a196 05be c7c7 e93d d426 6fbe
00000100: 0bbe 09bb dfbb ee3d 8749 7abe 077a 243e
00000110: e8bc 3ebe 79f0 f0bc b06f 80be 9077 3c3d
00000120: 5c6d 34bd c1f0 c6bc eec7 a4bd f065 833d
00000130: 47ad 79bd 85b5 29bd eea9 c0bd b516 adbd
00000140: a0ec ef3a fc3a ed3d 1d7f 01be 97b2 873b
00000150: f8c0 bcbb 1f18 eebb 2d19 5ebd 8bf4 a03d
00000160: 89a5 33be b84f 77be 2339 2fbb 0def 23be
00000170: 71e3 45bc 45fc d4bc b308 c3bd 1f84 e6bc
00000180: 9eb1 203d 4364 96be 075c 63bd a235 6abd
00000190: 6ad9 ba3d 1927 67bd 9a0e 93bd bfff 49bd
000001a0: 9884 f53d 04e6 d1bd 395d 8abc 1665 99bd
000001b0: 2fe5 c8bd b028 9a3d 08f9 efbd ce01 b23d
000001c0: 1f69 7fbe ae54 37be b797 74bd 1409 d4bd
000001d0: d4f3 3fbd c3d6 42be 3ca7 d4bd 78ce 22be
000001e0: a1ed 1abe e2a0 43bd d724 d4bd 5937 f03c
000001f0: dc52 4fbe 0ccf 563c 4c0b 2c3d e7b3 01be
00000200: 860c 20be d985 27bd 9585 8e3d cd8f 6fbe
00000210: 5824 29bd 30b3 6abe ce2f d33c cb57 99bb
00000220: aa40 b7bd 0339 023e da4d 1bbe e0f1 e8bd
00000230: b754 1bbe 7a17 0dbe cb72 a83c eeee b4bd
00000240: 7f2c cfbc 443c 2bbe c275 10be 18af e2bd
00000250: e5e1 813d 7121 9c3d 19f2 323e aff3 97be
00000260: a923 55be bf0b 3dbe ca06 c43d d151 3bbd
00000270: 0573 98bd 9fad 5e3d 3211 abbe b921 cfbd
00000280: aa9b 26be 0711 263e 817a 013e 93a1 8abd
00000290: 8ce5 03bc 32a4 963d 8c9f 8ebe ee83 02be
000002a0: 027b 98bc c45b f2bd a4f3 873d b66a b23d
000002b0: 5d2b 81bd 5c81 e23c 16c4 febd 920b 47be
000002c0: 8cf2 943d 9b96 423b a482 113d 4308 413c
000002d0: dc93 513d f2cc 24be 3f60 d43d a451 86be
000002e0: e5ff cebc 0471 6f3c 5aec 90be 7d16 1dbe
000002f0: 79f3 02bd d885 92be 9fb6 42be 8991 9cbe
00000300: 5ba1 e4bd 0f2f 37be 1112 39bc a3e6 80be
00000310: a2a4 1fbd 7363 653d 7b2a 033e fa71 6fbd
00000320: 5d2b 21be fc93 7fbd 0a08 39be 52a1 dbbc
00000330: 141a e5bd 0de3 46bd bcd9 55be 7139 75be
00000340: b841 e8bd c165 9fbc b597 cebd e434 033b
00000350: 6c34 fabd 9e46 a93d 69e5 43be 1d8b 7fbe
00000360: e2ea 9dbc 4731 9e3c 3ad4 45be d4de 3cbe
00000370: 4825 f5bb 2018 e03d 65dd f1bd f65e 973d
00000380: cb9a ae3d 06ae aebc 07fc 82be f63e b6bc
00000390: f1fb b43a d8ca 82be af6a f9bd 0101 883b
000003a0: 5734 59be 87f1 c43d 377c 93be 1362 e2bd
000003b0: 6bdf e9bd e947 3dbe e734 c3bd 354f c9bd
000003c0: 3a96 5abe c4c6 46be 1a0f 04be 1435 5e3d
000003d0: 6c12 87bd fb36 1e3d 51e7 95bd ac92 fcbc
000003e0: 99b0 63be 5e21 10bd 4715 4a3c fc64 83be
000003f0: 9927 cdbc 3f0b 24be d307 a5bd 890d b13d

bn1.weight f4 [400]
0.56908494 0.5693865 0.09891415 0.25133342 0.9582566 0.15680498 0.93258035 0.9431254
0.69775283 0.72185487 0.55176973 0.14609528 0.9506285 0.0713948 0.29692245 0.56197625
0.001685977 0.5318166 0.84120136 0.62901336 0.3104375 0.53319216 0.24188536 0.77200264
0.45330656 0.2830447 0.14332372 0.29607004 0.49156296 0.10011464 0.5501282 0.98602045
0.55250627 0.1680389 0.4160015 0.9349003 0.38408893 0.09303433 0.72968364 0.53612834
0.05009401 0.4562142 0.59510905 0.6240815 0.63243604 0.09732795 0.014659464 0.39116985
0.45134282 0.34539282 0.1806919 0.002396047 0.6619259 0.4658867 0.2287544 0.3102075
0.3538552 0.6701281 0.943832 0.8348423 0.4266624 0.7345307 0.31957585 0.6062587
0.31499094 0.37709093 0.11401695 0.45421082 0.6492366 0.6231886 0.16540563 0.87556535
0.6777809 0.17343128 0.33016557 0.24423963 0.3950467 0.7952954 0.0117560625 0.452218
0.5120419 0.26751626 0.9269851 0.616393 0.91757464 0.7641708 0.37485373 0.54362077
0.7813652 0.974203 0.16701436 0.8948689 0.51945037 0.12178075 0.92631763 0.15013993
0.23781097 0.29514873 0.8535548 0.9913336 0.084329724 0.7070873 0.20675051 0.5112469
0.47821265 0.86979413 0.5320033 0.66864586 0.60411984 0.78058994 0.9348961 0.04668516
0.46350443 0.7003398 0.909845 0.044797778 0.50443447 0.6767526 0.49502957 0.42846555
0.70200574 0.05731547 0.68785125 0.51538056 0.12665546 0.018095195 0.5305443 0.4844923
0.85106415 0.22199339 0.49875385 0.86441094 0.23065042 0.4009053 0.24465865 0.6241651
0.41577065 0.7224802 0.74157995 0.82285905 0.36595535 0.918023 0.9744897 0.0057059526
0.5065127 0.91608864 0.28814685 0.40679818 0.81170034 0.49520046 0.34520793 0.79217064
0.27403504 0.25283992 0.80701244 0.46901625 0.7465372 0.48849386 0.2738346 0.5865113
0.84164435 0.19427645 0.86761117 0.703309 0.33431005 0.07147223 0.59864825 0.85038716
0.11972654 0.7137852 0.63130265 0.32561934 0.8051343 0.14339507 0.6417799 0.99594325
0.38130212 0.62226295 0.9183585 0.018113852 0.35234421 0.0153182745 0.087403715 0.97379434
0.09271282 0.33845848 0.90090257 0.48255992 0.64491844 0.012013376 0.5970801 0.18621862
0.34722644 0.08545506 0.7230508 0.6562214 0.85035694 0.23608905 0.18484229 0.7370249
0.93455225 0.27614933 0.830738 0.571149 0.24638194 0.85603374 0.7689092 0.648728
0.10966301 0.6365265 0.78455013 0.72060245 0.6777056 0.64895976 0.16335863 0.7303182
0.65895116 0.82032 0.57706606 0.8189166 0.4895572 0.9273048 0.05355376 0.32542753
0.9855957 0.8506441 0.3974098 0.60709083 0.13818836 0.8899812 0.7413235 0.7301618
0.9487637 0.60850435 0.9960683 0.80549294 0.6917581 0.6863754 0.8447965 0.81783915
0.25428236 0.4802217 0.59485716 0.8334699 0.2103787 0.008042514 0.9625594 0.6031115
0.28434545 0.2758718 0.16437286 0.48529208 0.72164154 0.21565819 0.6505905 0.105650365
00000000: 8daf 113f 50c3 113f 8093 ca3d c6ae 803e
00000010: 4e50 753f 7c91 203e 96bd 6e3f ab70 713f
00000020: ee9f 323f 7bcb 383f c840 0d3f 009a 153e
00000030: 645c 733f 7037 923d 3806 983e addd 0f3f
00000040: 00fc dc3a 2225 083f f958 573f 0507 213f
00000050: aaf1 9e3e 487f 083f ccb0 773e f7a1 453f
00000060: cc17 e83e 3ceb 903e 74c3 123e 7e96 973e
00000070: 24ae fb3e e808 cd3d 34d5 0c3f d66b 7c3f
00000080: 0d71 0d3f 6412 2c3e 26fe d43e a055 6f3f
00000090: 4ea7 c43e c888 be3d 8ccc 3a3f b53f 093f
000000a0: 602f 4d3d e894 e93e 1159 183f cec3 1f3f
000000b0: 54e7 213f e053 c73d 402e 703c 6a47 c83e
000000c0: 6816 e73e 54d7 b03e 4c07 393e 0007 1d3b
000000d0: fa73 293f b488 ee3e 983e 6a3e 84d3 9e3e
000000e0: 822c b53e 848d 2b3f f99e 713f 3ab8 553f
000000f0: 7e73 da3e 340a 3c3f 729f a33e c533 1b3f
00000100: 7e46 a13e 1012 c13e b881 e93d 528e e83e
00000110: 5f34 263f 4a89 1f3f 1860 293e 0d25 603f
00000120: 0d83 2d3f f897 313e 760b a93e f419 7a3e
00000130: 9043 ca3e 7b98 4b3f 809c 403c 1e89 e73e
00000140: 2e15 033f e4f7 883e e54e 6d3f efcb 1d3f
00000150: 2ce6 6a3f b3a0 433f d4ec bf3e bb2a 0b3f
00000160: 8d07 483f 5e65 793f d005 2b3e 2116 653f
00000170: b3fa 043f 3068 f93d 2723 6d3f 48be 193e
00000180: b884 733e bc1d 973e 9182 5a3f 0ac8 7d3f
00000190: 10b5 ac3d ac03 353f 68b6 533e 14e1 023f
000001a0: 4ad8 f43e d4aa 5e3f 5e31 083f 602c 2b3f
000001b0: 99a7 1a3f bed4 473f 5a55 6f3f f038 3f3d
000001c0: 7450 ed3e 7849 333f 9aeb 683f e07d 373d
000001d0: 9e22 013f a93f 2d3f 8474 fd3e d65f db3e
000001e0: a6b6 333f a0c3 6a3d 0517 303f fbef 033f
000001f0: f8b1 013e 603c 943c c0d1 073f 600f f83e
00000200: 57df 593f 3c52 633e aa5c ff3e 094a 5d3f
00000210: a02f 6c3e 7643 cd3e cc87 7a3e 49c9 1f3f
00000220: e4df d43e 76f4 383f 2fd8 3d3f e4a6 523f
00000230: 805e bb3e 8e03 6b3f 2878 793f 00f9 ba3b
00000240: d1aa 013f c984 6a3f fc87 933e da47 d03e
00000250: 98cb 4f3f ea8a fd3e 18bf b03e b2cb 4a3f
00000260: 524e 8c3e 3c74 813e 5e98 4e3f e622 f03e
00000270: 101d 3f3f de1b fa3e 0c34 8c3e 9b25 163f
00000280: 0176 573f 68f0 463e c41b 5e3f 0f0c 343f
00000290: b02a ab3e 0860 923d 0341 193f f9b2 593f
000002a0: 3033 f53d a0ba 363f 0d9d 213f 94b7 a63e
000002b0: 481d 4e3f 28d6 123e b04b 243f 23f6 7e3f
000002c0: 083a c33e a04c 1f3f 8b19 6b3f 8063 943c
000002d0: 7666 b43e 80f9 7a3c b800 b33d 964a 793f
000002e0: 38e0 bd3d 6e4a ad3e 8da1 663f 1812 f73e
000002f0: 6019 253f c0d3 443c 3eda 183f 18b0 3e3e
00000300: aac7 b13e 1003 af3d db19 393f 20fe 273f
00000310: feb0 593f 54c1 713e 4c47 3d3e aaad 3c3f
00000320: d13e 6f3f 7263 8d3e 3fab 543f d236 123f
00000330: 8c4b 7c3e 0725 5b3f 3cd7 443f 0a13 263f
00000340: 0097 e03d 67f3 223f 47d8 483f 6779 383f
00000350: 1d7e 2d3f 3a22 263f 7c47 273e 22f6 3a3f
00000360: 06b1 283f 7e00 523f 9aba 133f 85a4 513f
00000370: 3ea7 fa3e d963 6d3f 305b 5b3d 709e a63e
00000380: 0050 7c3f d0c3 593f 4c79 cb3e 4e6a 1b3f
00000390: 4081 0d3e cfd5 633f 60c7 3d3f e2eb 3a3f
000003a0: 2ee2 723f f1c6 1b3f 55fe 7e3f c934 4e3f
000003b0: 0f17 313f 4cb6 2f3f 9544 583f e85d 513f
000003c0: 4c31 823e 9edf f53e 8f48 183f 495e 553f
000003d0: 846d 573e c0c4 033c 4b6a 763f 8465 1a3f
000003e0: ba95 913e 123f 8d3e 5c51 283e 3478 f83e
000003f0: 80bd 383f 80d5 5c3e 198d 263f 385f d83d

bn1.bias f4 [400]
0.0 0.0 0.0 0.0 0.0 0.0 0.0 0.0
0.0 0.0 0.0 0.0 0.0 0.0 0.0 0.0
0.0 0.0 0.0 0.0 0.0 0.0 0.0 0.0
0.0 0.0 0.0 0.0 0.0 0.0 0.0 0.0
0.0 0.0 0.0 0.0 0.0 0.0 0.0 0.0
0.0 0.0 0.0 0.0 0.0 0.0 0.0 0.0
0.0 0.0 0.0 0.0 0.0 0.0 0.0 0.0
0.0 0.0 0.0 0.0 0.0 0.0 0.0 0.0
0.0 0.0 0.0 0.0 0.0 0.0 0.0 0.0
0.0 0.0 0.0 0.0 0.0 0.0 0.0 0.0
0.0 0.0 0.0 0.0 0.0 0.0 0.0 0.0
0.0 0.0 0.0 0.0 0.0 0.0 0.0 0.0
0.0 0.0 0.0 0.0 0.0 0.0 0.0 0.0
0.0 0.0 0.0 0.0 0.0 0.0 0.0 0.0
0.0 0.0 0.0 0.0 0.0 0.0 0.0 0.0
0.0 0.0 0.0 0.0 0.0 0.0 0.0 0.0
0.0 0.0 0.0 0.0 0.0 0.0 0.0 0.0
0.0 0.0 0.0 0.0 0.0 0.0 0.0 0.0
0.0 0.0 0.0 0.0 0.0 0.0 0.0 0.0
0.0 0.0 0.0 0.0 0.0 0.0 0.0 0.0
0.0 0.0 0.0 0.0 0.0 0.0 0.0 0.0
0.0 0.0 0.0 0.0 0.0 0.0 0.0 0.0
0.0 0.0 0.0 0.0 0.0 0.0 0.0 0.0
0.0 0.0 0.0 0.0 0.0 0.0 0.0 0.0
0.0 0.0 0.0 0.0 0.0 0.0 0.0 0.0
0.0 0.0 0.0 0.0 0.0 0.0 0.0 0.0
0.0 0.0 0.0 0.0 0.0 0.0 0.0 0.0
0.0 0.0 0.0 0.0 0.0 0.0 0.0 0.0
0.0 0.0 0.0 0.0 0.0 0.0 0.0 0.0
0.0 0.0 0.0 0.0 0.0 0.0 0.0 0.0
0.0 0.0 0.0 0.0 0.0 0.0 0.0 0.0
0.0 0.0 0.0 0.0 0.0 0.0 0.0 0.0
00000000: 0000 0000 0000 0000 0000 0000 0000 0000
00000010: 0000 0000 0000 0000 0000 0000 0000 0000
00000020: 0000 0000 0000 0000 0000 0000 0000 0000
00000030: 0000 0000 0000 0000 0000 0000 0000 0000
00000040: 0000 0000 0000 0000 0000 0000 0000 0000
00000050: 0000 0000 0000 0000 0000 0000 0000 0000
00000060: 0000 0000 0000 0000 0000 0000 0000 0000
00000070: 0000 0000 0000 0000 0000 0000 0000 0000
00000080: 0000 0000 0000 0000 0000 0000 0000 0000
00000090: 0000 0000 0000 0000 0000 0000 0000 0000
000000a0: 0000 0000 0000 0000 0000 0000 0000 0000
000000b0: 0000 0000 0000 0000 0000 0000 0000 0000
000000c0: 0000 0000 0000 0000 0000 0000 0000 0000
000000d0: 0000 0000 0000 0000 0000 0000 0000 0000
000000e0: 0000 0000 0000 0000 0000 0000 0000 0000
000000f0: 0000 0000 0000 0000 0000 0000 0000 0000
00000100: 0000 0000 0000 0000 0000 0000 0000 0000
00000110: 0000 0000 0000 0000 0000 0000 0000 0000
00000120: 0000 0000 0000 0000 0000 0000 0000 0000
00000130: 0000 0000 0000 0000 0000 0000 0000 0000
00000140: 0000 0000 0000 0000 0000 0000 0000 0000
00000150: 0000 0000 0000 0000 0000 0000 0000 0000
00000160: 0000 0000 0000 0000 0000 0000 0000 0000
00000170: 0000 0000 0000 0000 0000 0000 0000 0000
00000180: 0000 0000 0000 0000 0000 0000 0000 0000
00000190: 0000 0000 0000 0000 0000 0000 0000 0000
000001a0: 0000 0000 0000 0000 0000 0000 0000 0000
000001b0: 0000 0000 0000 0000 0000 0000 0000 0000
000001c0: 0000 0000 0000 0000 0000 0000 0000 0000
000001d0: 0000 0000 0000 0000 0000 0000 0000 0000
000001e0: 0000 0000 0000 0000 0000 0000 0000 0000
000001f0: 0000 0000 0000 0000 0000 0000 0000 0000
00000200: 0000 0000 0000 0000 0000 0000 0000 0000
00000210: 0000 0000 0000 0000 0000 0000 0000 0000
00000220: 0000 0000 0000 0000 0000 0000 0000 0000
00000230: 0000 0000 0000 0000 0000 0000 0000 0000
00000240: 0000 0000 0000 0000 0000 0000 0000 0000
00000250: 0000 0000 0000 0000 0000 0000 0000 0000
00000260: 0000 0000 0000 0000 0000 0000 0000 0000
00000270: 0000 0000 0000 0000 0000 0000 0000 0000
00000280: 0000 0000 0000 0000 0000 0000 0000 0000
00000290: 0000 0000 0000 0000 0000 0000 0000 0000
000002a0: 0000 0000 0000 0000 0000 0000 0000 0000
000002b0: 0000 0000 0000 0000 0000 0000 0000 0000
000002c0: 0000 0000 0000 0000 0000 0000 0000 0000
000002d0: 0000 0000 0000 0000 0000 0000 0000 0000
000002e0: 0000 0000 0000 0000 0000 0000 0000 0000
000002f0: 0000 0000 0000 0000 0000 0000 0000 0000
00000300: 0000 0000 0000 0000 0000 0000 0000 0000
00000310: 0000 0000 0000 0000 0000 0000 0000 0000
00000320: 0000 0000 0000 0000 0000 0000 0000 0000
00000330: 0000 0000 0000 0000 0000 0000 0000 0000
00000340: 0000 0000 0000 0000 0000 0000 0000 0000
00000350: 0000 0000 0000 0000 0000 0000 0000 0000
00000360: 0000 0000 0000 0000 0000 0000 0000 0000
00000370: 0000 0000 0000 0000 0000 0000 0000 0000
00000380: 0000 0000 0000 0000 0000 0000 0000 0000
00000390: 0000 0000 0000 0000 0000 0000 0000 0000
000003a0: 0000 0000 0000 0000 0000 0000 0000 0000
000003b0: 0000 0000 0000 0000 0000 0000 0000 0000
000003c0: 0000 0000 0000 0000 0000 0000 0000 0000
000003d0: 0000 0000 0000 0000 0000 0000 0000 0000
000003e0: 0000 0000 0000 0000 0000 0000 0000 0000
000003f0: 0000 0000 0000 0000 0000 0000 0000 0000

bn1.running_mean f4 [400]
0.0 0.0 0.0 0.0 0.0 0.0 0.0 0.0
0.0 0.0 0.0 0.0 0.0 0.0 0.0 0.0
0.0 0.0 0.0 0.0 0.0 0.0 0.0 0.0
0.0 0.0 0.0 0.0 0.0 0.0 0.0 0.0
0.0 0.0 0.0 0.0 0.0 0.0 0.0 0.0
0.0 0.0 0.0 0.0 0.0 0.0 0.0 0.0
0.0 0.0 0.0 0.0 0.0 0.0 0.0 0.0
0.0 0.0 0.0 0.0 0.0 0.0 0.0 0.0
0.0 0.0 0.0 0.0 0.0 0.0 0.0 0.0
0.0 0.0 0.0 0.0 0.0 0.0 0.0 0.0
0.0 0.0 0.0 0.0 0.0 0.0 0.0 0.0
0.0 0.0 0.0 0.0 0.0 0.0 0.0 0.0
0.0 0.0 0.0 0.0 0.0 0.0 0.0 0.0
0.0 0.0 0.0 0.0 0.0 0.0 0.0 0.0
0.0 0.0 0.0 0.0 0.0 0.0 0.0 0.0
0.0 0.0 0.0 0.0 0.0 0.0 0.0 0.0
0.0 0.0 0.0 0.0 0.0 0.0 0.0 0.0
0.0 0.0 0.0 0.0 0.0 0.0 0.0 0.0
0.0 0.0 0.0 0.0 0.0 0.0 0.0 0.0
0.0 0.0 0.0 0.0 0.0 0.0 0.0 0.0
0.0 0.0 0.0 0.0 0.0 0.0 0.0 0.0
0.0 0.0 0.0 0.0 0.0 0.0 0.0 0.0
0.0 0.0 0.0 0.0 0.0 0.0 0.0 0.0
0.0 0.0 0.0 0.0 0.0 0.0 0.0 0.0
0.0 0.0 0.0 0.0 0.0 0.0 0.0 0.0
0.0 0.0 0.0 0.0 0.0 0.0 0.0 0.0
0.0 0.0 0.0 0.0 0.0 0.0 0.0 0.0
0.0 0.0 0.0 0.0 0.0 0.0 0.0 0.0
0.0 0.0 0.0 0.0 0.0 0.0 0.0 0.0
0.0 0.0 0.0 0.0 0.0 0.0 0.0 0.0
0.0 0.0 0.0 0.0 0.0 0.0 0.0 0.0
0.0 0.0 0.0 0.0 0.0 0.0 0.0 0.0
00000000: 0000 0000 0000 0000 0000 0000 0000 0000
00000010: 0000 0000 0000 0000 0000 0000 0000 0000
00000020: 0000 0000 0000 0000 0000 0000 0000 0000
00000030: 0000 0000 0000 0000 0000 0000 0000 0000
00000040: 0000 0000 0000 0000 0000 0000 0000 0000
00000050: 0000 0000 0000 0000 0000 0000 0000 0000
00000060: 0000 0000 0000 0000 0000 0000 0000 0000
00000070: 0000 0000 0000 0000 0000 0000 0000 0000
00000080: 0000 0000 0000 0000 0000 0000 0000 0000
00000090: 0000 0000 0000 0000 0000 0000 0000 0000
000000a0: 0000 0000 0000 0000 0000 0000 0000 0000
000000b0: 0000 0000 0000 0000 0000 0000 0000 0000
000000c0: 0000 0000 0000 0000 0000 0000 0000 0000
000000d0: 0000 0000 0000 0000 0000 0000 0000 0000
000000e0: 0000 0000 0000 0000 0000 0000 0000 0000
000000f0: 0000 0000 0000 0000 0000 0000 0000 0000
00000100: 0000 0000 0000 0000 0000 0000 0000 0000
00000110: 0000 0000 0000 0000 0000 0000 0000 0000
00000120: 0000 0000 0000 0000 0000 0000 0000 0000
00000130: 0000 0000 0000 0000 0000 0000 0000 0000
00000140: 0000 0000 0000 0000 0000 0000 0000 0000
00000150: 0000 0000 0000 0000 0000 0000 0000 0000
00000160: 0000 0000 0000 0000 0000 0000 0000 0000
00000170: 0000 0000 0000 0000 0000 0000 0000 0000
00000180: 0000 0000 0000 0000 0000 0000 0000 0000
00000190: 0000 0000 0000 0000 0000 0000 0000 0000
000001a0: 0000 0000 0000 0000 0000 0000 0000 0000
000001b0: 0000 0000 0000 0000 0000 0000 0000 0000
000001c0: 0000 0000 0000 0000 0000 0000 0000 0000
000001d0: 0000 0000 0000 0000 0000 0000 0000 0000
000001e0: 0000 0000 0000 0000 0000 0000 0000 0000
000001f0: 0000 0000 0000 0000 0000 0000 0000 0000
00000200: 0000 0000 0000 0000 0000 0000 0000 0000
00000210: 0000 0000 0000 0000 0000 0000 0000 0000
00000220: 0000 0000 0000 0000 0000 0000 0000 0000
00000230: 0000 0000 0000 0000 0000 0000 0000 0000
00000240: 0000 0000 0000 0000 0000 0000 0000 0000
00000250: 0000 0000 0000 0000 0000 0000 0000 0000
00000260: 0000 0000 0000 0000 0000 0000 0000 0000
00000270: 0000 0000 0000 0000 0000 0000 0000 0000
00000280: 0000 0000 0000 0000 0000 0000 0000 0000
00000290: 0000 0000 0000 0000 0000 0000 0000 0000
000002a0: 0000 0000 0000 0000 0000 0000 0000 0000
000002b0: 0000 0000 0000 0000 0000 0000 0000 0000
000002c0: 0000 0000 0000 0000 0000 0000 0000 0000
000002d0: 0000 0000 0000 0000 0000 0000 0000 0000
000002e0: 0000 0000 0000 0000 0000 0000 0000 0000
000002f0: 0000 0000 0000 0000 0000 0000 0000 0000
00000300: 0000 0000 0000 0000 0000 0000 0000 0000
00000310: 0000 0000 0000 0000 0000 0000 0000 0000
00000320: 0000 0000 0000 0000 0000 0000 0000 0000
00000330: 0000 0000 0000 0000 0000 0000 0000 0000
00000340: 0000 0000 0000 0000 0000 0000 0000 0000
00000350: 0000 0000 0000 0000 0000 0000 0000 0000
00000360: 0000 0000 0000 0000 0000 0000 0000 0000
00000370: 0000 0000 0000 0000 0000 0000 0000 0000
00000380: 0000 0000 0000 0000 0000 0000 0000 0000
00000390: 0000 0000 0000 0000 0000 0000 0000 0000
000003a0: 0000 0000 0000 0000 0000 0000 0000 0000
000003b0: 0000 0000 0000 0000 0000 0000 0000 0000
000003c0: 0000 0000 0000 0000 0000 0000 0000 0000
000003d0: 0000 0000 0000 0000 0000 0000 0000 0000
000003e0: 0000 0000 0000 0000 0000 0000 0000 0000
000003f0: 0000 0000 0000 0000 0000 0000 0000 0000

bn1.running_var f4 [400]
1.0 1.0 1.0 1.0 1.0 1.0 1.0 1.0
1.0 1.0 1.0 1.0 1.0 1.0 1.0 1.0
1.0 1.0 1.0 1.0 1.0 1.0 1.0 1.0
1.0 1.0 1.0 1.0 1.0 1.0 1.0 1.0
1.0 1.0 1.0 1.0 1.0 1.0 1.0 1.0
1.0 1.0 1.0 1.0 1.0 1.0 1.0 1.0
1.0 1.0 1.0 1.0 1.0 1.0 1.0 1.0
1.0 1.0 1.0 1.0 1.0 1.0 1.0 1.0
1.0 1.0 1.0 1.0 1.0 1.0 1.0 1.0
1.0 1.0 1.0 1.0 1.0 1.0 1.0 1.0
1.0 1.0 1.0 1.0 1.0 1.0 1.0 1.0
1.0 1.0 1.0 1.0 1.0 1.0 1.0 1.0
1.0 1.0 1.0 1.0 1.0 1.0 1.0 1.0
1.0 1.0 1.0 1.0 1.0 1.0 1.0 1.0
1.0 1.0 1.0 1.0 1.0 1.0 1.0 1.0
1.0 1.0 1.0 1.0 1.0 1.0 1.0 1.0
1.0 1.0 1.0 1.0 1.0 1.0 1.0 1.0
1.0 1.0 1.0 1.0 1.0 1.0 1.0 1.0
1.0 1.0 1.0 1.0 1.0 1.0 1.0 1.0
1.0 1.0 1.0 1.0 1.0 1.0 1.0 1.0
1.0 1.0 1.0 1.0 1.0 1.0 1.0 1.0
1.0 1.0 1.0 1.0 1.0 1.0 1.0 1.0
1.0 1.0 1.0 1.0 1.0 1.0 1.0 1.0
1.0 1.0 1.0 1.0 1.0 1.0 1.0 1.0
1.0 1.0 1.0 1.0 1.0 1.0 1.0 1.0
1.0 1.0 1.0 1.0 1.0 1.0 1.0 1.0
1.0 1.0 1.0 1.0 1.0 1.0 1.0 1.0
1.0 1.0 1.0 1.0 1.0 1.0 1.0 1.0
1.0 1.0 1.0 1.0 1.0 1.0 1.0 1.0
1.0 1.0 1.0 1.0 1.0 1.0 1.0 1.0
1.0 1.0 1.0 1.0 1.0 1.0 1.0 1.0
1.0 1.0 1.0 1.0 1.0 1.0 1.0 1.0
00000000: 0000 803f 0000 803f 0000 803f 0000 803f
00000010: 0000 803f 0000 803f 0000 803f 0000 803f
00000020: 0000 803f 0000 803f 0000 803f 0000 803f
00000030: 0000 803f 0000 803f 0000 803f 0000 803f
00000040: 0000 803f 0000 803f 0000 803f 0000 803f
00000050: 0000 803f 0000 803f 0000 803f 0000 803f
00000060: 0000 803f 0000 803f 0000 803f 0000 803f
00000070: 0000 803f 0000 803f 0000 803f 0000 803f
00000080: 0000 803f 0000 803f 0000 803f 0000 803f
00000090: 0000 803f 0000 803f 0000 803f 0000 803f
000000a0: 0000 803f 0000 803f 0000 803f 0000 803f
000000b0: 0000 803f 0000 803f 0000 803f 0000 803f
000000c0: 0000 803f 0000 803f 0000 803f 0000 803f
000000d0: 0000 803f 0000 803f 0000 803f 0000 803f
000000e0: 0000 803f 0000 803f 0000 803f 0000 803f
000000f0: 0000 803f 0000 803f 0000 803f 0000 803f
00000100: 0000 803f 0000 803f 0000 803f 0000 803f
00000110: 0000 803f 0000 803f 0000 803f 0000 803f
00000120: 0000 803f 0000 803f 0000 803f 0000 803f
00000130: 0000 803f 0000 803f 0000 803f 0000 803f
00000140: 0000 803f 0000 803f 0000 803f 0000 803f
00000150: 0000 803f 0000 803f 0000 803f 0000 803f
00000160: 0000 803f 0000 803f 0000 803f 0000 803f
00000170: 0000 803f 0000 803f 0000 803f 0000 803f
00000180: 0000 803f 0000 803f 0000 803f 0000 803f
00000190: 0000 803f 0000 803f 0000 803f 0000 803f
000001a0: 0000 803f 0000 803f 0000 803f 0000 803f
000001b0: 0000 803f 0000 803f 0000 803f 0000 803f
000001c0: 0000 803f 0000 803f 0000 803f 0000 803f
000001d0: 0000 803f 0000 803f 0000 803f 0000 803f
000001e0: 0000 803f 0000 803f 0000 803f 0000 803f
000001f0: 0000 803f 0000 803f 0000 803f 0000 803f
00000200: 0000 803f 0000 803f 0000 803f 0000 803f
00000210: 0000 803f 0000 803f 0000 803f 0000 803f
00000220: 0000 803f 0000 803f 0000 803f 0000 803f
00000230: 0000 803f 0000 803f 0000 803f 0000 803f
00000240: 0000 803f 0000 803f 0000 803f 0000 803f
00000250: 0000 803f 0000 803f 0000 803f 0000 803f
00000260: 0000 803f 0000 803f 0000 803f 0000 803f
00000270: 0000 803f 0000 803f 0000 803f 0000 803f
00000280: 0000 803f 0000 803f 0000 803f 0000 803f
00000290: 0000 803f 0000 803f 0000 803f 0000 803f
000002a0: 0000 803f 0000 803f 0000 803f 0000 803f
000002b0: 0000 803f 0000 803f 0000 803f 0000 803f
000002c0: 0000 803f 0000 803f 0000 803f 0000 803f
000002d0: 0000 803f 0000 803f 0000 803f 0000 803f
000002e0: 0000 803f 0000 803f 0000 803f 0000 803f
000002f0: 0000 803f 0000 803f 0000 803f 0000 803f
00000300: 0000 803f 0000 803f 0000 803f 0000 803f
00000310: 0000 803f 0000 803f 0000 803f 0000 803f
00000320: 0000 803f 0000 803f 0000 803f 0000 803f
00000330: 0000 803f 0000 803f 0000 803f 0000 803f
00000340: 0000 803f 0000 803f 0000 803f 0000 803f
00000350: 0000 803f 0000 803f 0000 803f 0000 803f
00000360: 0000 803f 0000 803f 0000 803f 0000 803f
00000370: 0000 803f 0000 803f 0000 803f 0000 803f
00000380: 0000 803f 0000 803f 0000 803f 0000 803f
00000390: 0000 803f 0000 803f 0000 803f 0000 803f
000003a0: 0000 803f 0000 803f 0000 803f 0000 803f
000003b0: 0000 803f 0000 803f 0000 803f 0000 803f
000003c0: 0000 803f 0000 803f 0000 803f 0000 803f
000003d0: 0000 803f 0000 803f 0000 803f 0000 803f
000003e0: 0000 803f 0000 803f 0000 803f 0000 803f
000003f0: 0000 803f 0000 803f 0000 803f 0000 803f

fc2.weight f4 [300, 400]
-0.03881191 0.0740257 -0.0038595037 -0.049643498 0.042715214 -0.09969211 -0.041776896 -0.0045017954
-0.03438608 -0.054195695 0.018755639 0.26184285 0.086570136 -0.13724226 0.16580226 0.07237157
-0.08723726 -0.14565668 -0.13014428 0.052338872 -0.015011242 -0.13123201 0.03392185 -0.117082916
-0.0671533 -0.020986088 0.023301736 -0.2084197 0.032011718 0.04152319 -0.021944119 0.01176192
0.02251884 -0.10515534 -0.07981707 0.026336223 -0.22318214 -0.05973392 -0.019493308 -0.032601524
0.05130689 0.023007758 -0.04576535 0.04439735 -0.1071293 -0.02168318 0.17455709 -0.085360125
0.024839174 -0.10046645 -0.04533414 -0.322177 -0.010702582 -0.034734074 0.031058569 -0.109682865
-0.24713418 0.068869375 0.028231824 0.063918255 -0.09499613 -0.06550264 0.049808875 -0.0693233
-0.061135117 -0.1821246 0.08739474 0.14886992 -0.04775312 0.033012792 -0.047406502 -0.07729422
-0.027330076 -0.049399503 -0.005216758 0.0028747076 0.04597285 -0.1382124 -0.0738038 0.05571871
-0.046494443 0.008878469 -0.07313335 -0.13694277 -0.014784746 -0.12161986 -0.022940578 0.020112395
0.0015261226 -0.09978117 0.16029523 -0.014148492 0.04283646 -0.0020015165 -0.021290045 0.041439313
-0.08901543 -0.15003893 -0.06627531 -0.11962592 -0.08014131 0.010842102 -0.08129088 -0.076957956
0.08269231 0.02418788 -0.095520794 -0.070002496 -0.07058288 -0.068898536 0.07552884 0.15687735
-0.012233307 0.08924952 0.107830636 -0.07256204 0.19996552 -0.13549274 -0.06780986 -0.072317205
-0.013643367 0.111851245 -0.0404887 -0.023489924 -0.0034718483 0.06450149 0.011446584 0.19407137
0.06630428 0.10193041 -0.01931689 0.052291185 0.03548075 0.078351356 -0.019296985 -0.23135637
-0.10875063 0.032646485 -0.07548122 0.1414456 0.051611703 0.04802724 -0.16348296 -0.07369692
-0.06722746 0.02126103 -0.18592323 -0.0740274 -0.08651096 0.0052118157 -0.12288862 -0.09352
0.1274405 0.048436854 0.12441125 -0.050223134 -0.16572315 -0.14719504 0.2970597 -0.012011966
0.050949037 -0.13646719 0.037586696 0.034466714 0.008788124 0.049352936 -0.20727305 -0.15628217
-0.02528952 0.07842941 0.05343604 0.041310675 0.09350934 -0.010418062 0.042337205 -0.029963203
0.11956389 -0.011462795 -0.069102526 0.08368099 0.16311046 0.12564997 0.06550359 0.078547716
-0.043868624 -0.0725929 -0.13020205 -0.04723279 -0.19332422 -0.24498335 -0.027545996 -0.038332436
-0.008153247 -0.23145698 -0.00086233986 -0.13923447 -0.16941088 -0.0015279459 0.066688605 0.120690204
0.03375641 -0.12941194 0.097880416 -0.02426976 0.0716827 0.11293886 -0.11821331 0.020179592
-0.050311387 0.06586667 0.027144982 0.04057757 0.22325185 -0.037982456 -0.039346423 0.1552667
-0.038969874 -0.09559238 -0.068701595 -0.015704747 0.07913909 -0.14392814 -0.0015444991 0.059923023
0.16260235 -0.082264155 -0.08854127 -0.20933601 -0.10660726 0.043987583 -0.27724442 0.10321036
-0.066828586 0.0703441 0.004590595 0.09669587 -0.07288266 -0.01762463 -0.12459321 -0.08461906
0.047901068 0.04387069 0.052320056 0.07193489 0.13983811 -0.00033317268 0.22915493 -0.07102981
-0.013511178 -0.071280956 -0.06275125 0.07711854 -0.10017139 -0.17973047 0.04998654 0.120056026
00000000: 3df9 1ebd c99a 973d baef 7cbb fb56 4bbd
00000010: 26f6 2e3d 612b ccbd 401e 2bbd cc83 93bb
00000020: 6bd8 0cbd 4efc 5dbd 6da5 993c 4410 863e
00000030: af4b b13d 3c89 0cbe 11c8 293e 8c37 943d
00000040: 73a9 b2bd 0627 15be 8b44 05be 4961 563d
00000050: b6f1 75bc af61 06be a3f1 0a3d 2bc9 efbd
00000060: ab87 89bd 04eb abbc 48e3 be3c f96b 55be
00000070: b81e 033d 3814 2a3d 27c4 b3bc 11b5 403c
00000080: 6e79 b83c af5b d7bd 2277 a3bd 10bf d73c
00000090: dc89 64be 8eab 74bd 6eb0 9fbc 2d89 05bd
000000a0: 2c27 523d c47a bc3c 7374 3bbd ffd9 353d
000000b0: 9b66 dbbd eda0 b1bc 18bf 323e 4ad1 aebd
000000c0: 867b cb3c 5bc1 cdbd 4bb0 39bd 62f4 a4be
000000d0: e259 2fbc 5145 0ebd 8a6e fe3c 69a1 e0bd
000000e0: be10 7dbe 630b 8d3d 6d46 e73c 93e7 823d
000000f0: 558d c2bd 4026 86bd 6404 4c3d 60f9 8dbd
00000100: d168 7abd df7e 3abe 03fc b23d 5b71 183e
00000110: c798 43bd 6c38 073d 522d 42bd 6f4c 9ebd
00000120: 53e3 dfbc 2257 4abd 57f1 aabb 9765 3c3b
00000130: 074e 3c3d 8d87 0dbe 7226 97bd 4d39 643d
00000140: f570 3ebd ff76 113c f0c6 95bd ba3a 0cbe
00000150: b83b 72bc d513 f9bd e1ed bbbc c0c2 a43c
00000160: 2d08 c83a 125a ccbd 6f24 243e 14cf 67bc
00000170: 4975 2f3d e02b 03bb 7668 aebc 45bc 293d
00000180: b94d b6bd cea3 19be 5abb 87bd 6ffe f4bd
00000190: 2121 a4bd 12a3 313c d57b a6bd 229c 9dbd
000001a0: 965a a93d a925 c63c 68a0 c3bd 785d 8fbd
000001b0: c28d 90bd ad1a 8dbd ddae 9a3d 75a4 203e
000001c0: 356e 48bc 74c8 b63d 4fd6 dc3d 689b 94bd
000001d0: c3c3 4c3e 9cbe 0abe e5df 8abd 0b1b 94bd
000001e0: 6e88 5fbc 4412 e53d 7bd7 25bd f16d c0bc
000001f0: f387 63bb 5b19 843d 748a 3b3c a5ba 463e
00000200: 8aca 873d e4c0 d03d 743e 9ebc 482f 563d
00000210: 4354 113d ad76 a03d b614 9ebc afe8 6cbe
00000220: a6b8 debd 52b8 053d e695 9abd 1ed7 103e
00000230: cb66 533d 36b8 443d 1468 27be 69ee 96bd
00000240: 8dae 89bd 9d2b ae3c a962 3ebe ad9b 97bd
00000250: a82c b1bd e1c7 aa3b 07ad fbbd 6a87 bfbd
00000260: c37f 023e b965 463d 53cb fe3d c6b6 4dbd
00000270: 54b3 29be 4cba 16be 3618 983e d6cd 44bc
00000280: f0af 503d 0ebe 0bbe 82f4 193d f82c 0d3d
00000290: 10fc 0f3c 4e26 4a3d 633f 54be 6f08 20be
000002a0: f82b cfbc 999f a03d c0df 5a3d 6235 293d
000002b0: d381 bf3d 85b0 2abc c769 2d3d 6475 f5bc
000002c0: eadd f43d 72ce 3bbc a085 8dbd f060 ab3d
000002d0: 6e06 273e 63aa 003e bf26 863d a0dd a03d
000002e0: 96af 33bd 96ab 94bd b053 05be 2c77 41bd
000002f0: c9f6 45be eadc 7abe 24a8 e1bc 7902 1dbd
00000300: 3295 05bc 0f03 6dbe a60e 62ba 7b93 0ebe
00000310: 0c7a 2dbe 5b45 c8ba 0994 883d 6d2c f73d
00000320: 2944 0a3d 9084 04be 8775 c83d 60d1 c6bc
00000330: 61ce 923d 7d4c e73d d219 f2bd ac4f a53c
00000340: 5013 4ebd 1be5 863d 275f de3c ab34 263d
00000350: 229c 643e 7e93 1bbd b729 21bd 3cfe 1e3e
00000360: e09e 1fbd f0c5 c3bd 6cb3 8cbd 3ea7 80bc
00000370: ad13 a23d e661 13be ca70 caba d871 753d
00000380: 3b81 263e 1c7a a8bd 2055 b5bd 2e5c 56be
00000390: e854 dabd 532c 343d fbf2 8dbe f45f d33d
000003a0: 6ddd 88bd 9110 903d b46c 963b 7c08 c63d
000003b0: 8143 95bd 8761 90bc ba2a ffbd c24c adbd
000003c0: e933 443d c1b1 333d 8e4d 563d 9952 933d
000003d0: b931 0f3e aead aeb9 97a7 6a3e 1478 91bd
000003e0: fd5d 5dbc c0fb 91bd ba83 80bd 53f0 9d3d
000003f0: a826 cdbd 440b 38be b0be 4c3d efdf f53d

fc2.bias f4 [300]
-0.019976435 0.05328633 -0.0024432444 0.028710509 -0.013717784 -0.06275004 -0.003533326 0.021860123
-0.018712848 0.09660326 0.011590169 0.031353578 0.04347279 0.03848456 -0.033733565 -0.024522223
-0.019653983 -0.0074009066 -0.052754138 0.014107605 0.039227404 0.0028277882 -0.004824481 -0.02900653
0.04074363 0.037087467 0.013132306 0.040721163 -0.01322241 0.0135452375 -0.031108769 -0.015919162
-0.02529739 -0.021660019 -0.10602816 0.0067437557 0.025314493 -0.020355737 0.1060856 0.027728112
-0.013754736 -0.016522486 0.018017989 -0.0005038501 0.03478351 -0.07760852 -0.013542043 0.0054725404
-0.022299256 0.011957879 -0.02894202 0.008865667 0.018726584 0.026274452 -0.01954795 0.027402736
-0.019806394 -0.029674694 0.025513917 -0.026350372 -0.053919107 -0.015713874 -0.04653185 0.050519854
-0.014306357 -0.034377392 0.07464545 -0.010068284 -0.024791718 -0.06449352 0.03841866 0.111469105
0.06344131 -0.009082849 0.05286099 -0.0304068 0.010955489 -0.13539687 -0.08502483 0.026014159
-0.017635208 -0.005783993 -0.011434521 -0.0088316575 -0.07012242 0.022450808 -0.023232436 -0.04207464
-0.010540735 -0.115264095 0.008919099 -0.0410145 -0.06767069 -0.016060019 -0.0086644655 -0.04356664
-0.022731923 0.061451007 0.00044493034 0.06013997 -0.040923245 -0.06012423 0.005645744 0.048586223
-0.010173327 0.005234486 0.026148988 -0.04026388 -0.16922039 -0.013210736 -0.037302535 0.0061721373
0.037612922 -0.076204576 0.018101266 -0.045084972 -0.05609409 -0.05222974 -0.021223688 0.0013138779
-0.06677261 -0.014783609 -0.094807744 0.007312397 -0.020704323 -0.033215918 -0.052633863 -0.029149363
0.01690439 -0.12559624 -0.009372858 0.023028836 -0.0052787787 -0.055390622 -0.066098854 -0.020438159
-0.04017383 -0.033947304 0.008633483 -0.03863903 -0.05856 0.018936418 0.07970428 0.03642423
0.06791266 -0.016258214 0.0008875234 0.024613522 -0.04439041 -0.054347195 -0.05978061 0.005821416
-0.00094383786 -0.04910592 0.05497579 0.015002511 0.050632283 0.015759507 -0.047377057 0.042663388
-0.048315864 0.008525549 0.003594895 -0.035682697 0.026327431 -0.07952932 -0.030184565 0.06401382
-0.03676352 -0.02796118 0.053330634 0.04944835 0.055459943 0.009940474 -0.033172786 -0.0049359985
-0.009559239 0.024222638 -0.024994591 -0.04266895 0.06672339 -0.018387953 0.04065803 -0.061841287
0.041623484 0.005380289 -0.027230239 -0.0068507143 -0.05938307 -0.03335437 0.007974284 -0.045602575
0.048908666 0.0049123974 0.066337906 -0.065900005 -0.037661668 -0.10880757 0.002375418 -0.081431076
-0.0073016733 0.0021324558 0.031026328 -0.019929815 0.06024437 -0.053379897 0.073792085 -0.10806282
0.00019634153 -0.043462414 -0.06830903 0.06250218 -0.0016828643 -0.0029997854 0.016205346 0.041172817
-0.02548373 -0.021392072 0.015388135 -0.07023599 0.014126814 0.052093394 -0.012766068 0.052732617
0.0864957 -0.057403293 -0.006533153 -0.01738126 -0.0796978 0.005307015 -0.07028529 0.05014442
0.040520538 0.0013404391 0.040239826 -0.07565674 -0.012447284 0.017666921 0.025024058 0.07489562
0.0764494 0.00095687225 0.011176633 -0.0137104625 0.010602522 0.057314426 -0.028949073 0.013735295
0.023748795 0.044372 0.06935131 -0.011375947 -0.030665709 0.04548457 0.06411578 0.034228086
00000000: 9fa5 a3bc c442 5a3d d71e 20bb 4d32 eb3c
00000010: 8ec0 60bc 1883 80bd 608f 67bb 0014 b33c
00000020: b04b 99bc eed7 c53d b1e4 3d3c 9c6c 003d
00000030: 8610 323d fca1 1d3d 352c 0abd d4e2 c8bc
00000040: 6401 a1bc 4e83 f2bb b914 58bd 9623 673c
00000050: eaac 203d 6a52 393b ae16 9ebb 1a9f edbc
00000060: cbe2 263d 07e9 173d e228 573c 3ccb 263d
00000070: cfa2 58bc d8ec 5d3c d1d7 febc e768 82bc
00000080: 793c cfbc 5a70 b1bc 4b25 d9bd b9fa dc3b
00000090: 5760 cf3c 13c1 a6bc 6843 d93d 1126 e33c
000000a0: 8b5b 61bc 2a5a 87bc 769a 933c cf14 04ba
000000b0: 2779 0e3d 37f1 9ebd 72df 5dbc ff52 b33b
000000c0: eeac b6bc fbea 433c d117 edbc 4d41 113c
000000d0: 7e68 993c 853d d73c 0623 a0bc b47b e03c
000000e0: 0541 a2bc 5818 f3bc 9002 d13c bcdc d7bc
000000f0: 48da 5cbd 62ba 80bc 2e98 3ebd e8ed 4e3d
00000100: 3665 6abc 4fcf 0cbd b7df 983d 72f5 24bc
00000110: 0018 cbbc 2e15 84bd e35c 1d3d ea49 e43d
00000120: 84ed 813d 3bd0 14bc c484 583d ae17 f9bc
00000130: a77e 333c 7aa5 0abe 8021 aebd a51b d53c
00000140: b677 90bc a687 bdbb db57 3bbc a8b2 10bc
00000150: 589c 8fbd c2ea b73c f351 bebc 7556 2cbd
00000160: 0cb3 2cbc 950f ecbd 6a21 123c d2fe 27bd
00000170: ee96 8abd 4d90 83bc 67f5 0dbc ef72 32bd
00000180: 4c38 babc 0db4 7b3d 8a45 e939 5455 763d
00000190: 229f 27bd d344 76bd efff b83b 5902 473d
000001a0: 07ae 26bc 0d86 ab3b 6736 d63c bdeb 24bd
000001b0: 1c48 2dbe d871 58bc 8bca 18bd a43f ca3b
000001c0: 0210 1a3d 2511 9cbd 1b49 943c 05ab 38bd
000001d0: ebc2 65bd daee 55bd 4ddd adbc 6d36 ac3a
000001e0: 14c0 88bd f336 72bc 902a c2bd d59c ef3b
000001f0: 1d9c a9bc 6a0d 08bd 9b96 57bd a5ca eebc
00000200: 137b 8a3c 4d9c 00be 9e90 19bc f8a6 bc3c
00000210: 9bf9 acbb 47e1 62bd d65e 87bd ed6d a7bc
00000220: 508d 24bd 540c 0bbd 7473 0d3c f643 1ebd
00000230: 9cdc 6fbd 8c20 9b3c ff3b a33d 9331 153d
00000240: cb15 8b3d f22f 85bc b0a8 683a 4ca2 c93c
00000250: b8d2 35bd 2a9b 5ebd 83dc 74bd 94c1 be3b
00000260: e36b 77ba 4a23 49bd 4b2e 613d 18cd 753c
00000270: cc63 4f3d 151a 813c 720e 42bd cebf 2e3d
00000280: dbe6 45bd bfae 0b3c 5498 6b3b 0528 12bd
00000290: a0ac d73c 45e0 a2bd 9f45 f7bc ad19 833d
000002a0: 5895 16bd d80e e5bc 3971 5a3d 5a8a 4a3d
000002b0: f729 633d 5fdd 223c 30e0 07bd 28be a1bb
000002c0: 5b9e 1cbc 8e6e c63c 75c1 ccbc a3c5 2ebd
000002d0: 46a6 883d 55a2 96bc 0989 263d 4a4d 7dbd
000002e0: 637d 2a3d 234d b03b f311 dfbc f57b e0bb
000002f0: a93b 73bd 989e 08bd 92a6 023c c4c9 3abd
00000300: 7454 483d 2df8 a03b 2bdc 873d 95f6 86bd
00000310: 1f43 1abd 81d6 debd e7ac 1b3b 56c5 a6bd
00000320: e042 efbb acc0 0b3b ed2a fe3c da43 a3bc
00000330: cdc2 763d e1a4 5abd 4e20 973d 0a50 ddbd
00000340: 07e1 4d39 a505 32bd 9be5 8bbd 2501 803d
00000350: 8e93 dcba 0c98 44bb 13c1 843c d4a4 283d
00000360: 41c3 d0bc 6d3e afbc 841e 7c3c e3d7 8fbd
00000370: 2774 673c e25f 553d c528 51bc 28fe 573d
00000380: a824 b13d b71f 6bbd 0f14 d6bb 2563 8ebc
00000390: 9a38 a3bd 78e6 ad3b bcf1 8fbd 3c64 4d3d
000003a0: ddf8 253d acb1 af3a 84d2 243d ecf1 9abd
000003b0: b1ef 4bbc 38ba 903c 41ff cc3c e062 993d
000003c0: 8191 9c3d 9cd6 7a3a 321e 373c d9a1 60bc
000003d0: 33b6 2d3c 88c2 6a3d 9b26 edbc 010a 613c
000003e0: d58c c23c 6abf 353d 0f08 8e3d 2e62 3abc
000003f0: a736 fbbc 074e 3a3d 224f 833d c032 0c3d

fc3.weight f4 [4, 300]
-0.07699472 -0.19138692 -0.06906536 -0.13128635 -0.01842671 0.03910131 -0.014639644 -0.06514377
0.12945166 0.125028 0.010888171 -0.24037263 0.15156218 0.06084698 0.14981262 -0.1083307
-0.033190012 -0.07368488 -0.15627094 -0.057426322 -0.0152213685 -0.012223685 -0.04158185 -0.09704481
-0.09969144 -0.035308406 -0.0565971 -0.019649865 0.10878261 -0.02248044 -0.021279342 -0.05173375
0.12023038 0.02227615 0.0075696115 -0.08674288 -0.1616192 0.03499377 0.1190142 -0.062285338
-0.007678368 -0.09023379 -0.15124872 0.16384195 -0.045519035 -0.06410863 -0.0355372 -0.101131685
-0.50100243 -0.014260384 -0.4352459 -0.102129884 -0.017221982 0.047345206 -0.10102505 -0.07452471
-0.11757689 -0.027325002 -0.16367924 0.013756823 -0.10801936 -0.100940906 0.009525662 -0.21131498
-0.038413078 0.065050125 0.011391479 -0.14504811 -0.10414813 -0.05743279 -0.09069653 -0.23295324
-0.05164016 0.05329151 0.18692915 -0.04593477 0.023643931 -0.14027314 0.005020254 -0.010207274
-0.21822213 -0.035775974 -0.014021534 -0.023572583 -0.05543588 -0.12957764 -0.033272557 -0.046516106
0.04623541 0.0052400543 -0.025226172 -0.07927196 0.0061949994 0.06186939 -0.09539492 -0.007808838
-0.14548856 0.14992927 0.009434086 -0.021936134 -0.2495472 -0.025742467 -0.35611367 -0.14682008
-0.11008453 -0.054788873 -0.04801775 -0.034480873 -0.41376808 0.048116576 -0.03001163 -0.06924126
0.01026322 -0.046590745 -0.018740468 -0.06112751 -0.021973975 0.004945335 -0.011548841 -0.0981889
-0.0426319 -0.043773994 -0.02340951 -0.10887868 -0.0755176 0.16674493 -0.110397816 -0.06081723
-0.032251906 -0.049500257 0.026474996 0.04793835 -0.108798526 -0.02117713 -0.029212877 -0.10498834
-0.070813596 -0.071203865 0.052269313 0.0296729 -0.14687292 -0.04972998 -0.054450832 0.13209896
-0.13671331 -0.021559907 0.05784185 -0.032522537 -0.09950867 0.089816004 -0.10008753 -0.008114767
0.08805289 0.08878874 -0.055212796 -0.051687077 -0.030458465 0.13320588 -0.039631486 0.017709756
-0.08444513 -0.06455553 -0.09533758 -0.1684364 -0.10164504 -0.05134956 -0.0656947 -0.035834197
-0.16325589 -0.20487541 0.32619345 -0.05235639 0.03262518 -0.12323291 -0.117995754 -0.060548253
0.12007812 -0.094816454 -0.07051048 -0.0027420386 -0.046290554 -0.10079224 -0.032241024 -0.034546193
-0.06095282 -0.0645288 0.11341233 -0.020034876 0.078113034 0.044265646 -0.015626617 -0.2869952
-0.1141287 -0.14320274 -0.07888622 -0.01045317 -0.059525784 0.07335325 0.08378559 -0.0217315
0.019965377 -0.08423576 -0.15466563 -0.099941865 -0.03516523 0.0203888 -0.1029063 0.01642767
-0.036125332 -0.09488894 0.04103462 -0.19623907 -0.075118646 -0.26538318 -0.06341726 -0.09404988
-0.04001304 -0.019109927 -0.41501096 -0.094919324 -0.06780513 -0.11564496 -0.042346288 0.09985153
-0.051433973 -0.012280562 -0.07104287 -0.2187181 -0.10112974 -0.025331505 0.0043074284 -0.06874818
-0.19928777 0.07513878 -0.041864224 -0.12124255 0.1393681 -0.07211228 -0.08173527 -0.1044395
0.14919078 -0.06022399 -0.05043214 -0.085088804 -0.057353728 0.15889832 -0.018847972 -0.13168013
-0.10824511 -0.07200871 0.041512363 -0.0064425347 -0.08295426 -0.040382873 -0.14658263 -0.07765922
00000000: 68af 9dbd effa 43be 2472 8dbd ee6f 06be
00000010: 9df3 96bc b228 203d 1edb 6fbc 196a 85bd
00000020: fa8e 043e 5707 003e 4d64 323c 3e24 76be
00000030: 1e33 1b3e af3a 793d 7b68 193e 7cdc ddbd
00000040: 40f2 07bd 19e8 96bd 7d05 20be dd37 6bbd
00000050: 0c63 79bc da45 48bc bb51 2abd 6ebf c6bd
00000060: 072b ccbd 8c9f 10bd 5cd2 67bd c1f8 a0bc
00000070: 6bc9 de3d e628 b8bc 0452 aebc c5e6 53bd
00000080: 583b f63d 797c b63c 810a f83b 40a6 b1bd
00000090: 817f 25be a155 0f3d b8bd f33d e91e 7fbd
000000a0: d29a fbbb 7ecc b8bd f2e0 1abe 2fc6 273e
000000b0: 2b72 3abd 634b 83bd 748f 11bd 211e cfbd
000000c0: b241 00bf 63a4 69bc 8dd8 debe 7929 d1bd
000000d0: 1d15 8dbc 0ced 413d 39e6 cebd 69a0 98bd
000000e0: 27cc f0bd afd8 dfbc 889b 27be 4c64 613c
000000f0: 4139 ddbd 1bba cebd 8611 1c3c f462 58be
00000100: 0857 1dbd 0039 853d 53a3 3a3c 7e87 14be
00000110: 9d4b d5bd a53e 6bbd 1abf b9bd 4b8b 6ebe
00000120: a284 53bd 3348 5a3d 5b6a 3f3e 1926 3cbd
00000130: ebb0 c13c c3a3 0fbe f180 a43b 693c 27bc
00000140: 9f75 5fbe d489 12bd 93ba 65bc 4a1b c1bc
00000150: bc10 63bd 00b0 04be ce48 08bd ac87 3ebd
00000160: 5761 3d3d c3b4 ab3b 1ea7 cebc 5659 a2bd
00000170: 6cff ca3b c26a 7d3d 695e c3bd 48e1 ffbb
00000180: f4fa 14be 0f87 193e 6d91 1a3c 68b3 b3bc
00000190: 4d89 7fbe dee1 d2bc 8854 b6be 0158 16be
000001a0: 0074 e1bd 4c6a 60bd 43ae 44bd d13b 0dbd
000001b0: 69d9 d3be e315 453d f3da f5bc 5dce 8dbd
000001c0: 1127 283c f0d5 3ebd 9c85 99bc d760 7abd
000001d0: c402 b4bc 7a0c a23b 5a37 3dbc 4317 c9bd
000001e0: ca9e 2ebd 5c4c 33bd 4dc5 bfbc c9fb debd
000001f0: f9a8 9abd 2fbf 2a3e 4018 e2bd 7d1b 79bd
00000200: 931a 04bd c8c0 4abd 17e2 d83c 015b 443d
00000210: c3d1 debd a97b adbc d84f efbc 2004 d7bd
00000220: b806 91bd 55d3 91bd 5918 563d 9514 f33c
00000230: db65 16be aab1 4bbd d607 5fbd f344 073e
00000240: 93fe 0bbe 679e b0bc 93eb 6c3d 5a36 05bd
00000250: 34cb cbbd 74f1 b73d b1fa ccbd cdf3 04bc
00000260: 1355 b43d dfd6 b53d d026 62bd d4b5 53bd
00000270: 0884 f9bc 1f67 083e a054 22bd 0d14 913c
00000280: 91f1 acbd b135 84bd 5940 c3bd 977a 2cbe
00000290: 462b d0bd eb53 52bd f18a 86bd e1c6 12bd
000002a0: 8d2c 27be dcca 51be d402 a73e a773 56bd
000002b0: fba1 053d 8961 fcbd c2a7 f1bd 7201 78bd
000002c0: 84eb f53d 212f c2bd cc67 90bd c6b3 33bb
000002d0: 2a9b 3dbd 296c cebd 2a0f 04bd 4f80 0dbd
000002e0: aaa9 79bd ad27 84bd b944 e83d 2e20 a4bc
000002f0: baf9 9f3d e54f 353d 6403 80bc 09f1 92be
00000300: 4fbc e9bd bda3 12be 198f a1bd c643 2bbc
00000310: 4fd1 73bd 3b3a 963d c897 ab3d 4206 b2bc
00000320: 6e8e a33c cc83 acbd ab60 1ebe 52ae ccbd
00000330: 6b09 10bd 6a06 a73c 8ac0 d2bd 5293 863c
00000340: 28f8 13bd 2255 c2bd eb13 283d e5f2 48be
00000350: ced7 99bd 4ee0 87be e9e0 81bd 399d c0bd
00000360: b7e4 23bd 6c8c 9cbc 517c d4be 1065 c2bd
00000370: 6add 8abd 44d7 ecbd 4d73 2dbd f57e cc3d
00000380: 6eac 52bd 6934 49bc ed7e 91bd a3f7 5fbe
00000390: 1c1d cfbd 0484 cfbc 5425 8d3b d9cb 8cbd
000003a0: 1812 4cbe 5ce2 993d d279 2bbd 044e f8bd
000003b0: 83b6 0e3e 9aaf 93bd d264 a7bd 60e4 d5bd
000003c0: 78c5 183e 6ead 76bd ee91 4ebd 0a43 aebd
000003d0: beeb 6abd 3eb6 223e 1067 9abc 28d7 06be
000003e0: 9daf ddbd 4d79 93bd de08 2a3d e61b d3bb
000003f0: ece3 a9bd 8368 25bd c219 16be cc0b 9fbd
